runs/lstm_uncentered/lstm_uncentered_java.pt (torch, 701983 bytes, 10 tensors)

emb.weight f4 [256, 32]
000000 36 57 94 be 89 17 7a 3f 09 2c 66 bf f5 f7 71 3e
       -0.28972787 0.9769216 -0.8991094 0.23629744
000010 34 6c 85 3f 34 59 ce be fa 0e 09 bf 5e 93 57 3f
       1.0423646 -0.40302432 -0.5353848 0.8420924
000020 f5 2b c1 3e f9 53 93 3e f6 72 d7 3e d7 43 57 3f
       0.3772885 0.28775004 0.42079896 0.8408789
000030 e4 23 9f 3f 04 73 2d 3e f3 eb 67 3f 28 36 93 bf
       1.2432828 0.16938406 0.90594405 -1.1500902
000040 8b 6c ea 3e 6a 21 70 bf 19 93 be 3e 30 9c de 3e
       0.45785937 -0.93800986 0.37221602 0.43478537
000050 9f c5 0f bd 3b 7d b1 bf 25 92 7f 3e 6c ec 0c bf
       -0.035100576 -1.3866342 0.24958093 -0.5504825
000060 9b 5a 33 bf 8d 61 b0 bf de 62 08 bf e4 bf 9a bf
       -0.7006013 -1.377977 -0.5327586 -1.208981
000070 b0 32 27 40 3a ca 74 be 36 09 83 bf b6 5c 0c 40
       2.6124687 -0.23905268 -1.0237186 2.1931586
000080 45 26 88 3f 7b 06 37 bf 75 07 61 bf f4 53 b3 bf
       1.0636679 -0.71494263 -0.87902004 -1.4009995
000090 c3 22 07 bf 59 81 05 40 e4 f4 fb 3e 5c 17 2e c0
       -0.5278742 2.0860198 0.49210274 -2.7201757
0000a0 e1 d8 6d bf 3e 19 48 be 7f c1 96 be 4a 00 2b 3f
       -0.92909056 -0.19540879 -0.294445 0.66797316
0000b0 81 bf 58 3f 14 68 96 3f a7 2e 0f 3e d8 4d a6 3f
       0.8466721 1.1750512 0.1398264 1.2992506
0000c0 aa 2e 0d bf ab cd 87 3d d4 8f 06 40 9e 6d 86 bf
       -0.5514933 0.06631025 2.1025286 -1.0502203
0000d0 f3 44 bd 3f 2d 2d 45 3f 4e af a0 3f 74 e4 d3 3e
       1.4786667 0.7702206 1.2553499 0.41385233
0000e0 c0 ee f6 bd d6 ea b3 3f 3a ef d5 3e dd f5 c0 3e
       -0.12057257 1.4056041 0.41784078 0.3768758
0000f0 30 67 b2 3f a7 b0 8c 3f 66 5e 37 bf bb 13 c8 3e
       1.393774 1.099141 -0.71628416 0.39077553
000100 c4 be 1d 3f 27 22 97 be 2c 85 00 bf 55 9e 06 3f
       0.6161921 -0.29518244 -0.50203204 0.52585346
000110 e3 1e c8 bf ac 23 b8 bf 1b e1 b9 3e 88 9a 3b 3f
       -1.5634426 -1.4385886 0.36304554 0.7328267
000120 17 1a 85 3f e1 79 36 3e c6 f5 77 3f 14 af 12 c0
       1.0398587 0.1781993 0.96859396 -2.291936
000130 a5 b9 28 3f 7c de fa be 41 4c 66 bf b8 ef 01 be
       0.6590827 -0.48997867 -0.89960104 -0.12689102
000140 b3 84 b9 3e 9d c1 e5 be 7a 02 25 3e 63 af fe 3e
       0.36234054 -0.44874278 0.16114226 0.49743184
000150 c5 d1 13 c0 74 c0 2e 3d 09 38 19 3f 7c 79 14 bd
       -2.3096783 0.042664006 0.5985113 -0.03624867
000160 3e 36 e6 3f 41 26 c8 bb a7 89 da 3e 60 2c d7 be
       1.7985303 -0.006108076 0.42683145 -0.42026043
000170 b7 ac d7 bf dc b5 bc be dc a5 61 3f 34 b0 00 40
       -1.6849583 -0.36857498 0.88143706 2.0107546
000180 07 55 e1 3f e4 cf 18 bf 9a 9f ab bf be 44 3f 3f
       1.7604073 -0.59692216 -1.3408082 0.7471427
000190 45 bd 18 3f 6b 55 bd 3f 23 ad a5 bd 7d 58 79 3e
       0.596638 1.4791692 -0.08089664 0.24350162
0001a0 1e 69 c8 3f c1 d1 de bf 12 df 2a 3f 7c b7 68 bf
       1.5657079 -1.7407762 0.6674663 -0.90904975
0001b0 7f 8a d5 3f 82 cb d6 bf 1d 02 d9 bd a1 16 88 bd
       1.6682891 -1.6780856 -0.10596106 -0.06644941
0001c0 9d 01 19 bf 92 bc 6e bf cd a1 7c bf 7e fd 48 3e
       -0.59768087 -0.93256485 -0.9868439 0.1962795
0001d0 71 df a0 bf 5c ed 0e bf 03 6e 1e c0 15 2c 8b bf
       -1.2568189 -0.5583093 -2.4754646 -1.0872828
0001e0 26 87 1d c0 c0 25 ff bf aa 9b 7a 3f 02 c0 f5 bd
       -2.4613738 -1.9933395 0.97893775 -0.11999513
0001f0 0e 06 fc bd cc 5e 20 bf 70 58 43 bf bb f4 b7 3e
       -0.12305842 -0.6264465 -0.7630682 0.35928902
000200 db a2 9c 3f ce e6 29 bf be d2 05 bf 6e 09 8b bf
       1.22372 -0.66367805 -0.5227469 -1.0862253
000210 6c 45 0b bf 21 52 44 be ff 8d 09 3e 6c 96 56 bf
       -0.54402804 -0.19171955 0.13433073 -0.83823276
000220 34 92 88 be 26 4f 0e 40 02 c1 3f be 5f 0b bf be
       -0.26674044 2.2235808 -0.1872597 -0.37313363
000230 e3 6c b2 3f 38 5f 32 3c cc 28 95 3f f0 0b 82 be
       1.393948 0.01088696 1.1653075 -0.25399733
000240 96 13 27 40 81 c2 a6 3e 4f be e4 be fa a1 2b 3f
       2.6105704 0.3257027 -0.44676444 0.6704403
000250 1f e4 9c 3d 79 08 8e bf 31 d0 7a 3e 65 22 13 bd
       0.07660698 -1.1096336 0.24493481 -0.035921473
000260 81 10 86 bf 0a 00 8c bf b4 fe 6f be ee 61 83 bd
       -1.0473787 -1.0937512 -0.23437005 -0.06415163
000270 53 7e dd bf 8b 68 7c 3f 92 55 b5 3f ab 31 a2 3f
       -1.7304176 0.9859702 1.4166739 1.2671407
000280 fe aa 61 3d 7c fb f0 3e 12 bc 4c 40 2f 1d 6c 3e
       0.05509471 0.47066867 3.198979 0.23058008
000290 17 c9 0f bf a1 b1 54 3e e0 65 07 40 42 99 ee bd
       -0.56166214 0.20770885 2.115593 -0.11650325
0002a0 cf e6 f2 be 43 88 9d bf 04 0d 05 bf 1d 95 2d 3f
       -0.47441718 -1.2307209 -0.51972985 0.67805654
0002b0 d0 7b cc 3c eb 15 54 3f 0b b6 43 40 80 5e bb bf
       0.024961382 0.82845944 3.057986 -1.4638214
0002c0 5c 35 e8 3e 80 35 f2 bd 20 73 b0 bf 92 3c 93 be
       0.4535321 -0.118266106 -1.3785133 -0.2875715
0002d0 32 02 4b bf 40 f9 2e 3e 52 61 99 be 89 ef cd 3f
       -0.79300225 0.17087269 -0.29957062 1.6088725
0002e0 92 66 65 3f cc 56 4f 3f d8 a5 10 3e 02 d2 40 3e
       0.89609635 0.80991817 0.14125764 0.18830112
0002f0 5f b3 2c c0 2b 87 62 bf 8c 18 40 3f e2 88 b5 3f
       -2.698448 -0.884875 0.75037456 1.4182398
000300 74 e1 16 bf 9d 31 ca bf cf a1 14 be dd 08 67 bf
       -0.58937764 -1.5796391 -0.1451485 -0.902479
000310 2a e2 72 bf 49 b0 04 40 f3 b1 98 bf 35 4b 61 bf
       -0.9487635 2.0732596 -1.1929306 -0.8800538
000320 86 f8 ee bf 62 ee 56 be fc ce 4a 3d 22 ce 12 3f
       -1.8669593 -0.20989373 0.049513802 0.57345784
000330 40 df 54 3e 22 60 90 3f 7c b8 23 3d 09 5b 80 bf
       0.20788288 1.1279337 0.03997086 -1.0027782
000340 3e ff 2c be a7 cd 00 bf a0 d8 1b bf 22 d9 c2 3f
       -0.16894242 -0.503138 -0.6087742 1.5222514
000350 6f eb 15 3e 77 e5 15 be d1 9a b4 be 88 79 b8 3f
       0.14640592 -0.14638315 -0.35274366 1.4412088
000360 d2 63 99 bf 7d dd 0d 3f f7 6a 45 bf 63 bf bb 3f
       -1.1983588 0.5541609 -0.7711634 1.4667782
000370 f8 53 53 bf e6 2a 87 3f e5 5a 94 be 71 a2 95 be
       -0.8255 1.0559967 -0.28975597 -0.29225495
000380 23 e1 d8 bf 14 5a 28 bc b3 02 9e 3f ca 3d 58 bc
       -1.6943706 -0.010275383 1.2344574 -0.013198325
000390 79 61 85 bf f7 65 b7 bf 16 69 d1 be e7 f1 f5 3f
       -1.0420371 -1.4327992 -0.40900487 1.9214448
0003a0 5b 9a 37 3f 46 02 82 3f 79 1f b5 3f ef 4f 10 c0
       0.717199 1.0156944 1.415023 -2.2548788
0003b0 0b 61 da bd 90 55 b8 3f a2 66 32 3f 9b 63 62 be
       -0.10663041 1.4401112 0.69687855 -0.22108309
0003c0 f6 a2 38 bf df 09 01 bf df a4 ea 3f 18 e6 0d c0
       -0.7212366 -0.5040569 1.8331565 -2.2171688
0003d0 75 6f 26 c0 bf e2 64 3f 73 50 8c be 89 5e 8c bf
       -2.6005528 0.8940849 -0.27405128 -1.096635
0003e0 7c 66 73 be 5f af a7 bf c7 ec 47 3f cd 95 ff be
       -0.23769563 -1.3100394 0.7809567 -0.49918976
0003f0 ab 6c 4b 3e 90 e0 8b bf ce f1 7e bf ce 3a d4 be
       0.19865672 -1.0927906 -0.99587715 -0.41451114

lstm.weight_ih_l0 f4 [512, 32]
000000 cc 44 9e 3c d8 81 08 3d 28 9c 86 bb dd ed b4 3d
       0.019319914 0.033326954 -0.0041079707 0.08834431
000010 30 f6 4f 3d de 09 27 3c 71 9e a3 ba 63 05 4d bd
       0.050771892 0.010195224 -0.0012483132 -0.050053965
000020 30 15 23 3b 31 8f 50 3d 94 e6 de 3d e8 bf 30 3d
       0.0024884455 0.050917808 0.10883823 0.043151766
000030 4b 0b 9a 3d d2 e4 13 3d 81 81 36 bd f3 ad 82 3d
       0.07521685 0.036106892 -0.0445571 0.063808344
000040 fc 1d 16 be c9 4c 43 3c c4 34 6a 3d ff 6b be bd
       -0.14659876 0.0119201625 0.057179227 -0.09297942
000050 05 34 d2 3d 61 85 19 3c db 70 0c bd 63 e8 ec 3b
       0.10263828 0.009370179 -0.034287315 0.007229851
000060 1e 13 b4 3d dc 79 f6 3c 04 c0 58 3d b8 43 1c be
       0.08792709 0.030087404 0.052917495 -0.15260208
000070 1e 8a 30 bd d9 71 6d bd c8 ee 9f 3c cc cb cd bd
       -0.04310047 -0.0579699 0.01952304 -0.10048637
000080 ff a2 8a 3d cb d1 4b bc 05 92 08 3d 45 bf 3e bd
       0.0676937 -0.012440155 0.03334238 -0.046569128
000090 d7 bb 07 3b a3 49 b5 bc 08 3a 71 bd 9b eb 84 bd
       0.0020711327 -0.02212984 -0.058893234 -0.06490251
0000a0 b1 db 07 3d 75 e0 b6 3d f8 63 21 bd 9a cd cf 3b
       0.0331685 0.089295305 -0.03940198 0.0063416483
0000b0 5f 2c 20 3b 55 e0 5b bd e2 b6 84 39 ed d0 97 3c
       0.002444051 -0.053680737 0.0002531326 0.01853224
0000c0 eb f0 f7 3c ad 37 1d bd 0b d8 da bb 7b a7 83 bc
       0.030266246 -0.038383175 -0.0066785864 -0.016071072
0000d0 e5 61 e1 bc 86 cc 7e 3d a5 ae 55 3c 52 7b 07 3e
       -0.0275125 0.062206767 0.013042127 0.13230637
0000e0 a4 58 ef 3d 65 7d e1 bc 1f e5 4e 3d 1a e9 8a 3d
       0.11686829 -0.027525613 0.050511476 0.06782742
0000f0 ab c4 8b 3d 38 30 ac bd 96 cc 62 3c 1f 93 9f bc
       0.06824621 -0.084076345 0.013842722 -0.019479332
000100 2f b5 ea 3c 72 4d d5 3c cd d9 d7 3c 20 3f 35 bd
       0.028650848 0.026037905 0.026348973 -0.044249654
000110 21 d1 42 3c e6 40 7b bd bb 26 ab 3b db 39 32 bd
       0.0118906805 -0.06134119 0.005223123 -0.043512207
000120 76 56 bf bd d7 fc d1 b9 70 3b 10 bd 7c ac ce 3d
       -0.09342663 -0.00040051967 -0.035212934 0.100914925
000130 a3 68 ac bc 0d 81 c6 3d 71 27 24 bd 5c e6 3d bd
       -0.021045988 0.09692583 -0.040076677 -0.046362266
000140 f8 77 89 bc 15 1e 51 bd 74 18 2a bd 73 8b 62 3c
       -0.016780838 -0.05105408 -0.041527227 0.013827193
000150 bc 6b e8 3d 69 c5 97 3b b8 ef 33 3d 3b f9 c2 3b
       0.11348674 0.0046316874 0.043929785 0.0059501207
000160 0e dc d1 bb 4e 44 6c bd a2 0b fc bc b1 4f fd 3c
       -0.0064044064 -0.057682328 -0.030767266 0.030921789
000170 d0 14 ee bb 24 86 d8 bd 77 e0 bc 3d ef 72 d3 3d
       -0.0072656646 -0.1057246 0.09222501 0.10324656
000180 53 92 d8 bc 0a c3 43 be 9c 55 69 3c 09 c5 d6 bc
       -0.02643696 -0.1911737 0.014241602 -0.026217
000190 93 eb ed 3c 5e 14 00 3d 25 e9 84 3d cc 33 95 3c
       0.029042995 0.031269424 0.06489781 0.018213175
0001a0 63 09 19 3e 71 10 7c bc 64 cf 7b 3d 1c 88 c9 3c
       0.14944987 -0.015384779 0.06147708 0.024601035
0001b0 ad 72 da bc ba e7 c1 3d 18 11 d4 3d 8f ba 04 bd
       -0.02666601 0.094680265 0.10354823 -0.03240448
0001c0 b6 ed 34 be a5 11 38 3b 00 40 e3 bd 0d 38 88 bd
       -0.17668805 0.0028086689 -0.110961914 -0.06651316
0001d0 74 34 7f bd 36 74 0c bd a0 ad d3 bc e5 21 8a 3d
       -0.062305883 -0.034290515 -0.025839627 0.06744746
0001e0 ca af 3b 3d 24 b9 35 be 1e 0d 98 bb f3 ec b9 3d
       0.045821942 -0.17746407 -0.0046402356 0.090783976
0001f0 bf 4d 19 3e 14 a9 93 bd 48 16 60 bd 70 ad 0a 3e
       0.14971064 -0.072099835 -0.05470875 0.13542724
000200 73 00 c7 3b 5a 11 e8 bc fc 65 28 bc c5 31 74 bd
       0.0060730516 -0.028328586 -0.010278221 -0.059617776
000210 d0 68 91 bc 5e 3a fb bc b5 6c df bd c8 65 2d 3d
       -0.017750174 -0.03066748 -0.10909406 0.042333394
000220 97 bb 7e 3b e3 39 b4 3d f4 2f 63 bd d0 4e 7a 3d
       0.0038869136 0.088001035 -0.055465654 0.061110318
000230 6c df 27 be 46 5c 11 3e 56 db 89 bd a1 61 80 3d
       -0.16393822 0.14195356 -0.06731288 0.06268621
000240 9f 82 e5 bc 36 b7 79 bd f9 80 8d 3c 15 a5 b1 3c
       -0.028016387 -0.06096574 0.017273413 0.021685163
000250 2c be be 3c db ce 9e bd d8 61 0e be 84 42 a5 3d
       0.02328404 -0.07754298 -0.13904512 0.080693275
000260 f3 19 52 3d 2c 2a b0 3c 35 8a 3f 3c 18 c3 de 3d
       0.05129428 0.021504484 0.011690666 0.10877055
000270 38 2f 8a 3d 20 5e 58 3d 27 b6 61 bd 38 d5 3e 3d
       0.067472875 0.05282414 -0.055105355 0.04659006
000280 8b bd b5 3d a2 a6 b6 3d e5 bf 20 3c 58 3c 14 3d
       0.08874043 0.089185014 0.009811376 0.03619036
000290 81 d2 df bd 3b d1 0b 3d 24 a6 e3 3c 66 2c 8e bd
       -0.10928822 0.034135085 0.027789183 -0.06942062
0002a0 c0 93 b4 bb d1 80 56 bd de 78 cc 3d f7 02 48 bd
       -0.0055107772 -0.052368943 0.09983991 -0.048830952
0002b0 60 db 87 ba 9e 16 8c bd 4c 1e a5 3d a8 ed 19 3d
       -0.0010365061 -0.068402514 0.08062419 0.037580162
0002c0 c9 76 96 3d 28 4a e7 3a 80 a4 d2 bd 52 05 07 be
       0.07346875 0.0017646002 -0.10285282 -0.13185623
0002d0 d8 92 cf 3d c9 8c 03 bd 64 42 55 3c 91 fa a3 3d
       0.1013543 -0.032116685 0.013016317 0.08006776
0002e0 79 ef 16 3e f9 e6 ea bc 7f 79 13 be 98 e6 c2 3c
       0.14739789 -0.02867459 -0.14401816 0.023791596
0002f0 56 61 45 bd db 1d bb bc 03 2e f5 3d 53 93 0d be
       -0.04818853 -0.022841385 0.11971667 -0.13825731
000300 ae 60 3d bd f8 6c e6 3c 82 97 52 3d b7 c5 1e 3a
       -0.04623478 0.028128132 0.05141402 0.00060566835
000310 88 3f 2c 3c af 13 f6 3c d9 a7 3f 3d 9f 57 7c bd
       0.010513194 0.030038683 0.04679093 -0.061607
000320 4b 1b 13 bc 59 d3 f4 3c e5 79 c2 3d f3 52 d3 bd
       -0.008978675 0.029885935 0.09495906 -0.10318556
000330 2a 33 b5 3d 90 27 c8 bc 77 14 b3 bc 19 6e 28 3d
       0.088476494 -0.024432927 -0.021860344 0.041120622
000340 a1 41 e2 3c 68 be fe bc 3d 0d 62 bd 63 42 04 be
       0.027619185 -0.031096652 -0.055188406 -0.1291595
000350 9e 28 ba 3c a8 98 aa bd d0 32 d2 bd 28 0d e6 bb
       0.022724446 -0.08329898 -0.10263598 -0.0070206113
000360 f8 4f b4 3d 76 86 a1 bd 3f 04 11 bd f8 4c fa bd
       0.08804315 -0.078869745 -0.03540444 -0.12221712
000370 9c ec 92 3d f4 dd f4 3a 44 5c ba bc ed cd ec 3c
       0.07174036 0.001868187 -0.022749074 0.028906787
000380 a5 9c 9a 3a 69 e4 56 bd a9 5d c8 3b ee 99 c8 bc
       0.0011795951 -0.052463923 0.006114681 -0.024487462
000390 9a f5 47 3d 15 13 02 3d 2a 91 a2 3c d3 63 56 bd
       0.04881821 0.03175648 0.01984461 -0.052341294
0003a0 80 f0 87 bb d8 dc 63 bc 44 45 89 3d 22 c2 78 3d
       -0.004148543 -0.013907634 0.067026645 0.060732014
0003b0 f0 f9 06 bd 4a 11 2d 3d c3 1f 4d 3d 3a e3 d2 bd
       -0.032953203 0.042252816 0.05007912 -0.10297246
0003c0 a0 94 87 bd 4d 7d 63 3c 58 e6 49 bd 94 30 d4 bd
       -0.06620145 0.0138848545 -0.04929194 -0.10360828
0003d0 0b 33 4c 3d 6a 17 33 bc 48 15 57 bd 77 e6 bd 3d
       0.049853366 -0.010930875 -0.05251053 0.09272473
0003e0 8b 1d 85 3c 13 ad 32 3d a5 b9 b5 bd bf a6 20 3d
       0.016249439 0.043622088 -0.088732995 0.03922152
0003f0 f0 51 37 bd 87 bb 3c bc e9 2c ce bc 5d 04 46 3d
       -0.044755876 -0.011519319 -0.0251679 0.048344005

lstm.weight_hh_l0 f4 [512, 128]
000000 65 81 b4 bd 98 ae c2 bd fa 78 27 3d 9f b8 06 bd
       -0.088137425 -0.09505957 0.040886857 -0.032890912
000010 15 49 b8 bd 2a 92 af bc f3 95 7d 3d 3d 47 23 3c
       -0.08998314 -0.021432001 0.06191058 0.009965715
000020 7d bb a1 bc 35 2c b6 3d 66 eb 86 3d 15 9d bc 3c
       -0.019742722 0.088951506 0.065878674 0.023024121
000030 5f d2 df bc d4 bc c7 bd 65 bc 82 bd b7 38 b6 39
       -0.027321992 -0.09752813 -0.0638359 0.00034756
000040 0b 1d 99 3c 0a 9b 72 3d bd 66 ca 3d b7 ee 78 bd
       0.018690607 0.059229888 0.09882877 -0.06077453
000050 f1 46 d0 3a 9f 7f 7c bd 64 82 3d 3d 3d 18 8c 3c
       0.0015890283 -0.061645146 0.04626693 0.017101401
000060 25 dd 3a 3b 43 bc 3b 3d cb 97 f2 3c 60 d2 97 bc
       0.002851316 0.045833837 0.029613396 -0.018532932
000070 70 5a cd bd 1e f9 05 3d 7f 17 3b 3d 13 00 29 3c
       -0.10027015 0.03270828 0.045676704 0.010314959
000080 6d ed b7 bd af c7 39 bc 22 51 2c bd 76 a4 1e bc
       -0.08980832 -0.011339112 -0.04206956 -0.009682765
000090 7a a5 37 bd 28 d8 4b bd d8 18 cc bd 7c 9b 84 3d
       -0.044835545 -0.04976669 -0.09965676 0.06474969
0000a0 0d 0a c2 3d b9 37 f5 3c cd 05 96 3d 3c 1d 65 bd
       0.09474573 0.029933797 0.07325325 -0.055936083
0000b0 e9 8d 94 bd c2 06 90 3d d6 3d 7d 3d 6f c4 0a 3d
       -0.0725363 0.07032539 0.06182655 0.03387874
0000c0 f2 0f fb bc 6f 91 b4 3d 09 10 3c bd 7c 65 57 3c
       -0.030647252 0.08816802 -0.04591373 0.013146754
0000d0 d7 f6 45 3d 2f d1 b7 bd d3 ee 64 bd f6 76 91 bd
       0.048331108 -0.089754455 -0.055891823 -0.07102768
0000e0 1b b0 94 bd 95 cd 92 bd 69 e6 a9 3d e6 e8 aa 3d
       -0.07260152 -0.07168118 0.082959004 0.08345203
0000f0 81 71 07 3c bc 23 55 3d 56 11 a8 3c 76 d3 f2 bc
       0.0082668075 0.052036032 0.020516079 -0.029641848
000100 14 2b f0 3b f1 db 8e 3d f2 91 ab bd a9 ed bc 3c
       0.007329354 0.06975544 -0.08377446 0.023062544
000110 69 ef 12 bd d3 c7 ba 3d 4e 47 6d 39 71 e8 92 3d
       -0.03587285 0.09120145 0.00022628644 0.07173241
000120 7d 30 79 bd 87 6b e4 bd 7f 62 c6 bc 3a 94 ee 3b
       -0.060837258 -0.11153322 -0.024216888 0.0072808536
000130 a3 a9 32 3d 06 2b ef 3c fe 64 41 3d a4 27 cc bc
       0.04361881 0.02919532 0.047215454 -0.024921246
000140 a9 07 d1 3d 39 97 da 3c d7 77 87 3d d6 27 1f 3c
       0.10206539 0.026683437 0.066146545 0.0097140875
000150 6b 88 e9 3d 6f 3a 37 bd 01 9e b6 bc 24 b8 d9 3c
       0.11402973 -0.04473346 -0.022292139 0.026577063
000160 2c e5 07 bd 73 ce d3 3d 06 da ad 3d fc 82 8f bd
       -0.03317754 0.103421114 0.0848885 -0.07007405
000170 7a 9c 76 bd 0c 22 bb bd e6 0b 81 3d 2b 51 80 3d
       -0.06020782 -0.09137353 0.063010976 0.062654816
000180 39 1b 63 3c 9b d6 54 3c 56 d2 64 bd 73 12 87 3d
       0.013861471 0.012990619 -0.055864654 0.06595316
000190 f8 4f d4 3c 4b 93 bc bd ba 91 c6 3c fd f9 2e 3d
       0.025917038 -0.092077814 0.02423941 0.042718876
0001a0 43 65 d6 bd 32 7c 2f bc 0e 56 56 3d 59 0d 65 3d
       -0.10468533 -0.010710763 0.052328162 0.055920932
0001b0 70 36 80 bd f8 3b 6a bc f5 ed 5d bc c6 52 6f bd
       -0.06260383 -0.014296524 -0.013545503 -0.05842855
0001c0 16 ca 25 39 d2 d4 88 3d 1c 72 b5 3b 01 b9 c3 bd
       0.00015810909 0.06681217 0.0055372845 -0.09556771
0001d0 91 d7 a8 bd 1e d1 ab 3d 90 a6 c2 3d 4b 4f 20 bd
       -0.08244241 0.08389495 0.095044255 -0.03913812
0001e0 24 6d c5 bd 01 cb a6 bd cf 17 21 ba 88 23 af 3c
       -0.096399575 -0.08144189 -0.00061452104 0.021379247
0001f0 05 2c 60 3c fa d1 9e 3c 17 b2 de 3c fc 9f c2 bd
       0.01368237 0.019387234 0.02718453 -0.09503171
000200 db 4c bd 3c 84 aa 1f bb 41 f2 cc bd 6e 81 ba bc
       0.023107937 -0.002436311 -0.10007144 -0.022766795
000210 8e b4 04 bd 6e 74 8d 3d 19 af 9f bd a7 6b 8c 3d
       -0.032398753 0.06906973 -0.07797069 0.068564706
000220 8e df d1 3d 79 ac 0d 3d 1e 3b 34 bd 9a 54 e2 bd
       0.10247718 0.03458831 -0.04400169 -0.11051293
000230 33 52 06 bc 8b 3e 76 bd 37 73 c0 3c bc c1 39 3c
       -0.008198309 -0.06011824 0.023492439 0.011337694
000240 b7 7b e3 3c c2 23 2e bd b6 d3 0c 3d 85 6b 8a bc
       0.027768953 -0.04251457 0.03438159 -0.016896972
000250 e9 22 38 bd ee 4d 1b bd 50 fc 51 bb d5 c1 08 3b
       -0.044955168 -0.037916116 -0.003204126 0.0020867486
000260 7e d5 be 3d 21 18 c0 bd 94 3b 38 3d 25 28 73 bd
       0.09318064 -0.09379602 0.044978693 -0.059364457
000270 b6 9d bb bd 2d 3b d8 bd 82 ce f1 3c 4f b4 f5 bd
       -0.0916094 -0.10558162 0.029517416 -0.11997282
000280 f7 a3 fb 3c b1 35 88 3d f2 c6 dd ba 67 f5 86 bc
       0.030717833 0.06650866 -0.0016920252 -0.016474439
000290 76 ac 2c 3d 1e 35 cd bd c3 82 ab 39 44 b3 4a 3d
       0.04215666 -0.10019897 0.00032713087 0.049487367
0002a0 5e 8f a6 3d f7 64 55 bd ad 50 96 3c 70 46 26 3d
       0.08132814 -0.05209824 0.018349016 0.04059452
0002b0 16 bb 43 3d 24 39 82 3d 28 24 0e bc 27 1b a4 3a
       0.04778584 0.06358555 -0.0086756125 0.0012520299
0002c0 ae 70 86 bd 5c 18 c1 3d d1 08 54 3c 3e 92 ac bc
       -0.06564461 0.09428474 0.012941555 -0.021065827
0002d0 af 95 b9 bc 79 50 19 bd af b8 f8 3d 73 e5 e7 bd
       -0.022654383 -0.03743026 0.121446006 -0.11323061
0002e0 3f 68 2c bc f4 71 91 bd 69 a3 1e 3d e3 61 1a bd
       -0.010522901 -0.07101813 0.03873006 -0.03769101
0002f0 37 f2 ee 3d 87 e6 d7 3b 0b 33 33 bd 46 ab 46 3d
       0.116672926 0.0065887603 -0.04374985 0.048503183
000300 d4 1a 12 39 9c 50 a4 bd 6c ac f4 ba a9 9d a9 bd
       0.0001393364 -0.080231875 -0.0018667108 -0.082820244
000310 6b e0 69 3c 65 fe 9a bc f5 03 64 3d 07 51 49 3d
       0.014274697 -0.018920133 0.055667836 0.04914954
000320 e8 aa 0b bd 94 86 0e 3d af c0 b8 3d 53 09 3a 3d
       -0.034098536 0.034796312 0.090211265 0.04541905
000330 d2 f2 86 3d c4 c1 50 bd b3 3d 55 bd fe 1f 42 3d
       0.06589283 -0.05096604 -0.052060794 0.04739379
000340 6f 80 0d 3c f6 9c 9c ba 25 67 13 3b aa b0 df bc
       0.008636578 -0.0011948633 0.00224919 -0.02730592
000350 20 e9 cf 3c af af 52 3c 34 66 1a bb e5 98 bb bc
       0.025379717 0.012859269 -0.0023559453 -0.022900054
000360 53 a9 b3 3d 2c 2d 5f bd a5 b0 a7 3d 1a 41 b0 3c
       0.087725304 -0.05448644 0.08187989 0.021515418
000370 40 9a 2f bd 80 49 b5 bd b8 74 e3 bc a6 3f a3 38
       -0.042871714 -0.0885191 -0.027765617 7.784301e-05
000380 5f a2 e6 bd f8 2b d2 3d e1 55 74 3d 2d ce 50 bd
       -0.112614386 0.102622926 0.059652213 -0.050977875
000390 45 96 a4 3d e7 67 6e bc dd 24 3c 39 b0 eb 84 3c
       0.08036474 -0.014551139 0.0001794281 0.016225666
0003a0 e0 93 b8 bd 05 fd 24 3d 64 5b 8d 3d e4 b6 21 bd
       -0.0901258 0.04028036 0.06902197 -0.03948106
0003b0 5b 53 e5 bd c9 18 a6 bb fe 4f 0d 3a 07 fc e0 bb
       -0.111975394 -0.0050688726 0.0005390643 -0.0068659815
0003c0 a2 22 53 bd dc 9f 20 3b d1 ca c6 3d f2 c9 91 3c
       -0.0515467 0.0024509346 0.09706653 0.01779649
0003d0 a6 d4 d2 bd 5d 28 c1 3d 21 10 81 3d 75 7a ee bd
       -0.10294466 0.09431527 0.063019045 -0.116444506
0003e0 51 7b 78 bd 62 63 89 3c 11 9e 97 bc b3 3f 19 3d
       -0.06066448 0.016771022 -0.01850799 0.037414264
0003f0 16 05 cd 3d c5 89 66 bb 11 08 d8 3a 01 b3 23 bd
       0.10010736 -0.0035177332 0.0016481896 -0.039965633

lstm.bias_ih_l0 f4 [512]
000000 10 61 9d bb d7 b6 8b 3d a4 d5 24 bd bd ce 10 3e
       -0.0048028305 0.06821983 -0.040242806 0.14141364
000010 02 92 c1 3c 62 ce 9f 3c 42 d1 b4 3c be be 8f bc
       0.023629192 0.01950759 0.022072438 -0.017547008
000020 1b 1b 85 3d c8 a9 20 bd 34 e1 84 3d f4 21 96 3b
       0.064993106 -0.039224416 0.064882666 0.0045816842
000030 fa cf da 3d cf 6a c8 bb 35 3d 79 bd cf 26 e0 3d
       0.106842 -0.006116248 -0.060849387 0.10944902
000040 c7 b8 b4 3d 74 cd bd 3d 0d 64 ff 3d c4 0f db 3d
       0.08824306 0.09267703 0.12470255 0.106963664
000050 38 ab 28 3c 2b 41 dd 3d a1 a3 24 3d d7 82 01 3e
       0.010294728 0.108034454 0.04019511 0.12647568
000060 a7 7f fa 3c d9 32 cc 3d b0 4b f1 3d 52 18 55 bd
       0.030578448 0.09970636 0.11782014 -0.052025147
000070 49 ce 8d 3d ef 97 1b bd a1 c2 6a bd f1 1c 2a 3e
       0.069241114 -0.037986692 -0.05731452 0.16612603
000080 3d c3 21 bd 14 28 2d bc a7 41 ad 3d bb d6 00 bb
       -0.039492834 -0.010568637 0.08459788 -0.001965924
000090 ec c8 6b bb 8a 92 86 3c 68 12 c4 3d 11 c7 0f 3d
       -0.0035977913 0.016427297 0.09573823 0.035101954
0000a0 37 f4 f8 3c b4 89 43 bb 77 99 8f bc a4 13 c8 3d
       0.030389888 -0.0029836716 -0.017529232 0.09769371
0000b0 10 ca 1b bd 47 cd 59 3d 63 63 59 bc d3 03 81 3d
       -0.0380345 0.053174283 -0.013268325 0.062995575
0000c0 28 62 3e bb 49 dd e0 bc 6d a9 ab 3d 01 51 9c 3d
       -0.0029050205 -0.027449267 0.08381925 0.07632638
0000d0 86 9e c5 3d e1 a2 32 3d e8 1c 93 3c a9 68 13 bd
       0.096493766 0.043612365 0.01795812 -0.035988484
0000e0 8b 5a c7 bc e8 91 9f 3d 6f 36 2e 3c e7 90 be 3d
       -0.024335166 0.07791501 0.010633095 0.09304982
0000f0 5a bc 2e 3d 65 45 72 bc b4 83 8d 3d 12 c6 ba 3d
       0.042660095 -0.014787053 0.06909886 0.0911981
000100 f9 50 de 3d 9b e7 de 3c 37 8f 06 3e 5e 9b cd bb
       0.10855288 0.027210047 0.1314057 -0.0062746247
000110 f6 f7 88 bc 20 f3 54 3d 9e 09 2f 3d 87 87 b9 3d
       -0.0167198 0.051989675 0.04273378 0.09059053
000120 24 25 6b 3d d6 1e e3 3c e0 65 88 3d f7 5c e2 3d
       0.057408467 0.027724665 0.06660056 0.11052888
000130 b9 f4 af 3d 63 f6 fe 3b e7 5d 70 3d 76 24 3c 3d
       0.08591599 0.0077808364 0.058683302 0.04593321
000140 53 c8 0c 3d 80 e4 13 bd 1b 90 9e bc f9 ee d3 bc
       0.03437073 -0.036106586 -0.019355824 -0.025870787
000150 07 f0 a2 3d f4 0d 4f bd b6 fd 93 3d 98 b0 9c 3d
       0.07955938 -0.050550416 0.07226126 0.0765087
000160 db 21 2d bd ab bb 93 3d c3 5c b0 3c a3 45 4a bd
       -0.042268615 0.07213529 0.021528607 -0.049382817
000170 b7 ba d5 3c ec 94 3b bb 47 f4 29 3b de 98 2a 3d
       0.02609001 -0.00286227 0.0025932954 0.04164969
000180 ef 58 16 bb c9 0f 9d 3d 52 02 ac 3d d6 77 d0 3e
       -0.0022941192 0.076690264 0.0839888 0.40716428
000190 71 22 0c 3e d9 b4 30 3d 3b da b1 bc 20 64 47 bd
       0.13685013 0.04314122 -0.021710506 -0.04867947
0001a0 0a 8f 16 bd c8 56 8c bc e5 5b a0 b9 2a 8b 18 bd
       -0.036757506 -0.017131224 -0.00030586045 -0.037242092
0001b0 aa 9b 12 bc 45 e6 5f 3c bd ff 2f 3b 77 18 c0 3c
       -0.008948246 0.01366574 0.0026855313 0.023449166
0001c0 50 eb f3 3d 42 30 cb 3d 6e f1 57 bd b2 3a 94 3d
       0.11910117 0.09921314 -0.05272048 0.07237758
0001d0 02 2f 08 bc 61 41 10 bc b7 b4 aa 3d c0 5d 5c 3d
       -0.008311989 -0.00880465 0.0833525 0.053800344
0001e0 06 8f 47 3d 65 ef de 3d 87 bd 13 3d fd c3 ea 3c
       0.048720382 0.10885505 0.03606942 0.028657908
0001f0 cc 28 a9 3d 98 2d 84 3d 64 16 94 3d 32 85 a9 3d
       0.082597345 0.06454009 0.07230833 0.08277358
000200 d9 c7 5e bc f4 d9 81 3c 88 02 96 3d 8e f7 95 3c
       -0.013597452 0.015850998 0.073247015 0.01830652
000210 44 67 92 3d 9c 72 aa bd 84 10 6d 3c 79 e3 c5 3c
       0.071486026 -0.08322641 0.01446927 0.024156319
000220 8d 6d 8e bd ec e9 dd 3c ae 73 6a bc 58 33 8d 3c
       -0.06954489 0.027089082 -0.014309807 0.017236397
000230 f3 73 86 3c a0 e7 66 3d 61 37 d8 bc 7e 7d c1 3c
       0.01641271 0.05637324 -0.026393594 0.02361941
000240 99 5c 55 3c c0 48 9e bb 78 6b f6 bc b1 56 17 bb
       0.013022565 -0.00483045 -0.030080542 -0.0023092444
000250 5d a2 92 3d 65 28 2b 3c 56 cf 03 3d c4 7e d0 3d
       0.071598746 0.0104466425 0.032180153 0.101804286
000260 cf 1f c6 3c 7c 4c 97 3d 74 71 5e bc 31 77 73 bd
       0.02418509 0.07387635 -0.013576854 -0.05943984
000270 e7 b7 b1 bc ec d5 cb bc 4c 92 03 3d 30 74 8a 3d
       -0.021694137 -0.02488228 0.03212194 0.06760442
000280 46 72 6a bd eb 42 b1 ba 59 d3 de 3d 8a 60 8e bc
       -0.057237886 -0.0013523971 0.10880155 -0.017380018
000290 79 f4 b9 bc 40 11 8f 3d 04 e1 95 3d ee 08 9f 3d
       -0.022699581 0.06985712 0.07318309 0.07765375
0002a0 3a 4b 8a 3d ed a8 84 3d 90 42 24 3d b0 56 3e bd
       0.067526296 0.064775325 0.04010254 -0.04646939
0002b0 52 e0 51 3b 19 e3 5f 3d 2d 28 a2 3d ff b2 fb bb
       0.0032024574 0.054659937 0.07917819 -0.00768125
0002c0 eb 37 61 bd e1 c8 0a bd 5b 7f 72 3d 97 c0 56 3d
       -0.05498497 -0.03388298 0.059203487 0.05242976
0002d0 17 c9 2c bc b9 79 b3 3c a9 5f 97 3d bc 5f 9f 3d
       -0.01054599 0.021908628 0.073912926 0.07781932
0002e0 ca e0 cb bc ab d5 96 bc 36 1c a0 3c bf fd 78 3d
       -0.024887461 -0.018412432 0.019544702 0.060788866
0002f0 06 3d 0f bd 92 27 c7 3c 43 1d 3d bd 96 d6 7e 3c
       -0.034970306 0.02431086 -0.046170484 0.015554091
000300 05 cc a1 3c a0 e3 d9 3b ea b4 6f bd 85 d9 8d 3d
       0.019750604 0.0066494495 -0.058522142 0.06926254
000310 bd f6 2e bd b0 5b cd 3d e8 d2 89 bc 68 bb 9c 3d
       -0.042715777 0.10027254 -0.0168242 0.076529324
000320 75 11 6f 3d d2 55 dc 3c a2 df ac bb a2 69 d1 bd
       0.058366258 0.026896391 -0.0052756825 -0.10225226
000330 88 85 18 3d 76 7f 56 3c 85 4f b7 3d 1d 2d 89 3d
       0.03723672 0.0130919125 0.08950714 0.06698058
000340 ab e2 99 3c 0f 43 9a 3d 26 8b 6a 3d fa 8b a8 bc
       0.018784842 0.07532322 0.05726161 -0.020574559
000350 63 a6 4c 3d 02 d3 d1 3d 3f 89 66 bd d9 9d 0c 3d
       0.049963366 0.10245325 -0.05628323 0.034330223
000360 79 7a 6e 3d f3 d9 32 bd 0c b5 76 3c 3c 79 3a bd
       0.058222268 -0.043664884 0.015057813 -0.045525774
000370 d1 cf a6 bc 96 22 83 3d b5 f2 31 bd ce 34 42 3d
       -0.020362766 0.06403081 -0.043444354 0.04741364
000380 d2 e1 4b bc 32 17 41 3c e8 43 2d 3d c3 e7 52 3d
       -0.0124439765 0.011785315 0.04230109 0.051490556
000390 46 21 f4 bc 98 1e 6d 3d 16 6a 52 bc 8e 85 43 bd
       -0.029801022 0.057890505 -0.012842676 -0.04773479
0003a0 3a 1f d4 ba f1 c3 03 3d 44 25 41 3d 47 75 ca 3d
       -0.0016183623 0.032169286 0.04715468 0.0988565
0003b0 96 c3 f1 3c 7c f7 27 bd 40 3b 72 3d 7a fa 60 bd
       0.029512208 -0.041007504 0.059138536 -0.054926373
0003c0 c0 b9 7d bd b8 a1 89 bd a9 03 a0 bd c7 17 1c bc
       -0.061944723 -0.067202985 -0.07813198 -0.009527153
0003d0 c2 f8 31 bd e7 8a 23 3d 6e 7c 83 bd 8f db 5e bd
       -0.043450125 0.03992739 -0.064202175 -0.054408606
0003e0 1f b4 b7 bd 06 22 47 bc 56 c9 4b bc 72 ca 5a bd
       -0.08969902 -0.012154108 -0.012438139 -0.053415723
0003f0 46 6c a7 3c 64 9a 9f 3b 0f 73 96 3c 95 60 d6 3c
       0.020437371 0.0048706997 0.018365411 0.0261691

lstm.bias_hh_l0 f4 [512]
000000 a4 d9 0a bd a4 48 9e 3c 4c 6c 41 bb 19 8b a3 3d
       -0.033898965 0.019321747 -0.0029514013 0.07985515
000010 a9 c6 ad 3d 11 7d 56 3c 57 a0 be 3d 05 f0 f0 3d
       0.08485157 0.013091342 0.09307926 0.1176453
000020 7d 92 01 bd a7 41 f6 39 2b 6b b4 3d 7e 0d 81 3a
       -0.031633843 0.0004696969 0.08809503 0.000984594
000030 74 19 2e bd 4d f8 ba bc 31 55 7e bd 38 5d 3f bd
       -0.042504743 -0.022823477 -0.062092964 -0.04671976
000040 2a c9 ec 3d be a2 d0 bc b9 7e 36 3d 8d 3e 0c bd
       0.115618065 -0.025468227 0.044554446 -0.03423934
000050 63 e1 dc 3d 02 71 51 3c 99 80 f2 3c 74 95 44 3d
       0.107851766 0.012783291 0.029602336 0.047994092
000060 87 82 c0 3c 36 f4 e9 3d 95 34 f0 3d 30 3a 71 3d
       0.02349974 0.11423533 0.11728779 0.058893383
000070 3d ca fa bc df 5b 1c 3d 6f d0 93 bd d5 5b 08 3e
       -0.030614013 0.038173553 -0.0721749 0.13316281
000080 ab 87 5b bd 16 fc 36 3c ad 9a fe 3d 61 c8 93 3d
       -0.05359618 0.0111685 0.12431846 0.072159536
000090 32 82 39 bd aa 20 0f bd 76 3b 07 3d 93 3c 92 3d
       -0.04529018 -0.03494326 0.03301569 0.0714046
0000a0 54 1c 7c bd 74 98 bb 3c d6 9d 9d 3c 86 5e 8b 3d
       -0.061550453 0.022899844 0.019240301 0.06805138
0000b0 82 e0 c4 3d e1 2b b5 bd 93 8a 89 3d 4d 42 f2 bb
       0.09613134 -0.0884626 0.06715884 -0.0073931576
0000c0 c4 bd 30 bd 92 fa f9 bc 53 52 93 3c f6 a1 03 3e
       -0.043149725 -0.030514989 0.017983591 0.12854752
0000d0 75 9b e7 3d a3 3f 53 bd 44 c4 cf 3c 5d 49 0c 3d
       0.11308948 -0.05157436 0.025362141 0.034249652
0000e0 94 be a7 3d dc 68 05 bd d3 61 f4 bc 2f 9c e0 bb
       0.08190647 -0.032570705 -0.029831802 -0.006854556
0000f0 d5 80 9c bb 53 a0 c4 3b a4 e9 a3 3d 32 91 33 3d
       -0.0047761 0.0060005574 0.08003548 0.04383964
000100 42 7c 55 bd 8c 2d a9 3d 1e 3d 25 3d b4 7f d6 bc
       -0.052120455 0.082606405 0.04034149 -0.02618394
000110 9b 45 03 3e ff 2f 13 bd 74 8b 3d bd 72 15 03 bd
       0.12819521 -0.035934445 -0.04627557 -0.032002874
000120 a8 fe 5a bc 77 d7 c1 3d 2b e4 cf 3d b6 a8 2d 3e
       -0.013366379 0.09464925 0.101509415 0.1695889
000130 97 e2 22 3c d1 01 37 bd 5a 6b 14 3d fd 16 a8 3d
       0.009941719 -0.044679467 0.03623519 0.0820751
000140 dd 0e 81 3d f6 ca ba 3c 41 3a 0c bc 25 57 f4 3b
       0.06301663 0.022801857 -0.008558811 0.0074566775
000150 64 bd e1 bc ac 57 f2 3d 15 b6 3e bc 22 e8 ec bc
       -0.027556129 0.11833128 -0.011640091 -0.028919283
000160 2b 16 d1 3d 85 03 5d 3d af a4 2a 3c a6 b7 a0 3c
       0.10209306 0.053958435 0.01041524 0.01961882
000170 5a d0 87 3b d5 1a 64 3c b0 1e 84 3b 90 03 8d 3d
       0.0041447105 0.013922413 0.0040319785 0.06885445
000180 7a c6 8d 3c ed 2e dc 3d 21 bc 51 3c b4 57 ad 3e
       0.017306555 0.10751138 0.012801201 0.33855975
000190 d2 00 3e 3b a6 28 87 3d 15 b7 4f 3d 7f 7d c8 bb
       0.0028992188 0.0659955 0.05071171 -0.006118476
0001a0 15 3e 80 3c 74 2a 88 bd f6 a5 23 bd 39 fb 42 bd
       0.015654603 -0.06648722 -0.039953195 -0.047602866
0001b0 17 2b a6 3d 50 06 a5 3d d4 cb 22 3d 7d cf b7 3d
       0.081136875 0.08057845 0.039745167 0.08975122
0001c0 da a5 68 b8 67 12 bb 3d 03 80 19 3d 32 b2 01 3e
       -5.546757e-05 0.09134369 0.037475597 0.12665632
0001d0 3a 9c 95 3d fa c3 de 3d 59 b4 4d 3b 24 d8 eb 3d
       0.073051885 0.10877223 0.0031388013 0.11515835
0001e0 14 97 ac 3b 21 1f 9e 3c fb 16 9b 3d 39 fe b4 bc
       0.0052670334 0.019301953 0.075727426 -0.022093879
0001f0 24 1a 97 bc d1 71 23 bc db 43 9a 3d a8 a0 9e 3c
       -0.018445082 -0.009975866 0.07532474 0.019363716
000200 44 0f 0e bd 69 4f 76 bd da cb 23 bd d8 db f6 3d
       -0.034682527 -0.060134325 -0.03998933 0.120536506
000210 36 7a d6 3d 97 37 79 3d 97 fe 0b 3d a7 b5 15 bd
       0.10472529 0.06084403 0.034178343 -0.03655019
000220 f1 99 29 bd b1 69 d5 3d ce 29 68 3d b4 1c c0 3d
       -0.041406576 0.1042055 0.056680493 0.09380475
000230 be 3c d0 3d 9b 9c b9 3d 66 c6 5e 3d 81 60 30 bd
       0.10167836 0.09063073 0.054388426 -0.043060783
000240 13 a9 65 bd 9a 4e 51 3c 8d 27 3e bd 79 f3 a1 3d
       -0.056069445 0.012775088 -0.046424437 0.07907767
000250 0c 7d a7 3d 37 7a 11 bd 8a 85 1d 3d d4 15 30 bd
       0.08178148 -0.035516944 0.03845743 -0.042989567
000260 f2 c9 b3 3c a9 91 b4 bc be 45 23 3b 97 69 b7 3d
       0.021946881 -0.022042112 0.0024913396 0.089556865
000270 cd 13 ce bc d7 0e ee bc 31 43 b1 bd 55 af 2f ba
       -0.025155926 -0.02905981 -0.08655394 -0.0006701847
000280 34 65 6a bd a9 47 f2 3c 1d cd 0a bd 66 21 d2 ba
       -0.05722542 0.029575186 -0.033887018 -0.0016031682
000290 5e 1a 56 3d cd 66 39 bd 11 78 11 3d 0d 14 d6 3d
       0.05227124 -0.045264054 0.035514895 0.10453043
0002a0 04 98 07 3c 2b 2d 9a 3d 35 c2 00 3d c6 17 5f 3b
       0.008275989 0.07528146 0.03143521 0.003404127
0002b0 f0 f7 0a 3c 23 c7 6c bd 24 a6 ff bc f3 f8 ee 3b
       0.0084819645 -0.0578071 -0.031207152 0.0072928607
0002c0 14 3f fe 3c 4c 98 ac 3c 9d c3 9e 3d da 3c 4e 3c
       0.031035937 0.021068715 0.07752154 0.01258775
0002d0 b2 30 27 3d 21 6e 69 bd ae b1 d0 3d 52 6c a9 ba
       0.040817924 -0.056989793 0.1019014 -0.0012925959
0002e0 d4 13 8f 3d 49 a1 6d bd f3 0d 9d 3c 6a a5 98 3d
       0.06986204 -0.05801514 0.01917169 0.07453425
0002f0 5e 3e 16 bd 00 55 c7 3d fa 34 a2 3d a5 e2 ee bb
       -0.03668057 0.09733009 0.07920261 -0.0072902017
000300 70 63 83 bd 6e 05 82 bd f4 3a 58 3d 28 bd 3d 3d
       -0.064154506 -0.06348692 0.052790597 0.04632297
000310 25 22 86 3d 41 32 c3 3d a5 ab c1 bd 16 12 cd 3d
       0.06549481 0.095310695 -0.09456567 0.10013215
000320 68 e6 bd 3d e4 ac 29 3d c8 ff c9 3b a4 c1 b3 3c
       0.09272462 0.041424647 0.0061645247 0.021942921
000330 dc 38 7f bd 0d a1 6f bd bc ff 41 3d 25 9b 96 bc
       -0.062310085 -0.0585032 0.047363028 -0.018384526
000340 f1 9b 4d bd 7d 0c 84 3d 92 b1 3d 3d 07 bb 36 3d
       -0.050197545 0.064476945 0.046311922 0.044611957
000350 25 6f 3b 3d e8 3b a6 3d 6a 37 38 3d 59 f7 72 bd
       0.045760293 0.08116895 0.044974722 -0.05931792
000360 0f 2a 5c bd 1c 73 97 3d 34 21 c4 3d d4 b4 8a 3d
       -0.053751048 0.07395002 0.095766455 0.067727715
000370 2c f2 d0 3b f1 f9 bc bd 7b c7 83 3d d6 74 10 3d
       0.0063765254 -0.0922736 0.06434532 0.035267673
000380 64 fe 43 3d ae f6 e0 3c 58 1e bc 3d 30 99 73 3d
       0.047850028 0.027461376 0.09185475 0.059472263
000390 4b 88 6d 3a 4a 05 16 3d 0c 11 1f 3c 6d cc 24 3d
       0.0009061142 0.036626138 0.009708654 0.040234018
0003a0 53 d5 46 bd 2f 36 81 bd ea b7 19 3c a6 2c 1a 3d
       -0.048543286 -0.06309163 0.009382227 0.037640236
0003b0 a6 24 5d 3d 80 d4 ca 3a 7a 35 44 3d 9b c0 34 3d
       0.05399003 0.0015474707 0.04790256 0.044128995
0003c0 a9 d2 1f 3d 65 4f d5 3c 19 e4 12 3c 70 2a 1c bd
       0.03901926 0.026038835 0.0089655155 -0.03812641
0003d0 6b 0c e6 3d 46 fe dd 3d 6c 3e 26 3d 80 ef 41 3d
       0.11232837 0.108395144 0.040586874 0.047347546
0003e0 e3 b3 c1 bd 81 ab 74 bd db 73 02 bd 72 ef 19 bc
       -0.09458139 -0.05973387 -0.03184877 -0.009395467
0003f0 ad fc a9 3d 04 3a 10 3d b9 68 cd 3b aa 29 e1 3d
       0.08300147 0.035211578 0.0062685874 0.10994275

lstm.weight_ih_l0_reverse f4 [512, 32]
000000 6d d7 94 3d bc 19 0c bd 06 d3 a8 bd b5 46 bd 3b
       0.07267652 -0.03420423 -0.082433745 0.005776251
000010 e5 31 bd bd 9f 90 47 bd 58 92 79 3d bf 6c b1 3b
       -0.09238032 -0.048721906 0.06093058 0.005414575
000020 dd 64 e1 bc 24 ae cd 3d cf d0 b1 3d 46 34 57 bd
       -0.027513916 0.1004298 0.08682405 -0.052540086
000030 81 3e 96 bc db cc 17 3a 77 49 47 bd 41 1b 19 3d
       -0.018340351 0.0005790719 -0.048654046 0.037379507
000040 58 e9 8e 3d 5c fb 4b 3d 03 2e af bd c7 a5 ed bd
       0.069781005 0.04980026 -0.08553698 -0.11603885
000050 75 18 c4 3d 1a 24 29 3d cb ea d2 bd a3 35 33 bc
       0.09574977 0.041294195 -0.102986895 -0.010938081
000060 0b 02 4d 3d 64 4c 34 bd b9 68 f1 bd f6 13 54 3d
       0.050050776 -0.044018164 -0.117875524 0.05177685
000070 4c ef b0 3c 0a aa 83 bd 52 48 f2 3c 9a 60 cc bd
       0.02159848 -0.06428917 0.0295755 -0.09979363
000080 a3 ff e2 3d ae 1a d5 3c 7c 9e b3 3c cd 5e 8b 3d
       0.11083915 0.026013698 0.021926157 0.06805191
000090 b5 fd 19 3c 43 3a c1 3d 2b 6a f0 bc 6c 19 55 3d
       0.009398867 0.09434941 -0.0293475 0.052026197
0000a0 98 86 fa bc 93 73 39 3d 44 11 32 bd 8c b1 ec 3d
       -0.030581757 0.045276236 -0.043473497 0.11557302
0000b0 a0 0d 36 3d a1 ce 8e ba 11 f1 b8 bc 8d 09 8f bd
       0.044446588 -0.001089532 -0.022575887 -0.069842435
0000c0 5c e1 96 3c 23 8f 04 bd 8e f5 f8 3c c8 1b 18 3e
       0.018418007 -0.03236307 0.030390527 0.14854348
0000d0 fe ec d7 3d b6 9c fc 3d f1 69 12 bd b4 d5 9f b9
       0.105432495 0.12334578 -0.035745565 -0.00030486064
0000e0 28 cc bd 3d 2a cf 95 3d 74 09 11 3e 28 89 df bd
       0.09267455 0.07314904 0.14163762 -0.10914832
0000f0 ce f4 da bc 29 a9 22 be fa 2d 3e 3e 9e 42 3c bd
       -0.02672806 -0.15884842 0.18572226 -0.04596197
000100 42 6f 0e bd fa 05 9c bd 4b 89 b0 bd 24 99 aa bd
       -0.034774072 -0.076183274 -0.086199366 -0.083299905
000110 56 32 a1 bd 58 59 3c b9 e0 64 19 3c 5a 42 b0 bd
       -0.07870929 -0.0001796236 0.009362429 -0.086064056
000120 23 fe d6 bd ac c2 7f 3d 9c a7 37 bd 2d 16 46 3c
       -0.104976915 0.062441513 -0.04483758 0.012090248
000130 5e 8d a6 3c 18 c2 73 3d f2 46 d2 3d 85 69 a2 3d
       0.020331081 0.059511274 0.10267438 0.079302825
000140 11 59 77 bd 4e a3 22 3d f0 61 35 3d 23 1b 8a 3c
       -0.060387675 0.03970652 0.044282854 0.016858643
000150 47 8f bf 3d 7c 34 3a bd c5 f0 04 bc b3 1e 3b bd
       0.093535 -0.04546021 -0.008114045 -0.045683574
000160 88 5e c4 3c 61 2b 9e bd b8 d5 ec bc 2b ef a2 3c
       0.023970857 -0.077231176 -0.028910503 0.019889435
000170 68 be 3f 3d 04 5e 22 3d 33 1e cf bc d4 e8 35 3d
       0.046812445 0.03964044 -0.025282955 0.044411495
000180 bb a7 96 3b f6 db bb 3d 38 19 20 bd 0c b9 11 bd
       0.0045976317 0.091728136 -0.03908655 -0.035576865
000190 b3 f9 bb 3d 0c 66 05 3e 6b 93 6c bd 6c 0b b9 bc
       0.09178486 0.13027209 -0.057757776 -0.022588454
0001a0 66 93 a1 bd a7 51 2f bd 1b 3a b0 bb 78 37 99 bd
       -0.07889442 -0.04280248 -0.0053780205 -0.07481283
0001b0 07 42 8f bd d9 46 00 bd 55 cd 9c bd 4e 78 4d be
       -0.069950156 -0.031317566 -0.076563515 -0.20065424
0001c0 84 8c ef ba 57 14 0f 3c 33 26 8d 3b 87 a1 ad bd
       -0.001827613 0.008732877 0.004307532 -0.084780745
0001d0 18 f6 aa bc e3 b9 0d bd 3e 0c 6b 3d 45 c9 a1 3d
       -0.0208693 -0.034601104 0.057384722 0.07899717
0001e0 6b 1b e2 bd fb 8a 11 3d 0c 01 a5 3d f5 b7 e9 bc
       -0.11040386 0.035532933 0.0805684 -0.0285301
0001f0 d0 37 b7 3d 5c f1 49 3d 68 6c cc 3d 79 de c0 3c
       0.08946192 0.049302444 0.09981614 0.023543583
000200 c1 95 e0 3c e2 90 f3 bd 44 e6 9b bd 83 97 77 bc
       0.027415158 -0.118928686 -0.07612279 -0.015111807
000210 3d cd 34 bc 27 68 a1 bd 0e 74 3f 3e bd 95 82 bc
       -0.011035261 -0.078811936 0.18696615 -0.015940541
000220 4a 50 8c 3d d1 1e 9b bd 62 91 50 bd 83 f8 8e 3d
       0.068512514 -0.07574237 -0.050919898 0.069809936
000230 0e 2e e3 bd 7f fb d2 3d 13 75 c8 bb 96 53 13 bd
       -0.110927686 0.10301875 -0.006117472 -0.035968386
000240 41 15 d4 3d bd d3 ac 3d c9 05 ea bd e0 54 75 bd
       0.10355616 0.08438823 -0.11426885 -0.059895396
000250 35 5c 0f bd 86 45 ab bc 88 c0 a2 bd bf 47 d8 3c
       -0.035000045 -0.020907175 -0.07946879 0.026401399
000260 88 16 61 bc 7c 6f ea 3c 62 d5 f5 3c bb d3 1a bd
       -0.013738282 0.028617613 0.030008975 -0.03779958
000270 03 84 2a 3e 49 61 d4 bd 03 30 dd bc 56 e9 a1 3d
       0.16651921 -0.10370118 -0.027000433 0.079058334
000280 b6 61 23 3d 66 94 ca bd 7d 39 49 bd ec 3a 97 bd
       0.039888106 -0.09891586 -0.04912709 -0.07384285
000290 de 06 1a 3d b1 1c b8 bd 98 18 12 3d d6 c9 33 3d
       0.037604205 -0.089898475 0.035667986 0.043893658
0002a0 54 12 73 bd 41 ac 33 bc 97 47 a6 3c e4 95 72 bd
       -0.05934365 -0.0109663615 0.020297809 -0.059224978
0002b0 ea 47 07 bc e0 42 ca 3d e8 64 6f 3c ed 2f d0 bd
       -0.008256892 0.09876037 0.01461146 -0.10165391
0002c0 50 57 0b bc 69 58 00 bc d4 6a bf bd e8 2f c5 bd
       -0.008504704 -0.007833579 -0.09346548 -0.09628278
0002d0 17 6a 99 3c ed 91 2b bd 5d 76 31 bc 1b e7 36 3d
       0.018727345 -0.041887213 -0.010831443 0.044653993
0002e0 ae e3 0b 3d f3 41 14 bd 47 2c 4e 3d b6 43 d6 bc
       0.03415268 -0.036195707 0.050335195 -0.026155334
0002f0 c9 f6 85 3d 05 7f d0 3c 83 bc ce 3d 7f 7a 4a bd
       0.06541211 0.025451193 0.100945495 -0.049433228
000300 ad 0e 69 3b 5d f9 0b bd 33 72 96 bd c6 15 c4 bd
       0.0035561726 -0.03417336 -0.073460005 -0.095744655
000310 e8 0e fa bb 23 13 73 bc ea d5 7a 3d 8a a7 e8 bd
       -0.0076311715 -0.0148361055 0.06123916 -0.113600805
000320 b1 fb a8 bd 00 d7 2b bd 7c a6 aa 3d 08 d5 50 3d
       -0.08251131 -0.041953087 0.083325356 0.050984412
000330 60 71 54 bd d7 5f ca 3d 2f 5d be bc ba 44 33 3d
       -0.051865935 0.09881561 -0.023237793 0.043766715
000340 96 60 97 bc 88 67 7e bd 3e 41 1f bd bd 0c c7 bd
       -0.018478673 -0.062110454 -0.03888058 -0.097192265
000350 77 29 2b bc 9c 65 45 bd fb 8c e2 bd 9d ca 95 bd
       -0.010446898 -0.048192605 -0.11062046 -0.07314036
000360 4a 3c 67 bd 0b 03 eb bd fe a2 88 bd 42 af 80 3d
       -0.05645398 -0.1147519 -0.06671713 0.06283428
000370 cc b9 ed 3d 2a 7d 90 bd 6b 75 90 bd 24 d0 46 3d
       0.116077036 -0.07055123 -0.07053646 0.048538342
000380 b9 f6 a9 3d 10 15 fd bd cd c5 0c be d7 49 e3 3d
       0.08299012 -0.12357533 -0.1374733 0.11098068
000390 24 16 6c bd 24 e3 69 3d 32 7d 9d 3d ee a5 65 bb
       -0.057638302 0.057101384 0.07689895 -0.0035041529
0003a0 6b a1 6a bd ed 05 b2 3d 74 1f f7 3d 16 94 90 bd
       -0.057282846 0.086925365 0.12066546 -0.07059495
0003b0 81 5c f6 bd f1 c4 91 bc 91 ef 19 bd d4 31 11 bd
       -0.120293625 -0.017794104 -0.037581984 -0.03544791
0003c0 eb b8 84 3d 24 7a 51 3d 35 df b9 bd 20 7a 11 3d
       0.06480583 0.051141873 -0.090757765 0.035516858
0003d0 4d c4 79 3c 38 6a 87 bd 9d 82 a0 3c f1 b7 ba 3d
       0.015244556 -0.066120565 0.019593531 0.09117115
0003e0 3a b7 8b 3d 97 d7 5d bd da 02 40 3c 3b e1 1c be
       0.06822057 -0.05416068 0.01171943 -0.15320294
0003f0 cd 82 a8 3d e3 e3 8d bd 9e 15 e9 3d 59 65 26 bd
       0.08228073 -0.069282316 0.11381076 -0.040623996

lstm.weight_hh_l0_reverse f4 [512, 128]
000000 56 1f 25 bb 77 1f b0 3c df a0 79 bc 00 6a bf 3d
       -0.002519568 0.021499379 -0.015236109 0.0934639
000010 ec 54 4a 3d 93 d4 df bd a5 74 62 3d a6 5c 8c 3b
       0.049397394 -0.10929217 0.055287022 0.0042835055
000020 8d b0 6f bc 06 d1 a9 3d f4 91 1c bd 2a e5 8c 3c
       -0.014629495 0.08291821 -0.03822513 0.017199118
000030 db a8 b6 bc 47 68 13 bd e2 e3 a4 3d 83 6e 94 3c
       -0.022297313 -0.03598812 0.08051278 0.018119102
000040 b3 4e 45 3d 9b ef 3b 3c 54 b3 e5 bd 28 b9 4d bd
       0.048170757 0.011470701 -0.11215845 -0.050225407
000050 46 8e ba 3d f3 7c d2 3d e1 eb 70 bd 85 da 03 3d
       0.09109168 0.102777384 -0.0588187 0.03219082
000060 3f ed 66 bd 58 15 a6 bc d4 38 82 3c 4a cc da 3c
       -0.0563786 -0.02027385 0.015896238 0.02670874
000070 4f 0a a3 bd a9 61 b2 3d 0e 7b 36 3d 5f 3b 11 bd
       -0.079609506 0.087100334 0.044550948 -0.03545701
000080 08 f7 91 3c f1 aa 46 bd 40 9b f1 bb 8c 28 1d bd
       0.017817989 -0.048502866 -0.0073732436 -0.038368747
000090 5c 82 c6 bd f1 7e 39 3d de 60 d9 3d 74 b7 d8 bc
       -0.09692833 0.045287076 0.10614179 -0.026454665
0000a0 69 7a 58 bc d6 96 fc 3c 72 4b 3f bd 89 91 6d 3c
       -0.013212779 0.030833643 -0.04670281 0.01450003
0000b0 db e1 9e 3c f2 bb 06 3c 47 56 94 3a dd a4 95 bd
       0.019394806 0.008223521 0.0011317217 -0.07306836
0000c0 2a d0 44 3c 7d d2 85 bc ef a8 b1 bc 95 06 66 3b
       0.012012521 -0.01633572 -0.021687 0.0035099138
0000d0 02 3a 5d 3c b5 cc 66 bc c1 dd 49 3d 35 ff e2 bc
       0.0135026 -0.014086892 0.049283747 -0.027709583
0000e0 59 64 ec bb 28 43 c6 3d 8b 72 40 bd ab c6 a6 3d
       -0.007214111 0.09680778 -0.046984237 0.08143362
0000f0 43 77 0a 3c 90 34 5c 3d 23 e9 1f 3c 3f e0 db bc
       0.008451286 0.053761065 0.009760174 -0.026840327
000100 32 67 31 3c fe e1 c9 3c f7 5f 2f 3d d2 dd 0f bd
       0.010827826 0.024643894 0.04281613 -0.035123654
000110 ed b1 d9 3c 40 84 92 3d 28 ae 83 bd 2e 7e 31 3d
       0.0265741 0.07154131 -0.06429702 0.043333225
000120 9f 59 ed 3d 5c 80 0c 3d 8d c1 bf bc a9 ea 64 bd
       0.115893595 0.0343021 -0.023407722 -0.055887852
000130 6e f8 c7 bd e9 dd c2 bc 95 0d 47 bd 8e e0 f6 3b
       -0.09764181 -0.023787456 -0.048596937 0.007534093
000140 c4 62 e8 bc c8 ce b0 3d c9 6f bf bc 0b ff e0 bc
       -0.028367408 0.086331904 -0.023368733 -0.027465364
000150 56 2b e8 ba 3a 60 8b bd 3b 11 a3 3d d2 27 90 3c
       -0.001771311 -0.06805463 0.07962271 0.017597113
000160 de 56 6b bd 3d c5 eb 3b 2d a0 bb bd ce f2 d3 bd
       -0.05745589 0.0071951435 -0.091614105 -0.10349046
000170 c7 51 1c bd c5 89 be 3c 24 55 b0 bd 24 53 78 3d
       -0.038163926 0.023259053 -0.08609989 0.060626164
000180 f0 31 97 3d 48 61 50 3d 9a bd d6 3c ee f6 4f 3d
       0.07382572 0.050874025 0.026213456 0.0507726
000190 81 0b 58 3d 7f d8 7c 3b 7d 3e be bc 4e 9c 65 3d
       0.052745346 0.003858119 -0.023223156 0.056057267
0001a0 75 38 8d bd 5b 68 a2 3d 9e f5 3a bc f0 21 37 3d
       -0.06895534 0.079300605 -0.011411099 0.0447101
0001b0 2e 58 82 3d 18 d1 9a bc 19 6f 0d bd b3 25 8d 3c
       0.06364475 -0.018898532 -0.03452978 0.01722989
0001c0 1f e6 9a 3d 84 8b 88 3d 6e 7f a2 3d 41 0f 39 bd
       0.07563423 0.066672355 0.079344615 -0.045180563
0001d0 7d 75 9d 3c 06 1f 05 3d 61 e8 8d 3d e1 a9 c8 bd
       0.019221062 0.03250029 0.069290884 -0.09798027
0001e0 ff fc e3 3d b3 88 47 bd 04 fd 10 bc 1d b1 4c bd
       0.111322396 -0.04871435 -0.008849386 -0.049973596
0001f0 f2 44 1b 3c a6 9a 98 bc 88 d1 5e bc c3 ff 2a 3d
       0.009476887 -0.01862843 -0.013599761 0.04174782
000200 0f 21 91 3a 5d 14 ce 3d 0c 6c 8c bd 11 b3 83 3e
       0.0011072474 0.10062478 -0.06856546 0.25722554
000210 dd 06 fc 3d 51 0b bc bd 89 3d 98 3c 2d a0 24 be
       0.123059966 -0.09181846 0.01858403 -0.16076727
000220 a0 e2 e8 3b 14 ec 67 3e 45 5b ec 3d bc c4 05 3e
       0.007107094 0.2264865 0.11540846 0.1306333
000230 24 7f ad 3d 35 01 e7 3c b9 3d 6a bd ce 73 ce 3d
       0.08471516 0.028198818 -0.05718777 0.10080682
000240 9b a1 1c 3e a4 d1 00 bd 17 be 36 be 72 01 0b 3e
       0.15296023 -0.03144993 -0.17845951 0.1357477
000250 b2 3c 5c ba f1 42 a6 bd bf 70 9d bc 3b ec 40 be
       -0.0008401378 -0.08118237 -0.0192188 -0.18840115
000260 dd 2c cc 3d 1d bf fb bc 9b 80 05 be cc 22 a1 3d
       0.099694945 -0.030730778 -0.1303734 0.07867965
000270 f7 db 87 be a4 c8 f4 3d 79 9d a0 3e ab 2b 5f 3e
       -0.26535007 0.11952332 0.31370142 0.21794002
000280 1e 0f 59 bc bf 7f 09 bd 42 a5 b8 3d c6 12 85 3e
       -0.013248233 -0.033569094 0.090158954 0.25990885
000290 ae 8b 4e be a0 c0 ba bc 03 43 aa 3e 0e 68 1e 3d
       -0.20170471 -0.022796929 0.3325425 0.038673453
0002a0 ed 45 73 3d cf 69 d5 3d bd b4 a5 3d 26 e0 77 be
       0.05939286 0.10420572 0.08091114 -0.242066
0002b0 20 4d df 3e 84 bf 75 bb 45 71 6b 3d 19 5e 86 bd
       0.4361353 -0.0037498185 0.05748107 -0.065609165
0002c0 eb 3a 45 3e 63 2d ab be ab 3f fb bd 67 52 0c 3d
       0.19260757 -0.33433065 -0.12268003 0.034258272
0002d0 60 66 9e be b1 8f c7 bd db 40 db 3d a3 0c a0 3d
       -0.3093748 -0.09744204 0.107057296 0.0781491
0002e0 4d 27 0f 3d a1 c8 0f 3c 5f f2 a0 3b 08 6b a3 3c
       0.03494959 0.008775861 0.0049117054 0.019948497
0002f0 83 e0 2f be db c9 8f 3d 24 99 9b 3b fc 10 84 3d
       -0.17175488 0.07020923 0.0047484804 0.06448552
000300 39 7e 42 be 31 1e ab 3d ba 69 53 be 62 86 87 be
       -0.18993463 0.08355368 -0.206458 -0.26469713
000310 51 4a 2b 3d a7 69 95 be 5b 0e 9d bc d2 89 1e be
       0.04181892 -0.2918217 -0.019171884 -0.15482262
000320 f7 0e a7 bd 65 04 84 3d b7 aa 97 bd 9b c0 73 3e
       -0.08157151 0.06446151 -0.07405608 0.23803942
000330 42 63 26 be ae cf bf 3d 5f cb 59 be e2 2a 13 3e
       -0.16248801 0.09365784 -0.21268986 0.14371827
000340 d9 ac 7e be 6b 63 39 3d 10 96 ba 3b f5 7d 29 be
       -0.24870624 0.045260828 0.0056941584 -0.16551955
000350 29 38 6a be 12 83 47 bd e5 e8 14 3e 3c e5 f7 3c
       -0.22872986 -0.048708983 0.14541967 0.030260675
000360 b8 3d 3e 3d 78 39 55 be bd 9b 03 be 20 5f 2d bd
       0.04644558 -0.20822704 -0.12852378 -0.042327046
000370 e5 27 ff 3b 59 29 40 bd a4 4a eb 3c 10 87 ee 3e
       0.007786738 -0.046914432 0.028722115 0.4658742
000380 15 14 6e 3e 37 d8 cb 3d 0d 79 72 bd d1 2f b3 bd
       0.23249848 0.09953349 -0.059197474 -0.08749355
000390 5b cb b3 3d a4 80 36 be dd 8a 19 bc a2 b0 3f bd
       0.08779021 -0.1782251 -0.0093714865 -0.04679931
0003a0 81 b9 bf bd 37 d6 b1 3d ac da 97 bd 25 d8 63 bc
       -0.09361554 0.08683436 -0.07414755 -0.013906513
0003b0 8c ed a9 3d 39 7f 27 be 05 97 51 3d cd 83 bc bb
       0.082972616 -0.16357125 0.051169414 -0.0057530166
0003c0 3b 76 33 3d f3 82 85 be 13 c3 b7 3d 0e ef f4 3d
       0.043813925 -0.2607647 0.08972754 0.119596586
0003d0 9f fe 47 3d d2 d6 85 bc 22 1d af 3d e3 46 9f 3e
       0.04882681 -0.016337786 0.085504785 0.3110877
0003e0 31 85 c7 3d 42 32 8b ba f5 9d b4 bd fc e6 c6 bd
       0.09742201 -0.0010619836 -0.088191904 -0.097120255
0003f0 84 0b 19 bd cd 03 87 3d 14 5b 23 3d 51 88 b8 be
       -0.037364498 0.06592522 0.03988178 -0.360415
