runs/lstm_uncentered/lstm_uncentered_all.pt (torch, 700629 bytes, 10 tensors)

emb.weight f4 [256, 32]
0	0xbfdadf46	-1.7099388
1	0x3f367af8	0.71281385
2	0x3fba67c6	1.4562919
3	0x3f7ecb75	0.995292
4	0x3ef337ad	0.47503415
5	0x3fb92f74	1.4467607
6	0xbd85bbf8	-0.06529993
7	0x3f879615	1.0592676
8	0xbf046197	-0.5171141
9	0xbfce110e	-1.6098955
10	0xbf6e73c0	-0.9314537
11	0xbf7d81f1	-0.990264
12	0x3f420cd4	0.75800824
13	0x3ebf8f29	0.3741391
14	0xbee44816	-0.44586247
15	0x3f1e82f6	0.6191858
16	0xbed0db35	-0.40792242
17	0x3ef9da72	0.48799473
18	0xbe9556d9	-0.29167822
19	0x3f5b004b	0.8554732
20	0xbf8f7234	-1.1206727
21	0xbf8d9afc	-1.1062922
22	0x3fde0bec	1.7347388
23	0x3fa8c280	1.3184357
24	0x3fab07e1	1.336178
25	0xbf99f3ea	-1.2027562
26	0xbf029d86	-0.5102161
27	0xbfbbc4ce	-1.4669435
28	0x3fac4371	1.3458081
29	0xbea38ff3	-0.31945762
30	0xbf79fb30	-0.97648907
31	0xbfd3d30f	-1.6548785
32	0x3f4b8440	0.7949867
33	0xbebbc0b1	-0.3667045
34	0xbf9774ef	-1.183256
35	0xbf35e227	-0.71048206
36	0xbf46fd9e	-0.7773074
37	0x3fd9affc	1.7006831
38	0xbf06b1fc	-0.5261533
39	0x3f9c53a0	1.221302
40	0x3e93f69f	0.28899094
41	0x400f26b4	2.2367373
42	0x3e79c4a7	0.24391423
43	0xbf59bbf9	-0.8505245
44	0x3f0e3846	0.55554616
45	0x3edfafb9	0.43688753
46	0xbf29ff06	-0.6640476
47	0xbf019ecf	-0.5063295
48	0x3faab0c9	1.33352
49	0xbfdb2584	-1.7120824
50	0x3c6e6598	0.014550589
51	0x3f471f70	0.77782345
52	0xbf95cf3f	-1.1703871
53	0xbe6b3c9a	-0.22972336
54	0xbfe6ce81	-1.803177
55	0xbfc7867e	-1.5587919
56	0xbe95cc0b	-0.29257235
57	0xbf4cfdbe	-0.8007468
58	0x3f6deb35	0.9293702
59	0xbeb29ca0	-0.3488512
60	0x3f8f75f1	1.1207868
61	0x3f9c4920	1.2209816
62	0x3f1de208	0.6167302
63	0xbeb7d373	-0.3590351
64	0x3f5b7a26	0.8573326
65	0x400b09f3	2.1724823
66	0x3e910cbf	0.28330037
67	0xbf7f9d14	-0.9984906
68	0xbe6d664b	-0.23183553
69	0xbfba0e40	-1.4535599
70	0xbf16b202	-0.5886537
71	0x3eab70ed	0.33484593
72	0x400342e5	2.050958
73	0xbd351841	-0.044212583
74	0xbde3d69d	-0.111249186
75	0x400939a7	2.1441438
76	0x3f7e654c	0.99373317
77	0xbf61c08a	-0.88184416
78	0x40281a9d	2.6266243
79	0x3f16cd67	0.5890717
80	0xbd56b2c7	-0.05241659
81	0x3ffc2073	1.9697403
82	0xbfdfe79c	-1.7492557
83	0x3f6ad391	0.91729075
84	0x3d4f736f	0.050647195
85	0x3f44fe8e	0.7695092
86	0xbe18fd8f	-0.14940475
87	0x40334885	2.8013012
88	0xbfc31986	-1.5242164
89	0x3f4d1f60	0.80126
90	0xbe6b5265	-0.2298065
91	0x3ef059b9	0.46943453
92	0xbf20e2ac	-0.62845874
93	0x3e6646cd	0.22487946
94	0xbfb2b06b	-1.3960088
95	0x3c7387aa	0.014863888
96	0x3de4b6f7	0.1116771
97	0x3f174a83	0.5909807
98	0xbef9a049	-0.487551
99	0x3ede8584	0.4346124
100	0xbce4381f	-0.027858792
101	0xbdaf5586	-0.08561234
102	0x3dbe9583	0.09305861
103	0xbf16346e	-0.5867375
104	0xbcf02f23	-0.029319352
105	0x3efd6ee9	0.4949868
106	0xbebac2b0	-0.3647666
107	0xbf96feb0	-1.1796474
108	0xbecb2f0f	-0.3968434
109	0xbff4625d	-1.9092518
110	0x3f759c67	0.95941776
111	0x3fbff034	1.4995179
112	0xbfde85a0	-1.7384529
113	0x3e7040f6	0.2346228
114	0xbfd1a069	-1.6377078
115	0xbf547af1	-0.83000094
116	0x3ed6f0e1	0.4198065
117	0x3f528c39	0.8224521
118	0xbfb02a02	-1.376282
119	0xbe303f3e	-0.17211625
120	0x3ebb6c45	0.3660604
121	0x3fab2722	1.3371317
122	0x3ec62400	0.3869934
123	0xbea59cd4	-0.32346213
124	0x3fd170d4	1.6362557
125	0x403cbae1	2.9489062
126	0xbf970b91	-1.1800405
127	0xbf35d43b	-0.71026963
128	0x3ff3f2ff	1.9058532
129	0xbe944ad6	-0.28963345
130	0x3a70c9c3	0.0009185338
131	0x3f8faa3d	1.1223828
132	0x40050340	2.0783234
133	0x3d78b300	0.060717583
134	0x3f8b838b	1.0899519
135	0xbf4384a9	-0.763743
136	0x3f4d2601	0.80136114
137	0x3eef809a	0.46777803
138	0x3eb05393	0.34438762
139	0x3e8eabbd	0.278654
140	0x3fa2f896	1.2732112
141	0xbf90de28	-1.1317797
142	0xbf22c87b	-0.6358716
143	0x3f5dfa51	0.8671008
144	0xbc96b3e2	-0.018396322
145	0x3faf7f52	1.371073
146	0xbf2d865d	-0.6778315
147	0xbe608475	-0.21925528
148	0x3f09c421	0.53814894
149	0xbfb42c7c	-1.4076076
150	0xbe9c6f45	-0.30553642
151	0xbf92be1b	-1.1464266
152	0x3e333322	0.17499974
153	0x3fd22a3f	1.6419142
154	0xbf8933b0	-1.0718899
155	0xbfc8d7ff	-1.5690917
156	0x3f93ca2f	1.1546077
157	0x3efa0b89	0.48836926
158	0x3f61d182	0.8821031
159	0xbfd2bb46	-1.6463401
160	0xbe8ccf08	-0.27501702
161	0x3f9e2c6c	1.2357306
162	0x3e2b8142	0.16748527
163	0xc0015157	-2.0205896
164	0xbfb97209	-1.4487926
165	0xbe92bf0d	-0.28661385
166	0x3f13a2c4	0.57670236
167	0xbe14cb8d	-0.14530773
168	0x3e0a248e	0.13490507
169	0x3efb9eba	0.49144536
170	0x3f3ac6f5	0.72959834
171	0xbf47ecb6	-0.7809557
172	0xbfcace32	-1.5844176
173	0xbf338c05	-0.7013553
174	0xbf3ee098	-0.7456145
175	0xbf0c74fb	-0.54866
176	0xbe98c848	-0.29840302
177	0xbec0e794	-0.3767668
178	0xbef8a88c	-0.4856609
179	0xbe4c7000	-0.199646
180	0x3fc07c6a	1.5037968
181	0xbf961468	-1.1724977
182	0x3f92a40a	1.1456311
183	0xbd5f7eea	-0.054564394
184	0xbf8f509f	-1.1196479
185	0xbfa57dc9	-1.2929012
186	0x3fa4dc6b	1.2879766
187	0x3f1948f5	0.5987695
188	0x3f9263b3	1.1436676
189	0xbf6a11a2	-0.91433156
190	0x3f7e6f0a	0.9938818
191	0x3d3be8c1	0.04587627
192	0xbe8a5c58	-0.27023578
193	0x3d581e8d	0.05276351
194	0x3e90ca26	0.28279227
195	0xbfa4e503	-1.2882389
196	0x3ea4501a	0.32092363
197	0x3f8b8170	1.0898876
198	0xbf1641f1	-0.5869437
199	0x406e8a10	3.7271767
200	0x3e9e993d	0.30976287
201	0xbf036bf6	-0.5133661
202	0xbefa6444	-0.48904622
203	0xbf4df142	-0.80446255
204	0xbe75b2af	-0.23993944
205	0x3f620eeb	0.88304013
206	0x3e79c4ee	0.24391529
207	0xc00296d9	-2.040457
208	0x3f33e19c	0.7026613
209	0xbe0bca61	-0.1365142
210	0xbf099579	-0.537437
211	0x3f02abf9	0.5104366
212	0xbf817558	-1.0113935
213	0x3e52253d	0.20522018
214	0x3fa0919c	1.2544436
215	0x3fb43e50	1.4081516
216	0xbe7ef643	-0.24898629
217	0xbf89b852	-1.0759375
218	0x3f99ff7b	1.2031091
219	0x3fcf72bd	1.620689
220	0x3f9d9fd0	1.2314396
221	0x3f29ae43	0.6628153
222	0x3dbf6f37	0.093473844
223	0x3eeb31f4	0.4593655
224	0xbe092fa8	-0.13397086
225	0x3f07295d	0.5279749
226	0x3d975770	0.07389724
227	0x3f151b14	0.5824444
228	0xbfb667fa	-1.4250481
229	0xbf79e7e3	-0.97619456
230	0xb9f57a63	-0.00046821227
231	0xbf532fb7	-0.8249468
232	0xbf4db219	-0.8034988
233	0x3f0b6ac0	0.5445976
234	0x3f1e9668	0.6194825
235	0xbec544f7	-0.38529179
236	0xbd6871ef	-0.05674928
237	0xbf3204a8	-0.69538355
238	0xbf6a7df1	-0.9159842
239	0xbf2236f9	-0.6336513
240	0x3e948beb	0.29013
241	0x3fc52a01	1.5403444
242	0x3f837390	1.0269642
243	0x3f7d967e	0.9905776
244	0x3ef74807	0.4829714
245	0xbe065c29	-0.13121094
246	0x3f0c6e07	0.5485539
247	0xbfa89328	-1.3169909
248	0xbd5ad2a4	-0.05342354
249	0x3fa65c61	1.2996942
250	0xbf98bcf4	-1.1932664
251	0x3eb44aa2	0.3521319
252	0x3e5b5d85	0.21422394
253	0xbeac0a75	-0.33601728
254	0xbebaff16	-0.3652274
255	0x4019c6a6	2.4027495

lstm.weight_ih_l0 f4 [512, 32]
0	0xbe13fce0	-0.14451933
1	0x3b6b15d1	0.0035871158
2	0xbdbcc6ef	-0.09217631
3	0xbe3ccc10	-0.18437219
4	0x3b8eab32	0.004353904
5	0xbc73b74a	-0.0148752425
6	0xbdbe1d65	-0.0928295
7	0x3e03b753	0.12862901
8	0xbd3df388	-0.046374828
9	0xbdba5d6c	-0.0909985
10	0x3e19c60b	0.15016954
11	0xbd80d095	-0.06289784
12	0xbd2e1875	-0.042503793
13	0xbd65fe27	-0.05615058
14	0x3d821ca9	0.06353123
15	0xbcfbdd73	-0.030745244
16	0x3e4ef671	0.20211197
17	0xbd219cc3	-0.03945614
18	0x3c2d379e	0.010572342
19	0xbd90c57e	-0.07068919
20	0x3d974b4c	0.073874086
21	0x3db119ce	0.086475
22	0xbbfd6b4d	-0.0077337385
23	0xbe302982	-0.17203334
24	0xbd5403e3	-0.05176152
25	0x3cf0e0fe	0.02940416
26	0xbdadd6c4	-0.08488229
27	0x3c32091c	0.01086643
28	0x3db67893	0.089097165
29	0xbe58ca7b	-0.2117099
30	0xbd82e8ae	-0.063920364
31	0xbe1ef3ad	-0.15522642
32	0x39184edb	0.00014525226
33	0xbdc62a77	-0.09676068
34	0x3e024630	0.12722087
35	0x3df69080	0.1203928
36	0x39c48cd7	0.00037488967
37	0xbdf1ffd0	-0.118163705
38	0x3dc2bc83	0.09508612
39	0xbe45ea0f	-0.19327568
40	0x3dff9464	0.12479475
41	0x3b03ff80	0.0020141304
42	0x3cf88e21	0.03034121
43	0xbe03c5fc	-0.12868494
44	0xbdbf4a1e	-0.093403086
45	0x3e39ab17	0.18131672
46	0x3e08a46b	0.1334397
47	0xbdcb17c4	-0.09916642
48	0xbe0c4df4	-0.13701612
49	0x3b02693e	0.0019899155
50	0x3ca5e0ff	0.020248888
51	0x3cef9970	0.02924797
52	0xb9e28fd2	-0.00043213234
53	0x3dfdd96c	0.123949856
54	0xbd028366	-0.031863593
55	0xbdf0d6e6	-0.117597386
56	0x3d256544	0.040379778
57	0xbd9a8f9e	-0.07546924
58	0x3c4d3460	0.012524694
59	0x3e1d772c	0.15377492
60	0xbe2f4505	-0.17116173
61	0x3e1720ba	0.14758578
62	0x3d16f92e	0.03685873
63	0x3d62dbe5	0.05538549
64	0xb85f4084	-5.3227428e-05
65	0xbda87d07	-0.08226972
66	0xbe3857e2	-0.18002275
67	0x3c29e51c	0.010369565
68	0xbd723cbb	-0.05913995
69	0x3d804011	0.0626222
70	0x3e229b3a	0.15879527
71	0xbcad1213	-0.021126783
72	0xbd0cb067	-0.034347918
73	0xbd8a18d5	-0.067430176
74	0xbd3712d0	-0.044695675
75	0xbd940337	-0.07227176
76	0x3d1ee9d5	0.03879722
77	0x3c27b51b	0.01023605
78	0x3d437123	0.047715317
79	0x3c7e4334	0.015518952
80	0x3d1278d5	0.035759766
81	0x3d454b65	0.048167605
82	0x3dc29937	0.0950188
83	0x3e078644	0.13234812
84	0xbdcd7775	-0.1003255
85	0x3cde5185	0.02713848
86	0xbd5cc301	-0.053896908
87	0xbc7e46e1	-0.015519829
88	0xbc92be39	-0.01791297
89	0x3d4078e5	0.046990294
90	0xbd84ed06	-0.06490521
91	0x3df46a41	0.11934329
92	0xbc5d68da	-0.013513768
93	0x3c7b54b4	0.015340019
94	0x3dcbe4f5	0.099557795
95	0xbc7c0f5e	-0.015384523
96	0xb987ec7b	-0.00025925398
97	0x3da24699	0.07923622
98	0x3c736004	0.014854435
99	0xbb690d38	-0.0035560858
100	0xbb2b41a7	-0.002613166
101	0x3e61c53f	0.220479
102	0x3cdb2302	0.026750091
103	0xbd8469b9	-0.064654775
104	0xbda4c3e9	-0.080451794
105	0x3d916cf0	0.07100856
106	0x3dc5aa8a	0.09651668
107	0xbe104798	-0.14089811
108	0xbe067d17	-0.13133655
109	0x3cadc3ac	0.021211468
110	0x3d8a787e	0.06761263
111	0x3d975949	0.07390077
112	0x3d3aec65	0.0456356
113	0xbda2a0a1	-0.07940794
114	0x3d91ffd0	0.071288705
115	0xbe4cfac5	-0.20017536
116	0x3e2186bf	0.15774058
117	0x3e75cb37	0.24003302
118	0x3dffe9bf	0.124957554
119	0xbd8d5a83	-0.06902029
120	0x3e03930b	0.12849061
121	0xbe1ac285	-0.15113266
122	0x3cc2e5cf	0.023791222
123	0x3d1d1872	0.03835339
124	0xbdf969fb	-0.12178417
125	0xbd4a1943	-0.049340498
126	0x3d0bdb07	0.034144428
127	0x3da30a0c	0.07960901
128	0x3e32ec89	0.17473044
129	0x3e3701f4	0.17871839
130	0x3dfdca12	0.123920575
131	0xbe8d96ed	-0.2765421
132	0xbe85d8f4	-0.26142085
133	0xbc3e788d	-0.011625421
134	0xbe928f7b	-0.28625092
135	0xbd4439b0	-0.047906578
136	0xbe4652c4	-0.1936751
137	0xbd02c9f5	-0.031930882
138	0x3e8dcef8	0.27696967
139	0x3e1d5d59	0.1536764
140	0xbe26b37a	-0.16279402
141	0x3c550df2	0.013003813
142	0xbe300fc6	-0.17193517
143	0xbe26eb81	-0.16300775
144	0xbe0c778a	-0.13717476
145	0x3de8111a	0.11331387
146	0x3b94cc7f	0.0045409794
147	0xbe862ab4	-0.26204455
148	0x3d9f9cfe	0.07793616
149	0x3e20daab	0.15708415
150	0x3e42f022	0.19036916
151	0xbe15ead7	-0.14640366
152	0x3d96cb47	0.07362991
153	0xbe45f791	-0.1933272
154	0x3e65beb5	0.2243603
155	0x3d0c079e	0.03418695
156	0x3dde2905	0.108476676
157	0x3ddb404a	0.107056215
158	0x3c4255be	0.011861263
159	0xbc913a09	-0.017727869
160	0xbd6498c8	-0.055809766
161	0xbd999581	-0.07499219
162	0x3ea97e06	0.3310396
163	0xbc951df6	-0.018202763
164	0x3e1ab4f0	0.15108085
165	0x3da96f3c	0.082731694
166	0x3d69a8f2	0.057045884
167	0xbd8cd005	-0.06875614
168	0x3cf317ec	0.029674493
169	0x3d4f24a4	0.050572053
170	0x3d478fe8	0.048721224
171	0x3e3b7418	0.18306005
172	0x3e0ae3f1	0.13563515
173	0x3c4f28e4	0.012644026
174	0xbc7e4295	-0.015518804
175	0xbd822d8d	-0.06356344
176	0x3d967702	0.07346918
177	0xbe8c8b16	-0.27449864
178	0x3bb983b7	0.0056614536
179	0xbc67e097	-0.0141526675
180	0x3cff1d75	0.031141976
181	0x3d103ca1	0.03521407
182	0x3dfd6492	0.12372698
183	0x3d63cbeb	0.055614393
184	0x39aeb3fe	0.0003332197
185	0x3c66f781	0.0140970955
186	0xbd3d6c7b	-0.046246033
187	0xbd432065	-0.047638316
188	0x3d78d5fe	0.060750954
189	0x3d45c2ec	0.048281595
190	0x3e01b5fd	0.1266708
191	0xbdee1305	-0.116247214
192	0xbcb6ded5	-0.022323051
193	0xbc4df349	-0.012570211
194	0xbd628fdc	-0.055312976
195	0xbce2c7ef	-0.027683226
196	0xbdd036a1	-0.1016667
197	0x3ddfb26c	0.10922703
198	0xbda257ca	-0.07926901
199	0xbdaa48c9	-0.08314664
200	0x3cde8b3c	0.027166001
201	0x3de6084f	0.112320535
202	0xbd7aaa1d	-0.06119739
203	0xbe132534	-0.1436966
204	0xbd24266d	-0.04007571
205	0xbdcc5ebc	-0.09979007
206	0x3de1a9d8	0.11018723
207	0xbd359e72	-0.04434056
208	0xbc8d7e0a	-0.017272014
209	0x3d95cacf	0.07314073
210	0xbd37cc1a	-0.04487238
211	0x3d1ea16b	0.03872816
212	0x3e00a637	0.12563406
213	0x3d24ab3b	0.04020236
214	0x3ce7cde4	0.028296418
215	0xbd3cccbc	-0.046093687
216	0xbd14de60	-0.036344886
217	0xbd864236	-0.065555975
218	0xbe5a4361	-0.21314766
219	0x3d9e1452	0.077187195
220	0xbdd0704f	-0.10177671
221	0xbe340eb6	-0.17583737
222	0x3bb853e8	0.005625237
223	0x3cb14b67	0.0216424
224	0x3d648c19	0.05579767
225	0x3d9074f4	0.07053557
226	0xbe548b86	-0.20756349
227	0x3d8e1e45	0.06939367
228	0xbea45eeb	-0.32103667
229	0xbd9ad692	-0.07560457
230	0x3d8e50a4	0.06948975
231	0xbca63cd5	-0.020292679
232	0x3dd36ea0	0.103238344
233	0xbe0b444b	-0.1360027
234	0x3d2a89d9	0.041635368
235	0xbdaeb491	-0.08530534
236	0xbdda876e	-0.106703624
237	0xbb73bddc	-0.0037192022
238	0x3d899e60	0.06719661
239	0x3d017e15	0.03161438
240	0x3c205ec0	0.009788215
241	0x3dbcda5b	0.092213355
242	0x3dd2a83d	0.10285995
243	0x3d90b72a	0.07066186
244	0x3d98d4c9	0.074624605
245	0xbe0ca984	-0.1373654
246	0xbe008a9b	-0.12552874
247	0xbe426daf	-0.18987153
248	0xbd78833d	-0.060672034
249	0xbdedb859	-0.11607427
250	0x3d88ec05	0.06685642
251	0x3dac6c7a	0.08419128
252	0x3e79eed1	0.24407507
253	0x3d9938f2	0.074815646
254	0xbcde38d5	-0.027126709
255	0x3d9fa283	0.077946685

lstm.weight_hh_l0 f4 [512, 128]
0	0xbe1f2da5	-0.15544756
1	0xbdf561ee	-0.11981569
2	0xbdebe971	-0.11519135
3	0xbc97933a	-0.01850282
4	0x3d5c176d	0.053733278
5	0xbd9dd54b	-0.07706698
6	0x3d4431fd	0.047899235
7	0x3e15b12f	0.14618371
8	0x3e2aa2ad	0.16663618
9	0xbe2c6367	-0.16834794
10	0xbddc95a7	-0.107707314
11	0xbe56fc2b	-0.20994632
12	0x3d0cf948	0.03441742
13	0x3de50584	0.11182693
14	0x3dbdbca8	0.09264499
15	0xbd5b4079	-0.053528283
16	0x3e30b7ec	0.1725766
17	0xbe7d9615	-0.24764283
18	0x3d67ab4a	0.05655984
19	0xbd861fd0	-0.065490365
20	0xbdf8de3a	-0.12151761
21	0x3d417e96	0.047239862
22	0xbcc428e3	-0.023945278
23	0x3ceea522	0.029131476
24	0x3dae99e8	0.08525449
25	0xbdda35c8	-0.10654789
26	0xbda6fc76	-0.08153622
27	0x3e0b7b50	0.13621259
28	0x3d0323b5	0.032016475
29	0x3d449b06	0.047999404
30	0x3e40b870	0.18820357
31	0x3dc4fea4	0.09618881
32	0x3dc607af	0.09669434
33	0xbe471a3d	-0.19443603
34	0xbd3d6743	-0.046241056
35	0xbddc1b82	-0.10747434
36	0xbe02338a	-0.12714973
37	0x3da94656	0.08265369
38	0xbd6f3ef8	-0.05840966
39	0xbd30fd60	-0.043210387
40	0x3de075c8	0.10959965
41	0xbd7373f1	-0.059436742
42	0xbda87a5b	-0.082264625
43	0xbdd152b5	-0.10220853
44	0x3da284df	0.079354994
45	0xbc75c0ab	-0.014999549
46	0xbe102b52	-0.14079025
47	0xbd58e61b	-0.05295382
48	0xbd9b7d35	-0.07592241
49	0xbd861343	-0.06546643
50	0x3d53d853	0.051719975
51	0x3d7a7b47	0.061152723
52	0xbdf6141e	-0.12015556
53	0xbe54b444	-0.20771891
54	0xbc9b507a	-0.018959273
55	0x3d059245	0.032610197
56	0x3e02807b	0.12744324
57	0xbe0aa7c1	-0.13540556
58	0xbcdb8f23	-0.026801651
59	0xbde00472	-0.10938348
60	0xbe1228b7	-0.14273344
61	0xbe4fe084	-0.2030049
62	0x3dbe70a4	0.09298828
63	0xbe19647a	-0.14979735
64	0xbce59fc1	-0.028030278
65	0xbdfdccec	-0.12392601
66	0x3dfc414a	0.123171404
67	0xbd5b4be1	-0.05353916
68	0xbe00a360	-0.12562323
69	0xbdcecfca	-0.10098226
70	0x3d0b5ea5	0.034025807
71	0x3c88a672	0.01668093
72	0xbd96cddf	-0.073634855
73	0x3ce66d5a	0.028128315
74	0xbb9ed39d	-0.0048470036
75	0xbdfcf982	-0.12352277
76	0x3da0572c	0.07829127
77	0xbd01cbe1	-0.031688575
78	0x3e3a39c0	0.18186092
79	0xbe079065	-0.13238676
80	0xbdad8353	-0.08472314
81	0xbe214a21	-0.15750934
82	0x3de4314a	0.11142214
83	0x3e512fc6	0.2042838
84	0x3cdeebee	0.02721211
85	0xbe68797d	-0.22702594
86	0xbcbb5fce	-0.022872832
87	0x3e90d628	0.28288388
88	0xbd4341a1	-0.04767001
89	0x3e381b8a	0.17979255
90	0x3e57ca92	0.21073368
91	0x3c65c1e8	0.014023282
92	0xbdb6aaf6	-0.08919327
93	0xbe8840d2	-0.26611954
94	0xbd246949	-0.04013947
95	0xbe4ae10f	-0.19812416
96	0x3d89bb65	0.06725196
97	0xbdac447a	-0.08411498
98	0xbce86592	-0.028368745
99	0xbd8a71ee	-0.067600116
100	0x3d603131	0.054734413
101	0x3db56499	0.08857078
102	0xbe0a87fe	-0.1352844
103	0x3d95b84a	0.07310541
104	0xbd3d28e6	-0.046181582
105	0x3d4bad41	0.049725775
106	0xbe8cfebd	-0.275381
107	0xbbc175db	-0.005903942
108	0xbdc0206a	-0.093811825
109	0xbdeb059a	-0.11475678
110	0xbe3151e9	-0.17316402
111	0xbcd22558	-0.025652573
112	0x3e0ed174	0.13947088
113	0xbabc636b	-0.0014372891
114	0x3d2748bd	0.040840853
115	0xbe13554b	-0.14388005
116	0xbc5b4c15	-0.013384839
117	0xbde13533	-0.10996475
118	0x3dee11de	0.11624502
119	0x3d6405e8	0.055669695
120	0x3d457db4	0.048215583
121	0xbd731a70	-0.059351385
122	0x3d638f7a	0.05555675
123	0xbdeed4a2	-0.1166165
124	0xbdf1811e	-0.11792205
125	0xbdc4890f	-0.09596454
126	0x3db371e7	0.087619595
127	0x3e631cdb	0.22178976
128	0xbdffc2fd	-0.12488363
129	0xbd99cf31	-0.07510222
130	0xbd20d03c	-0.039261088
131	0xbd04c683	-0.032415878
132	0x3d5c83d3	0.053836655
133	0x3d094f5c	0.03352295
134	0x3ddf4c64	0.10903242
135	0xbd3df3d7	-0.046375122
136	0x3dbfa2f5	0.093572535
137	0xbca65da4	-0.020308323
138	0x3c22bca2	0.009932669
139	0x3d3513aa	0.044208206
140	0xbca9a0c7	-0.020706547
141	0xbcff0ae3	-0.03113312
142	0x3d905853	0.070480965
143	0xbdbe76eb	-0.093000256
144	0x3d8755ef	0.066081874
145	0xbd628e1b	-0.055311304
146	0xbdd54df8	-0.10415262
147	0x3d9ea146	0.07745604
148	0xbd14bd3f	-0.03631329
149	0xbe1cde70	-0.15319228
150	0xbcd1542a	-0.025552828
151	0xbdeecf18	-0.11660594
152	0x3d7b1b1b	0.061305147
153	0x3d38c881	0.04511309
154	0x3e0f8a8f	0.140177
155	0x3da2708d	0.079316236
156	0xbbf8546b	-0.007578423
157	0x3e1ca065	0.1529556
158	0x3b5bfd02	0.0033567552
159	0x3d75845f	0.059940692
160	0xbda516ff	-0.08061027
161	0x3d37817b	0.044801217
162	0xbcb346e8	-0.021884397
163	0xbd83301f	-0.06405663
164	0x3d8bbc68	0.06823045
165	0xbdd396a9	-0.103314705
166	0x39c8898b	0.0003824945
167	0xbdf8ac9a	-0.12142296
168	0xbe14ce95	-0.1453193
169	0x3d42f8e6	0.04760065
170	0x3d1393d5	0.036029655
171	0x3dcfd518	0.10148066
172	0xbd39b9a4	-0.045343056
173	0xbc03a864	-0.008035753
174	0x3dc829a1	0.09773565
175	0xbd5606a9	-0.052252445
176	0x3cb69ff3	0.022293067
177	0xbe0c9a3d	-0.13730712
178	0x3ce0e5e5	0.027453372
179	0x3de398db	0.11113139
180	0x3d667fee	0.056274347
181	0xbd7d6a68	-0.061869055
182	0xbc2d3957	-0.010572753
183	0x3d9438ff	0.07237434
184	0x3d15ce83	0.036573898
185	0x3d4ed8e8	0.050499827
186	0xbe40661f	-0.18788956
187	0x3d143160	0.0361799
188	0x3c267244	0.010159079
189	0x3d71e3de	0.0590552
190	0x3d92fc0a	0.07176979
191	0xbd898844	-0.06715444
192	0xbd120931	-0.035653297
193	0xbe098265	-0.13428648
194	0xbd86114e	-0.06546269
195	0xbc9997f7	-0.01874922
196	0xbcd8fcef	-0.026487796
197	0xbc80ca5f	-0.015721498
198	0xbda33e17	-0.07970827
199	0x3d46d96e	0.0485472
200	0xbceba5ad	-0.028765524
201	0xbc9acb6e	-0.018895831
202	0x3e30da0d	0.1727068
203	0xbd4cb8de	-0.04998099
204	0x3d06512e	0.032792263
205	0x3d9038d0	0.07042086
206	0x3d80c478	0.062874734
207	0x3d606038	0.05477926
208	0xbccdb9a1	-0.025112929
209	0xbdcb1546	-0.09916167
210	0x3c8d0e88	0.017218843
211	0x3df1565d	0.117840506
212	0x3cbe048e	0.023195531
213	0xbd482848	-0.04886654
214	0xba9531b7	-0.0011382614
215	0x3d605416	0.05476769
216	0x3e0fd348	0.14045441
217	0x3d8ddb56	0.06926601
218	0xbc88be6e	-0.016692366
219	0xbc9f8767	-0.019473745
220	0x3d60e75a	0.054908134
221	0x3d38d7c6	0.045127653
222	0x3d5a33fe	0.05327224
223	0xbd9194b0	-0.07108438
224	0x3ce33e96	0.027739804
225	0x3d3549f8	0.044259995
226	0x3b75d480	0.0037510693
227	0xbc5fcb3b	-0.013659294
228	0xbd7e6f7a	-0.06211803
229	0x3e373306	0.17890558
230	0xbdf51b8d	-0.119681455
231	0x3d80c68b	0.06287869
232	0xbd650808	-0.055915862
233	0xbd90889a	-0.07057305
234	0xbc9e0142	-0.01928771
235	0x3dd28237	0.10278743
236	0xbe04e816	-0.12979159
237	0x3bd14501	0.0063863997
238	0x3cffc678	0.031222567
239	0x3db4748c	0.08811292
240	0x3de95790	0.11393654
241	0x3bd715ef	0.006563894
242	0x3c4a9098	0.012363575
243	0x3e05fa8e	0.1308386
244	0x3d80ba77	0.06285565
245	0x3d88d129	0.06680519
246	0x3da22a3f	0.07918214
247	0x3cacfb93	0.021116054
248	0x3e0b2bec	0.13590974
249	0xbd805b91	-0.06267465
250	0xbd878bf4	-0.06618491
251	0x3b468107	0.0030289309
252	0xbdae0358	-0.084967315
253	0xbd8315c3	-0.06400635
254	0xbdd91487	-0.105996184
255	0x3cf47725	0.029841969

lstm.bias_ih_l0 f4 [512]
0	0x3e40f900	0.18844986
1	0x3d1864cf	0.037205514
2	0xbb9ba540	-0.004749924
3	0xbc19d4bf	-0.0093891015
4	0xbd31d9cd	-0.0434206
5	0x3d622edb	0.055220466
6	0xbc59ec27	-0.013300932
7	0x3d9e976d	0.07743726
8	0xbc86d28f	-0.016457824
9	0x3c888e34	0.01666937
10	0x3d07c1a0	0.03314364
11	0x3cb6f325	0.022332737
12	0xbc0247e8	-0.007951714
13	0x3c805e73	0.015670037
14	0x3da6804c	0.081299394
15	0xbcd7f917	-0.026363892
16	0x3e5ec10c	0.21753329
17	0x3ec06137	0.3757417
18	0x3d0773be	0.033069365
19	0x3ee2f26f	0.44325587
20	0x3d983cef	0.07433497
21	0xbcbe98b5	-0.023266176
22	0xbbd30ac5	-0.006440493
23	0xbcbcbbb7	-0.023038728
24	0x3d5f3db3	0.0545022
25	0xbc35dc2c	-0.011099856
26	0x3ec5f288	0.386616
27	0x3d788bfd	0.06068038
28	0x3d1adabd	0.03780626
29	0x3e159f02	0.14611438
30	0x3e24a78f	0.16079544
31	0xbdd7f9dd	-0.105457045
32	0x3da79936	0.081835195
33	0x3ebec04c	0.37256086
34	0x3d91f325	0.07126454
35	0xbd3c0833	-0.045906257
36	0xbd298620	-0.041387677
37	0x3d32cca4	0.04365219
38	0x3c582cb6	0.013194254
39	0x3dac6e78	0.08419508
40	0x3dc4854c	0.09595737
41	0x3dc04d7d	0.0938978
42	0x39400e58	0.0001831589
43	0x3d8d4b71	0.06899155
44	0xbc90875f	-0.017642675
45	0x3d9178b2	0.07103099
46	0x3d0df4e1	0.034657363
47	0x3bfbf836	0.007689501
48	0xbd94dcf0	-0.07268703
49	0xbd356919	-0.044289682
50	0x3de45747	0.11149459
51	0x3e19948d	0.14998074
52	0xbd490115	-0.049073298
53	0x3e21a9c2	0.15787414
54	0xbd89fedc	-0.06738064
55	0x3d8c5ae4	0.068532735
56	0x3e21a387	0.15785037
57	0x3de37c21	0.1110766
58	0x3e06a175	0.13147528
59	0x3db37eca	0.087644175
60	0x3c4712bc	0.012150463
61	0x3c011bd1	0.007880167
62	0xbda513e9	-0.08060438
63	0xbe5dbcda	-0.21654072
64	0xbd4bfa1a	-0.049799062
65	0x3cbc801a	0.023010302
66	0xbd8da33b	-0.06915899
67	0x3d403372	0.046924062
68	0x3dffb7f8	0.12486261
69	0x3be7c39d	0.0070728795
70	0xbd03efb1	-0.03221101
71	0x3edc3b98	0.43014216
72	0xbb5a74db	-0.0033333811
73	0xbd537d9c	-0.051633462
74	0xbdabdd2b	-0.08391794
75	0xbdbe7625	-0.09299878
76	0x3b298167	0.0025864483
77	0xbc604942	-0.013689341
78	0xbca23777	-0.019801838
79	0x3d8ed2e5	0.06973819
80	0xbd2c4405	-0.042057056
81	0x3de5fb0b	0.11229523
82	0xbe0ac64a	-0.13552204
83	0x3d7b7264	0.06138839
84	0xbcb584b2	-0.022158
85	0xbc5e0def	-0.013553127
86	0xbd7a0519	-0.061040018
87	0x3f1759fd	0.59121686
88	0xbc55170a	-0.013005981
89	0x3ddde106	0.108339354
90	0xbd98803f	-0.07446336
91	0xbc7bf894	-0.01537909
92	0x3e2cd066	0.16876373
93	0x3dd801b0	0.10547197
94	0xbe082c0b	-0.13298051
95	0x3d81360d	0.063091375
96	0xbdf2bfc4	-0.11852983
97	0xbd799824	-0.06093611
98	0x3d870275	0.065922655
99	0x3e44268d	0.19155331
100	0xbe12dd10	-0.14342141
101	0xbd9fe7f5	-0.07807914
102	0xbdc137a0	-0.09434438
103	0x3d9aace2	0.07552506
104	0x3e04dea5	0.12975557
105	0x3d747cef	0.05968946
106	0x3df6b1a1	0.12045599
107	0x3e100191	0.14063098
108	0xbc956f13	-0.01824144
109	0x3e17ca6e	0.14823315
110	0x3cb40033	0.021972751
111	0xbe0f10b0	-0.1397121
112	0x3d650981	0.055917267
113	0x3e02b29c	0.12763447
114	0xbd832104	-0.064027816
115	0x3d435920	0.047692418
116	0x3d9c108e	0.07620345
117	0x3ca2a10a	0.01985218
118	0x3d992f94	0.07479778
119	0xbccaad24	-0.024740763
120	0xbcd57434	-0.026056387
121	0xbdd47bcc	-0.10375175
122	0x3e16fd31	0.14745022
123	0xbd295058	-0.041336387
124	0xbda5b868	-0.08091813
125	0x3dc1e33f	0.09467172
126	0x3c8dba2c	0.017300688
127	0x3e427b65	0.18992384
128	0x3d4ea2a6	0.050448082
129	0x3c5d26a2	0.01349798
130	0xbd29157b	-0.04128025
131	0xbc0dedba	-0.008662635
132	0x3b7e8594	0.0038836943
133	0xbc81b014	-0.01583103
134	0x3dab10d3	0.08352818
135	0xbd40a20e	-0.047029547
136	0x3e26bc22	0.16282704
137	0xbda8857b	-0.082285844
138	0x3c99685b	0.018726518
139	0x3a34fe06	0.00069043075
140	0xbbb38e0f	-0.005479581
141	0xbd5be208	-0.053682357
142	0xbd3d5611	-0.046224657
143	0x3acf54b0	0.0015818086
144	0x3d781fc8	0.060577184
145	0xbc8c9115	-0.017159024
146	0x3d729652	0.059225388
147	0x3d73816f	0.05944961
148	0x3d1367e5	0.035987753
149	0x3bc8c705	0.0061272406
150	0x3dd77d77	0.105219774
151	0xbdad4a0f	-0.08461391
152	0x3d1567b0	0.036475837
153	0xbd09af15	-0.033614237
154	0x3ced505e	0.028968986
155	0x3cf40081	0.029785397
156	0x3d718faa	0.0589749
157	0x3d301214	0.04298599
158	0x3c121c82	0.00891793
159	0xbd37a682	-0.04483653
160	0x3c520ead	0.012820882
161	0x3e3d8989	0.18509497
162	0x3de1f608	0.11033255
163	0x3cec88e5	0.02887387
164	0x3c777250	0.015102938
165	0x3d7d0026	0.06176772
166	0xbb4b0b10	-0.0030981936
167	0xbd829f33	-0.06378021
168	0x3d632f3b	0.055464964
169	0x3d508c2d	0.050914932
170	0xbdf67735	-0.12034456
171	0x3db87943	0.09007504
172	0xbc2cf497	-0.010556362
173	0xbd6a0017	-0.057128992
174	0x3d2429e2	0.040079005
175	0x3d3d704f	0.046249684
176	0x3d831d68	0.06402093
177	0x3d92f76f	0.071761005
178	0x3e408303	0.18799977
179	0x3d8e6ddc	0.06954548
180	0xbd4cd4cf	-0.050007638
181	0x3e077bf8	0.13230884
182	0x3cdd9786	0.027049791
183	0x3d89bffd	0.06726072
184	0xbb50d76b	-0.003186668
185	0x3e180cae	0.14848587
186	0xbe035dbc	-0.12828726
187	0xbda7b643	-0.081890605
188	0xbdb8c5ed	-0.09022126
189	0x3d983b36	0.074331686
190	0x3da23c32	0.079216376
191	0x3d4c7ab2	0.0499217
192	0x3e0d868d	0.13820858
193	0x3d4d0870	0.050056875
194	0x3cf3e490	0.029772073
195	0x3d9f4916	0.07777612
196	0xbd0ef609	-0.034902606
197	0x3e01b68a	0.1266729
198	0xbd513921	-0.051079873
199	0xbc7079c0	-0.014677465
200	0xbd9aa113	-0.07550254
201	0x3d368e79	0.044569466
202	0xbda648c0	-0.08119345
203	0x3d282f5c	0.04106079
204	0x3cb85b3d	0.022504443
205	0x3c8f2554	0.017473854
206	0x3da91420	0.08255792
207	0x3c0e83c5	0.0086984085
208	0x3d92047f	0.07129764
209	0x3dbfee26	0.09371595
210	0xbbd34a62	-0.006448076
211	0x3cb66df1	0.022269221
212	0x3d905fb1	0.07049502
213	0x3e0e56db	0.1390032
214	0xbcbc9414	-0.023019828
215	0x3def0533	0.116709135
216	0xbcd84429	-0.026399689
217	0x3da2d1dd	0.079501845
218	0x3cd14585	0.025545845
219	0xbd8b0670	-0.06788337
220	0x3d9bcdc3	0.07607605
221	0x3d45cf05	0.048293132
222	0xbe058aab	-0.13041179
223	0xbd39aff2	-0.04533381
224	0x3e025a77	0.12729822
225	0x3b47460a	0.0030406737
226	0xbde2866d	-0.11060796
227	0xbd120ebc	-0.035658583
228	0x3c9c3408	0.01906778
229	0x3c41e795	0.011834999
230	0xbe058194	-0.13037711
231	0x3d474adf	0.048655387
232	0x3e078e2a	0.13237825
233	0x3d014f74	0.031569913
234	0xbb5b0bde	-0.0033423821
235	0xbdad2e32	-0.08456077
236	0x3dd5ec59	0.1044547
237	0xbe13eed1	-0.1444657
238	0x3dbb7cbb	0.0915465
239	0xbd8f1f70	-0.06988418
240	0x3da704c8	0.08155209
241	0x3ddd780d	0.108139135
242	0xbc908893	-0.017643249
243	0x3d40eb24	0.047099248
244	0x3d7a67dc	0.061134204
245	0xbdf2be3a	-0.11852689
246	0x3d9a638e	0.0753852
247	0x3d680096	0.056641184
248	0x3b502218	0.0031758603
249	0x3d84b80f	0.06480419
250	0xbd3dab09	-0.04630569
251	0xbd7003c7	-0.058597352
252	0x3d4a0a18	0.049326032
253	0x3d8b83f2	0.06812276
254	0x3e06270c	0.13100833
255	0x3b26b47d	0.002543717

lstm.bias_hh_l0 f4 [512]
0	0x3e2eaef6	0.1705893
1	0x3d028006	0.031860374
2	0x3c771732	0.015081214
3	0xbe132e21	-0.14373066
4	0xbd57dba4	-0.0526997
5	0xbd65e92d	-0.056130577
6	0xbd4ad976	-0.049523793
7	0x3c18920f	0.009312167
8	0xbc64aeed	-0.013957721
9	0x3dd49f4d	0.10381947
10	0x3ddc5a9a	0.107594684
11	0xbc25e7af	-0.010126038
12	0x3d8faacb	0.07014998
13	0x3d59c3ed	0.053165365
14	0xbd8a6d2e	-0.067591056
15	0x3dac8d63	0.08425405
16	0x3d95987d	0.073044755
17	0x3e83a03b	0.25708184
18	0x3df46055	0.119324364
19	0x3f197bca	0.5995451
20	0xbc037ea4	-0.008025799
21	0xbda22290	-0.079167485
22	0x3c224b5e	0.009905664
23	0x3ca742c6	0.020417582
24	0x3daefbb0	0.08544099
25	0xbcdb6ea8	-0.026786163
26	0x3e9e0972	0.3086658
27	0xbd7ab5dc	-0.06120859
28	0x3ce4a2a6	0.027909588
29	0x3dae9722	0.0852492
30	0x3e2d5678	0.16927516
31	0x3bb81e10	0.005618818
32	0x3db791d3	0.08963361
33	0x3eaa0080	0.33203506
34	0xbbe2e3c9	-0.0069241268
35	0x3ca8d090	0.020607263
36	0xbddfeb0f	-0.10933506
37	0x3dbeb5d1	0.093120225
38	0x3e01dc7d	0.12681766
39	0x3d68e69a	0.056860544
40	0x3d52cc1b	0.05146418
41	0x3d8e5bee	0.06951128
42	0x3b8d2637	0.004307534
43	0x3dc525f9	0.09626383
44	0xbc79a40e	-0.015236868
45	0x3cba45c6	0.022738349
46	0xbd1bf9fd	-0.038080204
47	0x3cfb6949	0.030689852
48	0x3d015ae6	0.031580828
49	0x3d0ef61e	0.034902684
50	0xbb7f6cfd	-0.0038974874
51	0x3d8f211a	0.069887355
52	0x3d82c8c2	0.06385948
53	0x3e2347c6	0.15945348
54	0x3db3dcea	0.087823704
55	0xbcfac71f	-0.030612526
56	0x3e2c68a1	0.16836788
57	0xbcbdbb22	-0.023160521
58	0x3e546665	0.20742185
59	0x3dcd40aa	0.10022099
60	0x3cb2f91e	0.021847304
61	0x3d5d5d21	0.054043893
62	0x3cdfe162	0.02732915
63	0xbe3e0c69	-0.18559422
64	0xbd9ad0e6	-0.075593755
65	0x3c390432	0.011292504
66	0x3d661a8c	0.05617766
67	0x3d150b0c	0.03638749
68	0x3d8e44d1	0.069467194
69	0x3c9a5b79	0.018842446
70	0xbd7cef58	-0.061751693
71	0x3ee1d049	0.4410422
72	0xbd0c699c	-0.034280404
73	0x3daa25a3	0.0830796
74	0xbdfbd841	-0.122971065
75	0xbcafea39	-0.02147399
76	0x3c800cdc	0.015631132
77	0x3bce6436	0.006298567
78	0x3d38a320	0.045077443
79	0xbc41833f	-0.011811077
80	0x3baf3be0	0.005347714
81	0x3ddcc4cc	0.107797235
82	0xbc89a51a	-0.01680236
83	0x3db6b1d5	0.089206375
84	0xbd42e63d	-0.047582854
85	0xb81f66f4	-3.8004437e-05
86	0xbd1ad69a	-0.037802316
87	0x3f1ba0e8	0.607924
88	0xbdc80bc6	-0.097678706
89	0x3e06c064	0.13159329
90	0xbbfc9561	-0.007708237
91	0x3d957125	0.07296971
92	0x3da8d096	0.082429096
93	0x3e23de5e	0.16002795
94	0xbdf33a04	-0.118763
95	0x3d0a73cd	0.033801842
96	0x3d30ae42	0.043134935
97	0xbd4c204f	-0.0498355
98	0x3db45bce	0.08806573
99	0x3d5cfbc3	0.053951036
100	0xbd5bce31	-0.053663436
101	0xbd74b648	-0.05974415
102	0x3b183082	0.0023222272
103	0x3abb7bd9	0.0014303877
104	0x3e1af5fd	0.151329
105	0x3d701358	0.058612198
106	0x3e449b76	0.19199929
107	0x3d0424ec	0.032261774
108	0x3d1bf0b4	0.03807135
109	0x3e2cd1fa	0.16876975
110	0x3a6a3441	0.0008934178
111	0xbdb4ef81	-0.08834744
112	0x3d39669b	0.045263868
113	0x3d087430	0.03331393
114	0xbc49556c	-0.012288433
115	0x3baad3d7	0.0052132416
116	0x3dd83ea9	0.105588265
117	0xbb951abd	-0.0045503066
118	0x3e0bdfcf	0.13659595
119	0xbd452af5	-0.04813667
120	0x3d20c473	0.03924985
121	0x3d57a1d9	0.052644584
122	0x3cb47aee	0.022031274
123	0xbaa136fb	-0.0012299711
124	0x3c92d2b5	0.017922739
125	0x3b956c56	0.004560034
126	0x3dc8da25	0.09807233
127	0x3e0c1a8e	0.13682005
128	0x3d6b161b	0.05739413
129	0xbc968692	-0.018374715
130	0x3d3fbc8b	0.046810668
131	0x3d21b411	0.039478365
132	0xbd470bcf	-0.048595246
133	0x3d291738	0.04128191
134	0x3dedce35	0.116115965
135	0x3a10d2ed	0.00055245945
136	0x3e28a781	0.16470148
137	0x3bb83919	0.005622041
138	0x3d1fa506	0.038975738
139	0xbd63ed66	-0.055646323
140	0x3dd1b0e6	0.10238819
141	0x3d62574e	0.05525904
142	0x3cfa1a22	0.03053004
143	0xbbe236c7	-0.0069035026
144	0x3b29e396	0.0025923005
145	0x3d55188e	0.05202537
146	0x3d54e13d	0.051972616
147	0x3dec060f	0.11524593
148	0x3e1f93ce	0.15583727
149	0xbcedeaff	-0.029042719
150	0x3d23c96f	0.039987024
151	0x3d8e009f	0.06933712
152	0x3cb49c06	0.022047054
153	0xbd7ea92d	-0.062173057
154	0x3dd24e11	0.10268796
155	0x3d8b1a33	0.067921065
156	0xbd3b46db	-0.04572187
157	0x3e024c35	0.12724383
158	0xbdc8dbd0	-0.09807551
159	0xbd6e6d41	-0.05820966
160	0x3ce8314c	0.02834382
161	0x3dfba95b	0.12288161
162	0x3d71903d	0.058975447
163	0x3ab71498	0.0013967929
164	0xbd025801	-0.03182221
165	0x3dd1000e	0.102050886
166	0xbd2b471a	-0.041815855
167	0xbd8d9da2	-0.06914832
168	0xbd3f3e5a	-0.046690322
169	0x3df0fa6f	0.117665164
170	0xbd89711e	-0.067110285
171	0x3d69eee0	0.057112575
172	0x3de9e1f0	0.11420047
173	0xbd4254be	-0.047444098
174	0x3d34111f	0.04396164
175	0x3d9b5bfd	0.07585905
176	0x3d4737a1	0.048637036
177	0xbce5f99a	-0.02807312
178	0x3d58acc0	0.052899122
179	0xbc9d1f4c	-0.019179963
180	0x3c9376f2	0.018001053
181	0x3e1669d2	0.14688805
182	0x3d011947	0.031518247
183	0xbd0dfcf7	-0.034665074
184	0x3d4acd13	0.04951198
185	0x3db6d7ec	0.089279026
186	0xbd434100	-0.04766941
187	0xbd58aa95	-0.052897055
188	0xbdc7a544	-0.09748319
189	0x3de0f13e	0.10983513
190	0xbb0f14ea	-0.0021832534
191	0x3dd4fc37	0.10399669
192	0xbc5b4f12	-0.013385551
193	0x3da6ee87	0.08150964
194	0xbc67cb4d	-0.014147592
195	0xbd62da07	-0.05538371
196	0xbb6e17bd	-0.0036330067
197	0x3df688f2	0.12037839
198	0xbc536a7f	-0.012903809
199	0xbd7371ba	-0.05943463
200	0xbdacc9d2	-0.08436932
201	0x3e0849f8	0.13309467
202	0xbc06be78	-0.008224122
203	0x3d36b1b0	0.04460305
204	0xbb536696	-0.003225719
205	0x3b9cee9d	0.004789187
206	0x3dc61509	0.09671981
207	0x3c14e1bc	0.009087022
208	0xbda36237	-0.07977717
209	0x3e0a908c	0.13531703
210	0xbcb52f5a	-0.022117306
211	0x3c15d125	0.009144102
212	0xbd144de0	-0.03620708
213	0xbc9afbe6	-0.018918943
214	0xbdbf07eb	-0.09327682
215	0x3d28bb5f	0.041194316
216	0x3baa77ed	0.0052022845
217	0x3d133925	0.03594317
218	0x3d5edff2	0.05441279
219	0x3d9545e6	0.07288723
220	0x3e040903	0.12894063
221	0x3e0b9cd1	0.1363404
222	0xbe1f51dc	-0.1555857
223	0xbab0fdaa	-0.0013503332
224	0x3db5b993	0.08873286
225	0xbd1b145f	-0.037861224
226	0xbcee3a74	-0.029080607
227	0x3d294f23	0.041335236
228	0xbdab1d84	-0.08355239
229	0x3cbd7b99	0.023130225
230	0xbdae2117	-0.08502405
231	0x3d92241b	0.07135793
232	0x3d1825d3	0.037145447
233	0x3cdb2221	0.026749672
234	0x3da21b3a	0.07915349
235	0x3d3b754b	0.045766156
236	0x3d80c9f8	0.062885225
237	0xbe412208	-0.18860638
238	0x3e13d9de	0.14438578
239	0xbdd989a7	-0.10621958
240	0x3e0e0c35	0.13871844
241	0x3d7d6c78	0.061871022
242	0xbd7c6063	-0.06161536
243	0x3cde5dd3	0.027144348
244	0xbd7d7b88	-0.061885387
245	0xbe09145d	-0.13386674
246	0x3d8e71af	0.06955277
247	0x3d0ee5be	0.034887068
248	0xbdd987a2	-0.10621573
249	0xbccc59aa	-0.024945099
250	0x3d068245	0.03283908
251	0x3ae44b23	0.0017417412
252	0x3d658b0d	0.056040812
253	0x3d55e071	0.052215997
254	0x3d24546d	0.040119577
255	0xbc9a3aac	-0.018826805

lstm.weight_ih_l0_reverse f4 [512, 32]
0	0xbc8d9e54	-0.01728741
1	0xbd9a46e8	-0.075330555
2	0x3d8ad3fd	0.06778715
3	0x3d8835ce	0.066508874
4	0xbde2ca5a	-0.11073752
5	0x3d9993e3	0.0749891
6	0x3def773c	0.11692664
7	0xbc3c7a61	-0.011503787
8	0x3d1c21ea	0.03811828
9	0x3d9df0f6	0.07711975
10	0x3d4721c3	0.048616182
11	0xbe177e35	-0.14794238
12	0xbda32249	-0.07965524
13	0xbbf3e797	-0.007443379
14	0xbc81a7fc	-0.015827172
15	0xbd6cded5	-0.057829697
16	0xbdd7a362	-0.1052921
17	0x3df6d341	0.12052012
18	0x3e0d71fc	0.13813013
19	0xbcf1789c	-0.029476456
20	0xbdc7fe96	-0.09765355
21	0x3e09819a	0.13428345
22	0xbdb95267	-0.0904892
23	0xbcacd24c	-0.021096371
24	0xbb434484	-0.0029795477
25	0x3d93deab	0.07220205
26	0xbe10183d	-0.14071746
27	0xbd24221a	-0.040071584
28	0xbca020c9	-0.019546883
29	0xbd4d4868	-0.05011788
30	0xbd8a3534	-0.06748429
31	0xbbd39544	-0.006457003
32	0xbcda7c05	-0.026670465
33	0xbe974950	-0.2954812
34	0xbd922439	-0.07135815
35	0xbdbcd4d6	-0.09220283
36	0x3e8900ea	0.2675851
37	0x3dd6a612	0.10480894
38	0x3dc67f5c	0.096922606
39	0x3e592cd3	0.21208505
40	0xbe7eae17	-0.24871098
41	0x3e51d75d	0.20492311
42	0x3d33ab2a	0.043864407
43	0x3dd9a1d9	0.10626573
44	0xbe13d6e5	-0.14437445
45	0x3dc9f8de	0.09861921
46	0xbe71e966	-0.2362419
47	0x3da8c9f3	0.08241644
48	0x3e1dd3d7	0.15412842
49	0x3d4be70b	0.049780887
50	0xbe123a32	-0.14280012
51	0xbe604bfe	-0.21903989
52	0x3e098dfc	0.13433069
53	0x3e57b920	0.21066713
54	0x3d2b9c80	0.041897297
55	0x3c4d2a3b	0.012522276
56	0xbe08d16d	-0.1336114
57	0x3cab37ad	0.020900572
58	0xbe662e94	-0.22478706
59	0x3da49e11	0.08037961
60	0x3c2cc2a5	0.010544454
61	0xbdb1d61f	-0.086834185
62	0xbe490cfe	-0.19633862
63	0x3e857b6e	0.26070732
64	0xbe2dabe3	-0.16960101
65	0xbd5410cc	-0.05177383
66	0x3d973c62	0.07384564
67	0x3dbd534e	0.09244405
68	0x3b82d375	0.003992493
69	0xbd384e04	-0.044996276
70	0xbcf77f14	-0.030211963
71	0xbdf83706	-0.1211987
72	0xbd6c60d1	-0.05770952
73	0xbccad030	-0.024757475
74	0x3d5ba122	0.053620465
75	0x3db7dac8	0.08977276
76	0xbde2d960	-0.11076617
77	0xbd700c5e	-0.058605544
78	0x3e01b1df	0.12665509
79	0xbda26d06	-0.07930951
80	0x3dd3f01a	0.1034853
81	0x3dddcc58	0.10829991
82	0x3ddcbc29	0.10778076
83	0x3dc9d7c5	0.09855608
84	0xbdaa7821	-0.08323694
85	0x3bca6e91	0.0061777313
86	0xbd415a5e	-0.04720532
87	0xbddf6d35	-0.109095015
88	0xbd337ee9	-0.043822203
89	0xbc5dc089	-0.0135346735
90	0xbd1cfba4	-0.03832592
91	0x3ce7ae2c	0.028281294
92	0xbde177b8	-0.11009163
93	0xbc7fdcb6	-0.015616586
94	0x3da70a67	0.08156281
95	0x3ddd8c85	0.108178176
96	0xbd1eea10	-0.03879744
97	0xbc6a31f1	-0.0142941335
98	0x3dee3cab	0.11632665
99	0x3de1ab5c	0.11019012
100	0xbdc2bc96	-0.09508626
101	0x3be72ad0	0.007054664
102	0x3d7203c7	0.059085634
103	0xbdc914d4	-0.09818426
104	0x3dadc994	0.084857136
105	0x3ce495fc	0.02790355
106	0xbd906198	-0.070498645
107	0xbd84ca01	-0.06483842
108	0xbddd496b	-0.10805019
109	0xbd812e1a	-0.06307621
110	0x3ca6748c	0.020319246
111	0xbc5f85c7	-0.013642735
112	0xbd6c51cd	-0.0576952
113	0x3d84123d	0.06448791
114	0x3d9a7436	0.07541697
115	0x3c97dcaf	0.018537847
116	0x3e4e76e3	0.20162539
117	0xbdb52583	-0.088450454
118	0xbe2e2c4b	-0.17009084
119	0xbdcb4541	-0.099253185
120	0x3d8c7fc3	0.06860306
121	0x3d7a3a16	0.06109055
122	0xbd4ba552	-0.04971821
123	0x3d8e07a9	0.06935055
124	0xbd26f242	-0.04075838
125	0x3db3d56d	0.08780942
126	0xbc4f6643	-0.012658658
127	0x3de081ae	0.109622344
128	0x3e032d3b	0.12810223
129	0x3db8808e	0.09008895
130	0xbf10a02f	-0.5649442
131	0xbe003df7	-0.12523638
132	0xbe485911	-0.19565226
133	0xbe80ad58	-0.2513225
134	0x3ea468e8	0.32111287
135	0xbe69af4d	-0.22820778
136	0x3cc17014	0.023613013
137	0xbdc32237	-0.0952801
138	0xbe619b3e	-0.22031876
139	0xbd2c73d1	-0.04210264
140	0xbdf5707a	-0.11984344
141	0xbe0b2a18	-0.13590276
142	0x3dab6039	0.083679624
143	0xbc7cd18a	-0.015430817
144	0x3e8afdfb	0.27146897
145	0x3e89c539	0.2690828
146	0xbe537254	-0.20649081
147	0x3dd4d3bf	0.1039195
148	0x3e40ee4f	0.18840908
149	0x3ea2358c	0.31681478
150	0xbe29b3fb	-0.16572563
151	0x3e1482dd	0.14503045
152	0xbd18cd66	-0.03730526
153	0xbdd0119b	-0.10159608
154	0xbe5d0a97	-0.21586071
155	0x3e8e55a3	0.2779971
156	0xbe876f1d	-0.2645196
157	0x3d3d2d64	0.046185866
158	0xbe53213c	-0.20618147
159	0xbe8658db	-0.26239666
160	0xbd7400a4	-0.059570923
161	0xbe724ee0	-0.23662901
162	0xbdb93ba3	-0.09044578
163	0x3e4cf080	0.20013618
164	0x3e00f0ca	0.12591854
165	0xbcea2a08	-0.028584495
166	0x3cdbad53	0.026816046
167	0xbd9dffec	-0.07714829
168	0x3dd1c7df	0.102432005
169	0xbdd33f5a	-0.10314818
170	0xbd463cb0	-0.04839772
171	0x3ae84c20	0.0017722882
172	0x3bc8fda6	0.006133753
173	0xba7b274b	-0.0009580745
174	0x3c764fc7	0.015033669
175	0xbe0c91fe	-0.13727567
176	0xbd77367a	-0.060354687
177	0x3d51b12b	0.05119435
178	0x3d09387c	0.033501133
179	0x3e319c25	0.1734472
180	0xbd9789b7	-0.07399314
181	0x3c7f5bae	0.015585823
182	0x3ca3b3ea	0.01998325
183	0x3c3221e5	0.010872339
184	0xbd6cb506	-0.057789825
185	0xbc852ea2	-0.016257588
186	0xbc285799	-0.010274791
187	0x3e323d45	0.17406185
188	0xbc78dbfd	-0.015189168
189	0xbd84e394	-0.064887196
190	0xbeda40ff	-0.42627713
191	0xbd6e2a90	-0.05814606
192	0xbdbcc891	-0.092179425
193	0xbebb6c3c	-0.36606014
194	0xbdfad127	-0.12246924
195	0x3e1a4aff	0.15067671
196	0x3d0f5c8a	0.03500036
197	0x3e2460df	0.16052578
198	0x3efd81f7	0.49513218
199	0x3cdfc28b	0.027314445
200	0x3d8f1073	0.06985559
201	0x3eb61126	0.35559958
202	0xbe83d855	-0.25750986
203	0x3da0cccc	0.07851562
204	0xbe51eda5	-0.2050081
205	0xbcd29c45	-0.02570928
206	0xbe9746c3	-0.29546174
207	0xbc5261b5	-0.012840678
208	0xbdc574c4	-0.09641412
209	0x3eae623e	0.34059328
210	0xbdc7dffc	-0.097595185
211	0xbd67e579	-0.056615327
212	0x3ec11edc	0.37718856
213	0x3ecc8689	0.39946392
214	0x3cc998c9	0.024608986
215	0x3e85158d	0.25993004
216	0x3c98dfbd	0.018661374
217	0xbee57ce8	-0.44821858
218	0xbe813206	-0.25233477
219	0x3e6cec04	0.23136908
220	0xbdf73970	-0.12071502
221	0xbe136830	-0.14395213
222	0x3dfe0a60	0.124043226
223	0x3e1fbe10	0.15599847
224	0x3be99421	0.007128254
225	0xbdfc8563	-0.12330129
226	0xbc2f6339	-0.010704809
227	0x3de721d6	0.112857506
228	0xbdd4e8c6	-0.103959605
229	0x3e2bcbe7	0.16777001
230	0xbd1256e1	-0.035727385
231	0x3dadcdd6	0.08486526
232	0x3d692d3a	0.056927897
233	0x3db7476a	0.08949168
234	0xbdf97929	-0.121813126
235	0xbe471830	-0.1944282
236	0xbe65c2b7	-0.22437559
237	0x3c46fe8a	0.012145648
238	0x3ce0901d	0.027412469
239	0x3cee46e1	0.029086532
240	0x3d34a603	0.044103634
241	0x3d1e8014	0.038696364
242	0xbd788b0c	-0.06067948
243	0xbe1bf5f4	-0.15230542
244	0x3dae34cf	0.08506166
245	0xbdf62d54	-0.120203644
246	0x3d00ce9a	0.03144703
247	0xbc9ca104	-0.019119747
248	0x3e09c1cd	0.13452835
249	0x3b43740c	0.0029823808
250	0xbd536bd3	-0.0516165
251	0x3e3eced4	0.18633586
252	0xbb525381	-0.003209323
253	0x3c987d14	0.01861433
254	0xbe2c0071	-0.16797043
255	0x3e1d9ead	0.15392561

lstm.weight_hh_l0_reverse f4 [512, 128]
0	0xbd548bd2	-0.051891156
1	0xbcb230bd	-0.021751756
2	0x3d4dcef9	0.050246213
3	0x3d07bb85	0.033137817
4	0x3e2c8e90	0.16851258
5	0x3b2ca08b	0.0026340808
6	0xbc7820aa	-0.0151445065
7	0xbdc2521c	-0.09488317
8	0xbdcc9e77	-0.09991162
9	0x3cc84cfd	0.024450773
10	0xbd5c8aea	-0.053843416
11	0xbcf61e00	-0.030043602
12	0x3e61867d	0.2202396
13	0xbd0ac356	-0.033877693
14	0x3ce22e1c	0.027609877
15	0xbce01c55	-0.02735726
16	0xbc6332eb	-0.01386712
17	0xbcb9760a	-0.022639293
18	0xbcf49a6c	-0.02985879
19	0xbd4a6905	-0.04941656
20	0xbdeadfed	-0.11468492
21	0x3e2837be	0.16427514
22	0x3b5d9c62	0.0033815135
23	0xbe07a54c	-0.1324665
24	0x3c8c274c	0.017108582
25	0x3ca654ff	0.020304201
26	0xbd97cd82	-0.074122444
27	0x3dcd8a39	0.100361295
28	0x3cccc5b0	0.024996608
29	0xbdfea342	-0.12433483
30	0xbc08be9e	-0.008346228
31	0x3d692182	0.05691672
32	0x34078982	1.262288e-07
33	0x3e1e084c	0.15432853
34	0xbd855eaf	-0.065122
35	0x3ca00114	0.019531764
36	0x3d7239dc	0.05913721
37	0xbc4ee91c	-0.01262882
38	0xbd94e96a	-0.07271083
39	0xbd0d7a57	-0.0345405
40	0x3d70d200	0.05879402
41	0xbe02306f	-0.12713788
42	0x3dc4874b	0.095961176
43	0xbdf4740f	-0.11936199
44	0x3d8c30fa	0.06845279
45	0x3d9cf069	0.07663042
46	0xbd20df67	-0.039275553
47	0x3d71b4ec	0.05901043
48	0x3c2c1331	0.010502622
49	0xbbb46ef1	-0.0055063893
50	0x3dc63847	0.09678703
51	0x3dd0d2d7	0.101964645
52	0xbb93c919	-0.0045100567
53	0xb872b8da	-5.7869453e-05
54	0x3d57dfac	0.052703544
55	0xbddc5a2c	-0.107593864
56	0xbd001cf0	-0.031277597
57	0x3dd84362	0.10559727
58	0xbda78b12	-0.081808224
59	0xbd59f75a	-0.05321441
60	0xbd58d501	-0.05293751
61	0x3ce591ca	0.02802362
62	0x3e7eadbd	0.24870963
63	0x3dab663a	0.083691075
64	0x3aff1b4b	0.001946309
65	0xbae5eeb8	-0.0017542457
66	0xbd6ce87d	-0.057838906
67	0x3da0baba	0.07848115
68	0x3d96defc	0.0736675
69	0x3bed22fc	0.0072368365
70	0xbe088f06	-0.13335809
71	0xbdc93f42	-0.098265186
72	0xbe0168c9	-0.12637629
73	0xbdb76e21	-0.08956552
74	0x3d30d93a	0.043175913
75	0x3df5b7d2	0.119979516
76	0xbdacd5f6	-0.08439247
77	0xbdbee0f9	-0.09320254
78	0xbcef4a9f	-0.029210387
79	0xbd504b88	-0.050853282
80	0xbd961096	-0.07327382
81	0x3c31f561	0.010861726
82	0xbd957903	-0.07298472
83	0xbc73fceb	-0.014891843
84	0x3d3b51bf	0.045732256
85	0xba2cd8ae	-0.0006593567
86	0x3d662db0	0.056195915
87	0xbc85f518	-0.016352221
88	0xbe1f327c	-0.15546602
89	0x3d969271	0.0735215
90	0x3bce6e4b	0.006299769
91	0x3d267b21	0.04064477
92	0x3b3d1ff5	0.002885816
93	0xbc6e39b6	-0.014540127
94	0x3d9656b8	0.07340759
95	0xbd1b8461	-0.037968043
96	0x3e1b8a74	0.15189534
97	0xbc8c01d5	-0.017090717
98	0xbd361227	-0.044450905
99	0xbc891710	-0.01673463
100	0x3c7592ac	0.014988583
101	0x3da8c5de	0.08240865
102	0x3dd1f8fe	0.102525696
103	0xbe15ffc0	-0.14648342
104	0x3db4dc47	0.08831077
105	0xbdce3208	-0.100681365
106	0xbc022933	-0.007944393
107	0xbdc69178	-0.09695715
108	0x3debf503	0.11521342
109	0xbdcf5635	-0.101238646
110	0xbc6fcb8f	-0.0146359345
111	0xbddcb38c	-0.10776433
112	0x3d30a471	0.043125574
113	0x3d72d480	0.059284687
114	0x3d4c3014	0.04985054
115	0x3cee6697	0.029101653
116	0x3df55780	0.1197958
117	0xbdef2bb0	-0.116782546
118	0xbdab6dcf	-0.08370554
119	0x3d2fb537	0.04289743
120	0x3d752b94	0.059856012
121	0xbd688a43	-0.05677248
122	0x3c88dd5a	0.016707111
123	0x3b8b114a	0.0042440044
124	0xbd576d2e	-0.052594356
125	0xbe143ffc	-0.14477533
126	0x3da3aef0	0.07992351
127	0xbc79efb7	-0.015254906
128	0x3da7d87f	0.0819559
129	0xbd6f3a46	-0.058405183
130	0xbdec756a	-0.115458325
131	0xbd1392d0	-0.036028683
132	0xbd75be3c	-0.059995875
133	0xbe06d160	-0.13165808
134	0x3e4304b3	0.19044761
135	0xbdc8b4af	-0.09800088
136	0xbe1d125e	-0.15339038
137	0x3e85ca77	0.2613103
138	0xbe0556e5	-0.13021429
139	0x3c1dbeae	0.009627981
140	0x3db7a69b	0.08967324
141	0xbd98daea	-0.074636295
142	0x3e86e8f8	0.26349616
143	0x3deaaaf8	0.11458391
144	0xbd7afea6	-0.061278008
145	0xbd3d524a	-0.046221055
146	0xbdacfa4e	-0.08446179
147	0xbe3e01e4	-0.18555409
148	0x3d9e0543	0.07715847
149	0xbcc9dfe8	-0.0246429
150	0x3e7dca6c	0.24784249
151	0xbe710d6f	-0.23540281
152	0xbe3606f4	-0.1777609
153	0x3ce45d78	0.0278766
154	0x3e2008c5	0.15628345
155	0x3e4ff457	0.20308052
156	0xbccd327e	-0.02504849
157	0xbc7c2307	-0.015389211
158	0x3df14efd	0.11782644
159	0x3e58b61d	0.2116322
160	0x3e68733f	0.22700213
161	0x3e1d3081	0.15350534
162	0xbdfff621	-0.12498117
163	0xbdfdb75a	-0.12388487
164	0xbe0de5c6	-0.13857183
165	0x3d2819df	0.041040298
166	0xbd0e4948	-0.034737855
167	0xbde36b24	-0.1110442
168	0x3d8abde6	0.067745015
169	0xbe258e5f	-0.16167592
170	0xbd4e87fd	-0.050422657
171	0xbc39d7b1	-0.011342929
172	0x3aad9a29	0.0013244796
173	0xbb45101f	-0.0030069423
174	0xbd67a716	-0.05655583
175	0x3dc01a5c	0.09380028
176	0x3c7bc22f	0.015366121
177	0xbe18ab17	-0.14909016
178	0x3cd98893	0.026554381
179	0x3cdff60a	0.027339
180	0x3d9dae07	0.07699209
181	0x3db7a687	0.089673094
182	0x3caf3a56	0.021390121
183	0xbdd3635a	-0.10321684
184	0xbd08813e	-0.03332638
185	0x3d63e55d	0.05563866
186	0xbddd62d2	-0.10809864
187	0x3c12bc51	0.008956031
188	0x3b915c37	0.0044360417
189	0x3d826b70	0.06368148
190	0x3e80a757	0.2512767
191	0x3da1d029	0.079010315
192	0x3e01bb8d	0.12669201
193	0xbd101186	-0.03517296
194	0x3c3c4015	0.011489888
195	0x3c53d0f2	0.012928234
196	0x3e338e8c	0.17534846
197	0xbd1f2122	-0.038849957
198	0xbcd438df	-0.025906025
199	0xbda2ee88	-0.079556525
200	0xbd413f78	-0.04717967
201	0xbe8fa944	-0.28058827
202	0x3e409606	0.1880723
203	0x3e509897	0.20370708
204	0xbd7b1f5c	-0.061309204
205	0xbd85a223	-0.06525066
206	0x3e3e9d03	0.18614583
207	0xbd9d25d2	-0.07673229
208	0xbd887289	-0.06662471
209	0x3c6ff4ed	0.014645797
210	0x38d61ef2	0.00010210079
211	0x3dcd7ae6	0.10033207
212	0xbdf9ae14	-0.12191406
213	0x3d21dc78	0.039516896
214	0x3ecad345	0.3961431
215	0xbd851eb2	-0.06499995
216	0xbe8df951	-0.27729276
217	0x3c2e8ca2	0.010653647
218	0xbd438e3f	-0.04774308
219	0x3db42b56	0.08797328
220	0x3e06b6fb	0.13155739
221	0xbf15463b	-0.5831029
222	0x3de506b5	0.1118292
223	0x3d94b1d7	0.07260483
224	0x3e722192	0.23645619
225	0x3e817b58	0.25289416
226	0x3ce1d78b	0.0275686
227	0x3db66ee0	0.089078665
228	0x3db99dd6	0.09063308
229	0xbd8911ec	-0.066928715
230	0x3d532004	0.051544204
231	0xbd5311eb	-0.05153076
232	0x3e04f684	0.12984663
233	0xbd8473d9	-0.06467409
234	0x3cfcfc75	0.0308821
235	0x3cb34a4b	0.021886012
236	0xbcdbe043	-0.026840335
237	0xbe99145c	-0.29898345
238	0x3d239b42	0.039942987
239	0xbda6f515	-0.081522144
240	0x3df78b61	0.12087131
241	0x3e98ac62	0.29819018
242	0x3e0f240f	0.13978599
243	0x3dd06c10	0.10176861
244	0xbd4e16c0	-0.050314665
245	0xbe820f04	-0.2540208
246	0xbd7c51d2	-0.061601467
247	0xbdc4b82b	-0.0960544
248	0x3e4b6e78	0.19866359
249	0xbe058472	-0.13038805
250	0x3ea250dd	0.3170232
251	0x3cd46523	0.025927132
252	0x3d0008aa	0.031258263
253	0xbed2ba89	-0.4115794
254	0x3ce66d82	0.02812839
255	0xbe7700d9	-0.24121417
