runs/lstm_uncentered/lstm_uncentered_javascript.pt (torch, 702149 bytes, 10 tensors)

emb.weight f4 [256, 32]
00000000: b473 03bf 01c8 8cbf 1833 e1bf 1e58 3a3f
00000010: f95e 853f 6c84 30bd 76fa a4be c1c5 89bf
00000020: e6ad 7abe f56d fdbe b0e8 773d 32c2 f03e
00000030: a7c9 adbc 9755 54bf 5fe4 9dbf 5c69 a83f
00000040: b4ea 13be 0696 03bf f463 a33e 5248 263f
00000050: b220 dc3d 5886 873e 8791 51bf 5859 cebe
00000060: 8d74 eabf ac33 9f3e 09d6 ae3e abc3 3fbf
00000070: e2fd 823f fb81 303f 5ce3 543f c0f1 483f
00000080: cc7e 91bf 7551 e8be 704e 573f dfb2 d7bf
00000090: 36b2 75be 61b4 9fbe 8e2b 14c0 e089 023f
000000a0: 97a2 b8be 9d37 873c 1b61 58bf 3ba0 43bf
000000b0: 4037 53be 2d89 8f3f 7115 e53f a2f3 9cbd
000000c0: 65ab a1bd 6b05 40bf 222e 023f 244f 7b3e
000000d0: e38c f2be f0d7 06bf b952 893f 3ed6 e73f
000000e0: 8089 a1bd 4c0b 4fbf 1b4d 193f 7f0c 60be
000000f0: 1993 0bbe 8fa5 323d abe7 df3e 027e 8cbe
00000100: b43d 95bf f5e4 2cbf b4f8 1f3f 3be0 e0be
00000110: 088a debf a314 2d3e 7333 01c0 317a 3ebf
00000120: a204 0a3f 439d 96be 2f2c 88bf 1cdd b5bf
00000130: 264f 02bf 0687 73bf a6f6 d5bf af76 0cc0
00000140: a69a 8abe 035d a63e 7fe5 87bf eaf0 b43e
00000150: be24 4abe df67 bcbe f0c5 bf3d 8435 d6bd
00000160: a7fb f23f 86db 96be 8065 143f ec80 953e
00000170: 7b5f a8bf 0e0e a73f 6140 443f 4b6a a33f
00000180: 09bc 7ebf f5bb 40bf 2a6e 513f 8a2b 10c0
00000190: c04b e93d e1a8 97bf ece0 913d e0f1 66bf
000001a0: 3567 7bbd 830e b43f 4d6c dfbe 9e7e 88be
000001b0: 31cc 80bf e522 dfbf 340c 203f fefc 8d3f
000001c0: 3330 ecbf 547e b1bd cf8c 213f 6b3d 06bf
000001d0: 8e6b 373f 2193 193f 930f e6bf 54a6 ccbf
000001e0: 538f 14bf 6f31 1abf 5fc2 7bbe 4a56 43bf
000001f0: 3a06 893f ff6b c1bf b7d1 273f 7af3 933e
00000200: efc2 f33e 8deb b33d f3c2 a9bf 4874 5f3f
00000210: 3271 f1be 797d 9c3f 124c 083f c5d9 e3be
00000220: 2640 f93e 5765 0940 8035 7a3d 28d1 92bf
00000230: fc45 cfbf f3ca a5be 6c93 a8bf c821 acbe
00000240: 8bc9 4bbd 55e9 babe fb6b 733e f828 d33f
00000250: debc 11bf 348b d93f 7b73 413e 2778 8dbf
00000260: 6487 e93d f215 7f3e 82b2 8cbe d57a 6f3f
00000270: 21b2 00bf 66cd d6be 9d61 bebe d248 78be
00000280: 0c63 ccbf 31a9 4f3e 3486 3abf 6b7e bfbe
00000290: 120f 81be b53c d23f c72d 183f 188a 4ebf
000002a0: a765 873b 9867 17be 1913 b4bd e2a6 b13d
000002b0: c50a 99bf 37ec 763f 3efc 18bf 6385 64be
000002c0: 1814 e83e e6c7 00bf df87 23bf 9a81 313e
000002d0: eb30 90bf de40 ac3e 3fbc 0c3e 54dc 853f
000002e0: e269 2ebf f85a 8bbf da81 883f c48a 803f
000002f0: 7f2c 03bf 34e5 22bf 9419 883f 15aa 863f
00000300: 8ba2 c8be 2591 f93d 0188 e4bf ec9a b0be
00000310: 8649 4bbf 2edd c33f 0aa3 5e3e a417 bdbf
00000320: 1002 90bf d805 cb3e 43fc 82be b9e9 b83f
00000330: c480 90bd 1a47 0f3f da5e d73f ff66 e63e
00000340: d1a5 643e 02e8 58bd fb78 a4bf 8f60 883f
00000350: 1c76 85bf c4f9 a8bf 7f18 e6be 92a1 62bd
00000360: ff4a 60bf 4ebe d9be 8a45 db3b 553c 0bbe
00000370: e632 d53d c337 01bf 9be5 a83f a9cf 1bbe
00000380: d7fd a7be d977 3e3f e21c 39bf 3720 e73e
00000390: a0c1 be3e cc51 36bf 32dd 31bf 2550 b93f
000003a0: 08f1 593d 11a5 4cbd 18f8 08c0 7941 debf
000003b0: f6f6 13bf ca5d 833f b0b4 5fbf 8024 81bf
000003c0: 3964 533e a209 debc 7d67 76be 79e7 083e
000003d0: 4f0a 99bf d5a7 1a3f 4d53 25bc a0d3 9f3f
000003e0: 43a3 be3f 2454 eebf 72e3 c5bf 4f3d 953d
000003f0: e015 e0bf ef7b 26bf 6f86 06be 2624 babf
-0.51348424 -1.0998536 -1.7593718 0.72790706 1.0419608 -0.043095037 -0.32222337 -1.0763475
-0.244804 -0.49497953 0.060524642 0.4702316 -0.02121432 -0.829431 -1.2335318 1.3157153
-0.14445001 -0.5140079 0.31912196 0.649541 0.10748424 0.26469684 -0.8186268 -0.4030254
-1.8316818 0.3109411 0.3414767 -0.7490794 1.0233729 0.68948334 0.8315942 0.7849388
-1.136682 -0.45374647 0.8410406 -1.6851462 -0.23993763 -0.31192306 -2.3151584 0.5099163
-0.36061546 0.01650601 -0.8452317 -0.7641637 -0.20626545 1.1213738 1.7897168 -0.07663657
-0.07894019 -0.7500827 0.50851643 0.24541909 -0.47373113 -0.52673244 1.072837 1.8112257
-0.07887554 -0.8087661 0.5988328 -0.21879767 -0.13630332 0.04361492 0.43731436 -0.27439886
-1.1659455 -0.6753686 0.62488866 -0.43921074 -1.7385874 0.16902404 -2.0187652 -0.744052
0.5391332 -0.29416856 -1.0638484 -1.4208102 -0.5090202 -0.95127904 -1.6715896 -2.1947439
-0.27071112 0.32492837 -1.0616912 0.35340053 -0.19740579 -0.36797997 0.093639255 -0.10459426
1.8983048 -0.29464358 0.57967377 0.29199922 -1.3154138 1.3051164 0.76660734 1.2766813
-0.9950567 -0.752868 0.8180872 -2.2526574 0.11391401 -1.1848413 0.071229786 -0.9021282
-0.061377723 1.4066929 -0.43637314 -0.266591 -1.0062314 -1.7432524 0.6251862 1.1092832
-1.8452209 -0.08666673 0.6310548 -0.52437466 0.7164849 0.59990126 -1.7973503 -1.5988259
-0.58031195 -0.6023168 -0.24585865 -0.7630354 1.0705025 -1.5111083 0.65554374 0.28896695
0.4760966 0.08785162 -1.3262619 0.87286806 -0.47156674 1.2225791 0.53241074 -0.44502082
0.48681754 2.1468103 0.061086178 -1.147008 -1.6193233 -0.323814 -1.316999 -0.33619523
-0.049752753 -0.36506143 0.2377166 1.6496878 -0.56928813 1.6995606 0.18891709 -1.1052293
0.11402777 0.24910715 -0.2747994 0.935468 -0.50271803 -0.41953582 -0.37183848 -0.24246529
-1.5967727 0.20279385 -0.7286103 -0.37401137 -0.2520681 1.6424776 0.5944485 -0.80679464
0.004131991 -0.14785612 -0.08792705 0.086744085 -1.1956412 0.96454185 -0.5975989 -0.22316508
0.4532783 -0.5030502 -0.638792 0.17334595 -1.1264929 0.3364324 0.13743685 1.0457864
-0.68130314 -1.0887136 1.0664628 1.0042348 -0.5123977 -0.63630986 1.0632806 1.0520655
-0.3918651 0.12185887 -1.7854005 -0.34493196 -0.7940906 1.5301874 0.21741882 -1.477284
-1.125063 0.39652896 -0.25583085 1.4446326 -0.0705581 0.5596787 1.6825821 0.45000455
0.22328879 -0.052955635 -1.284942 1.0654467 -1.0426669 -1.3201222 -0.44940564 -0.055329867
-0.87614435 -0.42528003 0.0066916393 -0.13597234 0.10410099 -0.5047571 1.319507 -0.15215935
-0.32810852 0.74401623 -0.72309697 0.45141765 0.372571 -0.7121856 -0.6947814 1.4477583
0.05320838 -0.049962107 -2.1401424 -1.7363731 -0.5779871 1.0262997 -0.8738508 -1.0089264
0.206437 -0.027104203 -0.24062915 0.1336955 -1.1956271 0.6041234 -0.010090661 1.2486458
1.4893574 -1.8619428 -1.5460036 0.07287084 -1.7506676 -0.6503286 -0.1313722 -1.4542282

lstm.weight_ih_l0 f4 [512, 32]
00000000: df0e 16bc ba5e a1bd c854 e0bc 650a 65bd
00000010: 5ee6 09bd 227d b2bd 5508 db3d eb5a 97bd
00000020: 1654 b3bc 8c8f 79bc 3324 88bd 0285 8fbd
00000030: a72f f8bb d9a9 ebbb 5fdc 233d 2864 773d
00000040: 3193 913a 9cd5 13bc 61c6 4cbd 0cc1 c63d
00000050: aab9 b33c 842f 233d 5cf5 383d 7ab1 b5bc
00000060: c66f f7bc acd3 ad3d f419 833d b492 87bd
00000070: 70d2 ecbd 1059 ecbd e43c 38bc fcae 98bd
00000080: 02c7 bc3b 2be4 c93c 914d 3abc 128f 743d
00000090: 3d66 4abd 0554 afbd bf30 0a3c 6b72 d23c
000000a0: 9754 ed3d c5c1 03bb c8ed 633d dc27 3a3c
000000b0: 1324 63bd 8082 3d3d 1922 c7bd 713f 68bd
000000c0: d2da 983d ffb2 b8bc a045 383c f729 67bd
000000d0: 2ed9 af3d 06bf c43c ad89 6f3d 6f9c 94bd
000000e0: 9127 843b 0cb1 19bd 9f41 f2bc e884 d1bd
000000f0: 4469 5bbd 6add 95bd 6941 7abd 1df0 363d
00000100: f33b 293d 6b6e 06bd 52e8 41bd 6767 96bd
00000110: 6baf 9c3d 8e22 e2bc ed78 5abb ea4b 783d
00000120: b107 b1bd e3a0 263d c5d6 a6bb 8027 16bd
00000130: 904f aebb eba0 2c3d 989c bcbd d339 bd3d
00000140: 43e3 c53d 0132 f93d 6b0d de3c b445 263c
00000150: e623 bc3d 5e55 033d e47e 47bd 8c67 473c
00000160: fc6a 01bd 9dd3 1cbc 2d0d c9bc 8951 88bd
00000170: f80b 133c 1d85 80bc 4711 143d 3f1e 533b
00000180: 4297 683a 043c f63d 6e62 713c 9330 bebd
00000190: 72bc 3dbd b0b9 eebd cc09 313d ef10 25bd
000001a0: 3524 f33d 1715 753c f549 ce3b 2643 fdbd
000001b0: f2c9 f43c ac98 b7bc 8f05 e7bc 3f8d 8ebd
000001c0: f8da 37bd ac47 80bd e62f 3bbd f7e8 32bd
000001d0: 336b 413d 25a4 063d 7218 16bd 2218 203d
000001e0: 8da0 d93d 02f5 123d 6ad3 463d 123d 4dbd
000001f0: 7c74 4ebd 86f8 b13c c14c 1abd 0d82 e3bd
00000200: 2b8a 113d 8146 023d 29bf 8d3d d7eb 4639
00000210: 4d17 ed3c f67e ae3b b929 a63c 19f3 7d3c
00000220: 1093 5f3d a2f9 5d3b c1f2 b5ba d4ec 843d
00000230: 9f57 963c e3ae d8b9 fd19 09bd 047b 2abd
00000240: a604 eb3d b987 81bd 0b16 1ebd d8b5 83bd
00000250: 8ff4 c53d f7a5 b13c 7d05 e83d 1140 72bd
00000260: 2544 893d 0a57 83bd 465b 7e3d a7bb 68bc
00000270: b8ad da3d 0a03 e5bb 8e9e 1abd 43b9 763d
00000280: 57b6 3dbc 220b e83d 9385 d0bd ea35 9fbd
00000290: ffdd 84bc 6741 b1bd fa7f c93d 928f 32bd
000002a0: 8909 2dbd 6ed8 e0bd ec60 a03d 8c38 513d
000002b0: 5c5e 1d3d 9743 99bd 6801 76bc 2780 daba
000002c0: 3c12 c33d 773d 213d badf 3dbd f09c 2e3d
000002d0: 502b ca3d addd f1bc f240 60bd 7257 02be
000002e0: 36f1 653c 53df 5dbd 3762 db3c c43f a4bd
000002f0: c346 c03b bd8b de3d c3cc 32bc 0b18 07bd
00000300: 4db3 173d 8b62 1d3c a2ab 023d 9e8a 953c
00000310: 280a 533d 2eae 8c3c ec9d 823d 32cd 023e
00000320: 8c5c 6bbd fce2 a2bd fd9d f83d 82ce a83d
00000330: 473e 06bd 88df a6bc 7ec2 10bc c954 493d
00000340: 519d 94bc d2b3 833d f740 a03d 1cb7 4abd
00000350: e893 1f3b 72f5 3fbd db5d de3d 42d5 e23a
00000360: 2f37 933d d394 dabc 9d0b a13d c6cc 553d
00000370: a630 0d3e cbc0 babc 3d94 7d3c d5e7 83bd
00000380: 37d5 4b3d 7540 b53d 2d21 063b 6634 8e3d
00000390: 13ad 62bd 5de6 f6bd 41f7 41bd 44fe ba3d
000003a0: 7cae 9cbd 0cb7 4d3d dba6 db3d c0ad a5bc
000003b0: f102 713d a4e2 27bd e9e9 353d ba9a b93d
000003c0: ca21 b3bc b46e 043d d2b3 c5bd cc48 93bb
000003d0: 7dab b93d 2d43 a7bd 4e3a 0b3d a8e4 0f3d
000003e0: e9ec 1dbd 0832 b3bd a608 cd3d 3cc8 e1bd
000003f0: 050e e0bc b306 383d 8474 15bd bc98 8cbc
-0.009158819 -0.07879396 -0.027384177 -0.055918116 -0.03366696 -0.087152734 0.106949486 -0.07390388
-0.021890681 -0.015231978 -0.066475295 -0.07007791 -0.00757404 -0.0071918783 0.040005084 0.06039825
0.0011106489 -0.009023096 -0.049993876 0.097047895 0.021939117 0.039840236 0.045155868 -0.022179354
-0.030204665 0.08487639 0.064014345 -0.06619778 -0.11563575 -0.11540425 -0.011244986 -0.074552506
0.0057610283 0.024644932 -0.011371032 0.059706755 -0.04941391 -0.08560947 0.008434474 0.025689324
0.115884 -0.002010451 0.055646688 0.011362042 -0.055454325 0.046267033 -0.097233005 -0.056701127
0.07463612 -0.02254629 0.011247069 -0.056436505 0.085863456 0.024016868 0.058480907 -0.072564
0.004033037 -0.03752236 -0.029572306 -0.10230428 -0.053567186 -0.07317622 -0.061097536 0.044662584
0.041316938 -0.032820147 -0.0473407 -0.07343941 0.07650646 -0.027604368 -0.0033336238 0.060619272
-0.08644045 0.040680777 -0.0050915205 -0.036658764 -0.005319543 0.04214565 -0.092095554 0.09239545
0.09662487 0.121677406 0.027106008 0.010148454 0.091865346 0.032063834 -0.048704997 0.012170684
-0.03159617 -0.009571937 -0.024542416 -0.066561766 0.008975022 -0.015688473 0.03614929 0.0032214073
0.0008872637 0.12023166 0.01473294 -0.092866085 -0.046322294 -0.11656511 0.043222234 -0.040299352
0.1187214 0.0149586415 0.0062954375 -0.12366323 0.029881451 -0.022411667 -0.028200893 -0.06960534
-0.04488656 -0.0626367 -0.045699976 -0.043679204 0.047221374 0.032871384 -0.036644407 0.039085515
0.10626326 0.03587819 0.048541464 -0.05010707 -0.050404057 0.02172495 -0.037670854 -0.111087896
0.035532158 0.03180552 0.069212265 0.00018970609 0.028941775 0.0053251935 0.020283567 0.0154998535
0.05458361 0.0033870717 -0.001388155 0.06490484 0.018352328 -0.0004132903 -0.03347205 -0.041621223
0.11475496 -0.06324715 -0.03859524 -0.06431168 0.096657865 0.021685584 0.11329172 -0.05914313
0.06702451 -0.06413086 0.062098764 -0.014204896 0.106776655 -0.0069888877 -0.037748866 0.060235273
-0.011579118 0.113302484 -0.10181727 -0.07773955 -0.016219137 -0.08655053 0.09838863 -0.04359395
-0.04224542 -0.10978781 0.078309864 0.051079318 0.038420066 -0.07483595 -0.015014984 -0.0016670272
0.09524962 0.039365258 -0.04635594 0.042630136 0.098715425 -0.029524649 -0.054749437 -0.1272867
0.01403456 -0.054168057 0.02678023 -0.08019975 0.0058678105 0.10866497 -0.010913077 -0.032981914
0.03703623 0.009606014 0.031901963 0.018254574 0.051523358 0.0171729 0.063777775 0.12773588
-0.057461306 -0.0795345 0.12139509 0.08242513 -0.032774236 -0.02037026 -0.008835433 0.049153123
-0.01814142 0.064307824 0.07824891 -0.049491033 0.0024349634 -0.046864934 0.10857745 0.0017305987
0.0718826 -0.026682293 0.07863543 0.05219724 0.13788089 -0.022797009 0.015477237 -0.06440703
0.049763884 0.08850185 0.0020466552 0.06943588 -0.055340838 -0.12055657 -0.04735494 0.091305286
-0.07650468 0.050223395 0.107251845 -0.020224452 0.058840696 -0.040987626 0.044412527 0.09062715
-0.021866698 0.032332137 -0.09653439 -0.004494762 0.09065912 -0.0816711 0.03399115 0.035130173
-0.038556013 -0.08749777 0.10011415 -0.1102452 -0.027350435 0.044928264 -0.03648807 -0.017162673

lstm.weight_hh_l0 f4 [512, 128]
00000000: 4244 9abd 8c3a a13c 29ca be3c a642 8cbd
00000010: 91cc 27bd f11f 36bd bb43 db3c e7c2 81bd
00000020: 1425 1e3c 93ff 123d 7f42 4fbd ee6f 8b3c
00000030: 7a9d 8dbd da78 e0bd 3fe2 e2bc c3db 48bc
00000040: 4742 843d a7c9 b6bd 37fe 7ebd 0d71 b73d
00000050: 62c4 54bd 5e07 3abc 05fd 66bd c0f6 13be
00000060: 6dbe 55bd 9663 c93c 8695 9fbc 7420 593c
00000070: 6988 88bb 38b2 84bd d968 48bd a068 44be
00000080: 7c05 18bd 9680 8f3d cf94 e6bc d76f cfbc
00000090: c909 f33d c347 7fbd 2e77 f23d d508 9bbb
000000a0: 0894 8fbd 3b75 7ebd c822 b9bd 822d b53c
000000b0: 0feb 8e3d e9f8 8a3d d0f9 eaba d21b 69bd
000000c0: b029 e4bc cee2 1c3d 36ea b0bd 9ccf 11bc
000000d0: 7496 af3d 95f6 3ebd b059 083c 41bd b2bc
000000e0: 5fee 84bd 19b0 39bd 4de1 b43b fb9c 9e3d
000000f0: 9965 3e3d 4a22 60bd b7d3 c5bc ce71 d0bd
00000100: dda2 7fbd aa19 623b 4ea2 253c 8a14 84bd
00000110: a1d0 8dbd 6c60 bb3d d40d 753d 74b1 473d
00000120: ab14 44bd 5ba7 6bbd 17fa d73a 9ef0 9ebd
00000130: 3cdd 07bd d446 533c e4d6 04bd 6d83 cdbd
00000140: 5c11 a8bd 7c52 ea3d fc7f 3cbd f9dc 133c
00000150: c015 35bd 9d38 87bb cf32 603d 2bae 683c
00000160: 7637 af3d 1153 24bd 62e3 853d 52fe 52bd
00000170: 246c 693d 56f8 a5bb 7cb1 1ebd b16d d0bb
00000180: 89c3 a73b 9081 223e 9e94 1a3d c527 1b3d
00000190: 95d5 9dbc 27bb 9a3c 945d 933d 1d50 9bbc
000001a0: 5792 12bd 3cea f23c 2994 363c e79b ecbc
000001b0: 0f9e 8abd 58ea 80bd 1e63 05bd 065e 343c
000001c0: c38c 33bd c321 8d3d 6119 fbbc 4e2f eeba
000001d0: 4669 6bbd 691a 9fbd fb6c 913d 2f79 833d
000001e0: e32b 03bd e03c 3cbd f713 d1bd f736 c43d
000001f0: 3e52 ea3d 2775 a23d b615 c3bd 4ca6 f8bc
00000200: 23c2 813c 282c bcbd f015 9c3d e327 7ebb
00000210: bc82 573d 0113 e33d cbc3 06bd 8081 59bc
00000220: e5f9 093d e850 2b3d 6bf0 ad3d 9446 2abd
00000230: 5ea6 b9bd 8b2f 353d 27c6 8c3b 02d8 a23d
00000240: 25fc d13c d2ed 753d 4103 ad3d f0b0 6cbc
00000250: 2d04 c43d 0a8c 5b3d 9f41 a5bc 1c9f f5bc
00000260: a680 8ebd 1b3a c43d 7be7 643d 31c8 df3d
00000270: ebce ac3c a91c b6bb 82df aa3c 1ce7 6d3d
00000280: 6936 343d 6202 973c 8fef cebd f3b6 d33d
00000290: cb9a 193a 3fb8 203d a9f7 b23d a4be 2d3c
000002a0: 702e 01bd fa1e 38bd 1af3 bebd 215a 0e3c
000002b0: 11d7 66bc 6ef1 5dbd 9e1a 01bc 0f82 70bd
000002c0: 6e65 4ebc 987c 1c3c 18e2 f73c 6cf8 c83c
000002d0: 9988 643d 457b 693d e8a3 533d 7811 83bd
000002e0: 7daf 5d3d 5735 1b3d fe31 ae3d 897e 1cbd
000002f0: e909 933c 459c 50bc 5172 17bd 215c dcbd
00000300: 9ba2 fa3c 662e 56bd 71c1 0abd c05b 883d
00000310: 485a b7bd 9510 59bd ad21 b1bd 1538 1c3c
00000320: e4d1 82bd df4e 1e3c 51f1 60bd f0cf 68bd
00000330: 7207 833d 8c3d 9a3d f4b2 a2bc e548 cfbd
00000340: 4745 07bd 47a2 bfbc 13a4 a9bc fd22 8a3c
00000350: f97d d2bd d9fd 853c 190f 9b3d 8bba 693d
00000360: 9680 fa3d 747b 123d 9ae8 e4bc 16f2 843d
00000370: 7651 a83c cf0e 7bbd e79f f0bd 000c 1c3d
00000380: d4d6 bd3c 5033 b83c 84fb 643d fced 073c
00000390: 87e4 51bd 5c3f d3bd e8b2 963c 44db d7bc
000003a0: d196 353d 3ee1 d9bc cee2 a1bc 38eb a7bd
000003b0: 0d54 7f3d 9017 543d 2b9f 91bc fe99 84bd
000003c0: 41ae 84bd c457 89bd 73fa c23d 75b2 e33d
000003d0: f803 6d3d d6c0 693d 6e59 933b bb80 dfbc
000003e0: 9269 c0bc d55e 143d 506a 89bd 9423 b73d
000003f0: cf3e f3bc 38c4 f13d a6f1 a0bd 786a bb3b
-0.075325504 0.019681238 0.023289757 -0.0684865 -0.040966574 -0.044464055 0.026765695 -0.06336003
0.009652395 0.035888266 -0.050600525 0.017021146 -0.06914802 -0.109605506 -0.027695773 -0.0122594265
0.06457954 -0.08925181 -0.062254157 0.089571096 -0.051945098 -0.011354296 -0.056393642 -0.14449596
-0.052183557 0.02458362 -0.019480478 0.013252366 -0.004166652 -0.06479305 -0.048928116 -0.19180536
-0.037114605 0.07006948 -0.02814713 -0.025321884 0.11867101 -0.062324297 0.11839138 -0.0047312775
-0.070106566 -0.06212352 -0.09039837 0.022116426 0.069784276 0.06785757 -0.0017927233 -0.056911297
-0.02785191 0.038302235 -0.08638422 -0.008899596 0.085736185 -0.046621878 0.008322164 -0.021818759
-0.06490778 -0.045333955 0.005520022 0.077447854 0.04648361 -0.0547202 -0.024148805 -0.101779565
-0.062411178 0.003450016 0.010109497 -0.0644923 -0.069245584 0.091492504 0.05982764 0.048753217
-0.047871273 -0.05753265 0.0016477731 -0.07760738 -0.03316997 0.012895305 -0.0324315 -0.10034833
-0.08206436 0.11441514 -0.046020493 0.009024852 -0.044210196 -0.004126622 0.054735955 0.014201681
0.085555 -0.04011828 0.065375105 -0.05151207 0.056987897 -0.0050650043 -0.03874348 -0.0063607325
0.005119745 0.15869737 0.03773939 0.037879724 -0.019266883 0.01888807 0.07195583 -0.0189591
-0.03578409 0.029652707 0.011143723 -0.028882934 -0.067684285 -0.062946975 -0.03256523 0.011008745
-0.043835413 0.06891205 -0.03065175 -0.0018172057 -0.057473443 -0.07768709 0.071008645 0.06419598
-0.032024276 -0.045956492 -0.10208886 0.09580796 0.11441468 0.07932501 -0.095256254 -0.030352734
0.015839642 -0.0918811 0.07621372 -0.0038781099 0.052614912 0.11087609 -0.032901566 -0.013275504
0.033685584 0.041825205 0.08493122 -0.041571215 -0.09064935 0.044234794 0.0042960825 0.079513565
0.025632927 0.060041256 0.08447886 -0.014446482 0.09571109 0.05360035 -0.020172892 -0.029983096
-0.069581315 0.09581395 0.05588482 0.10926855 0.02109476 -0.005557616 0.02085853 0.05808173
0.043997202 0.018433753 -0.10104286 0.10337629 0.0005859553 0.03923821 0.08738644 0.010604534
-0.031538427 -0.044951417 -0.09323712 0.008688481 -0.014089362 -0.054185323 -0.007879881 -0.058717784
-0.012597425 0.00955119 0.030259177 0.02453252 0.055794332 0.057002325 0.051669985 -0.06399816
0.054122437 0.037892666 0.08505629 -0.03820661 0.017949061 -0.01273257 -0.036974255 -0.1075976
0.030595114 -0.052290343 -0.033875886 0.06658125 -0.08952767 -0.05299433 -0.08649001 0.009534855
-0.0638769 0.009662359 -0.054917637 -0.05683893 0.063979045 0.075312704 -0.019860722 -0.101213254
-0.033025052 -0.02339281 -0.02070812 0.016862387 -0.102779336 0.016356396 0.07571239 0.057062667
0.12231557 0.035762265 -0.027942944 0.06491487 0.020546656 -0.06129342 -0.11749249 0.03809738
0.023173727 0.022485405 0.055903926 0.008296486 -0.05124333 -0.10314819 0.018395856 -0.026349671
0.044333283 -0.026596662 -0.01976147 -0.08199161 0.062336016 0.051780283 -0.017776093 -0.06474684
-0.06478549 -0.06706193 0.09520426 0.11118022 0.057865113 0.05706867 0.004496745 -0.027283063
-0.02348784 0.03622325 -0.067097306 0.08942333 -0.029693035 0.11805004 -0.07858591 0.005719479

lstm.bias_ih_l0 f4 [512]
00000000: 76f1 41bd dad4 6e3b 4f68 df3d c452 e13d
00000010: 6905 6b3d f9cb ffbc b3b5 5c3d c7dd 163c
00000020: 432e 20bd b58d f73d 42c1 4639 f3f7 28bc
00000030: 2d5e eb3b a185 a83d b9cf fcbb 0f32 ca3d
00000040: e9a1 6b3d ce29 893d 70d4 8c3d 698b a93d
00000050: 14ef 3e3d d6b3 4ebd 8449 14bd 6ddc 553a
00000060: 586d 3f3d 7d36 753d ffb3 463d 323e 553d
00000070: 5a57 e13d 57ba 6d3d 9d98 eeba 2250 e23d
00000080: 66c8 af3c 25de ed3c c695 8d3d 8adf c53d
00000090: 9e80 eabc 7afd 0bbd c1dc 353d be6a b4bc
000000a0: 7d0f cc3c 3158 7d3d 7146 0abd 32b4 eabc
000000b0: 85c4 b5bc d175 8cbb 9f09 353c 59ee 083e
000000c0: 93ee 083e 5120 653d 11a2 db3d 6321 d33c
000000d0: a107 213e eccd 05bd 21c4 223d 1e53 523d
000000e0: 5f70 c63d 8b13 ad3d 88f3 da3d b622 9e3d
000000f0: 764f 25bb d5f2 803d 4d36 df3d c70f 893b
00000100: 3afe f0bb 5666 b63d 2983 d83d 89ed a33d
00000110: f5e8 b5bd 49ca 5a3d 9ef7 e03c 3612 123d
00000120: 09b1 d6bd 2540 35bd 94ca 7e3d 7658 873d
00000130: c362 e33d c852 2c3d 9264 853e 558d 273d
00000140: 4f90 3b3c 5395 863d 8381 ad3d d10a 013d
00000150: 053d ad3d 70e2 563d 8315 363d 484c a73d
00000160: f0d5 a83d 8715 d1bc 0e9c b33c 1b3d 973d
00000170: 7950 0dbd 0cd7 013e d556 253c fc6d cf3d
00000180: b25e f73b 98e9 13be 44dd 853b 702a 0b3d
00000190: 7b25 5abd f801 f4bc 7de3 b43d 990c 693c
000001a0: 0d16 713b f006 403d 7481 dd3d f626 56bd
000001b0: 0c0b d5ba 7c1f c43c 6b15 f43d c0ad a23d
000001c0: a6fa edbc 1ce9 d2bc 59d3 1c3b e1a7 d03c
000001d0: 9ac1 fa3d 9585 3f3d 3d4f d03d 7b03 883d
000001e0: 6c5d f9ba 80d0 d2bc c797 9f3c 5a51 f23d
000001f0: aebb ce3c f40e 15bd dca4 813d 2225 ab3c
00000200: b528 783d 4882 b2bc 50af 793c f706 6a3d
00000210: 7c19 eb3d 57f1 feba ace9 923c e81c e4bc
00000220: 80e8 5cbc f3ea ce3c 8580 8cbd ec16 41bd
00000230: ada0 9c3d c1a1 44bd 1365 bb3d e085 63bd
00000240: 0286 a93c a993 9e3d 628a ddbc 419f 8abd
00000250: 0cd4 e13d 0851 25bc 5502 e93d f86e c53d
00000260: b1f4 a6bc 7a51 3cbd 3937 07bd dbbe cc3d
00000270: 495a df3d dd1e 3fbd 0fff 40bd a775 233c
00000280: 5a8b aabd 37d1 9e3c 653e d0bc 6c01 373d
00000290: c65c febc ca23 70bc 10f5 cdbb d241 4ebd
000002a0: ea1c b73d 003a 92bd c935 9dbc de68 48bd
000002b0: ae18 673d e173 bcbd f48c a53d 3f89 ad3d
000002c0: ea5f 90bc a852 0939 f6b6 9b3d 883a 8a3d
000002d0: 40bc c73d eaa0 7e3d 8af7 3dbd 5a25 863d
000002e0: 7c85 eebb bd11 b33b 9b4d 113d 3a0c 36b8
000002f0: ccbc 9cbc 8585 433c 5007 533d 4ccd 7f3d
00000300: 6051 193c 9ad7 c63c b196 f83c 497f ab3d
00000310: 7e81 923d 17bc c73d c122 21bc e6cf f43c
00000320: f5c5 80bb fcb1 623a f884 933d 58a3 923d
00000330: 1b78 09bd f7da c0bc 0129 b83d 66e9 5bbd
00000340: d794 b43d 422b 4a3d 101b c23d 4251 d73c
00000350: f524 9d3d 306f 07bc 066d c53d 2baa 0abd
00000360: d355 f33d 4a9d 743d 4cc7 40bd da96 e9bc
00000370: b338 70bd ba44 09bd cb77 1d3c 61b8 d83d
00000380: 77bf 923d 30a1 dfbd 6205 453d e7eb beba
00000390: daf3 bd3d a0fb 2ebd f1c6 993d c441 b9bc
000003a0: a20e 7b3d cf12 eb3c de87 58bc 5707 1bbc
000003b0: 490b 21bd f8eb 04bd ef75 28bd 9c0e 8a3d
000003c0: 6cf4 0ebd e318 303d ebe3 4f3d 2e05 ba3c
000003d0: e9bf 72bb 1f65 c4bc 1bcf 1a3d 40d3 85b8
000003e0: ee3b 513d 89fa 723d 27c5 86bd 187d 703d
000003f0: d458 2c3d 6557 10bd 7a7e a2bc 5f9a 863d
-0.047349416 0.0036442787 0.10908567 0.110021144 0.057378206 -0.031225191 0.05388422 0.009208149
-0.03910662 0.12087575 0.00018954746 -0.010313022 0.0071828575 0.08228613 -0.007715192 0.09872829
0.057527456 0.06697427 0.06876457 0.082785435 0.04661472 -0.050464474 -0.036202922 0.0008158151
0.046735138 0.059866417 0.0485115 0.052061267 0.11002989 0.058039036 -0.0018203441 0.1105044
0.021457862 0.02903659 0.06913333 0.09661777 -0.028625783 -0.03417728 0.04439998 -0.022023555
0.02490973 0.061851684 -0.033758584 -0.028650377 -0.022188434 -0.0042865057 0.011049657 0.13372172
0.13372259 0.055939022 0.10724271 0.025772756 0.15725566 -0.032667086 0.039737824 0.051348798
0.09689402 0.08450993 0.10690981 0.07721464 -0.0025224364 0.062963165 0.10899029 0.004182789
-0.007354525 0.08906238 0.10571892 0.080042906 -0.08882324 0.05341557 0.027461823 0.0356619
-0.104829855 -0.044250626 0.062204912 0.066086695 0.11102822 0.042071134 0.26053292 0.04090627
0.01144798 0.0657145 0.08471968 0.031504456 0.08458904 0.05246204 0.04445411 0.08168846
0.0824393 -0.02552296 0.021924999 0.07384702 -0.034500573 0.1267969 0.010091503 0.101284
0.0075491304 -0.14444578 0.004085215 0.03397602 -0.0532584 -0.029786095 0.088324524 0.014224195
0.0036786825 0.046881616 0.10815707 -0.05228325 -0.0016253903 0.023940794 0.11918148 0.079432964
-0.029050183 -0.02574592 0.0023929684 0.025470676 0.12243958 0.046758253 0.101713635 0.06641289
-0.0019025034 -0.025734186 0.019481553 0.11831923 0.025235977 -0.036391214 0.063302726 0.02089173
0.060585696 -0.021790639 0.015239552 0.05713555 0.1147947 -0.0019450587 0.017933689 -0.027845815
-0.013483167 0.025258517 -0.06860451 -0.047141 0.07647834 -0.048005823 0.09150138 -0.055547595
0.020693783 0.07743008 -0.027043525 -0.067686565 0.11026773 -0.01009012 0.11377398 0.09640306
-0.02038035 -0.04597614 -0.03301165 0.0999734 0.109058924 -0.046660293 -0.047118243 0.009976781
-0.083273605 0.01938687 -0.025420377 0.04467909 -0.031050097 -0.01465697 -0.0062853172 -0.05035574
0.08941062 -0.07139969 -0.019190686 -0.048928134 0.05642002 -0.0920179 0.08083525 0.08473443
-0.01762386 0.0001309613 0.076032564 0.06749445 0.09752703 0.06216518 -0.04637865 0.06550093
-0.007279096 0.005464761 0.0354744 -4.340357e-05 -0.019132994 0.011933689 0.051520646 0.062451646
0.00935778 0.024272729 0.030345293 0.08373887 0.07153605 0.09752672 -0.009834946 0.02988429
-0.0039298483 0.00086477376 0.07203096 0.071600616 -0.033561807 -0.02354191 0.08992196 -0.053689383
0.088174514 0.04935766 0.09477818 0.026283864 0.076730646 -0.008266255 0.09639935 -0.03385369
0.11881604 0.059720315 -0.047065064 -0.028514314 -0.058647823 -0.03351281 0.00961108 0.105820425
0.07165425 -0.10919416 0.048100837 -0.0014566154 0.092750266 -0.042720437 0.07508648 -0.022614367
0.06129325 0.028695492 -0.013215987 -0.009462199 -0.039317403 -0.0324516 -0.041128095 0.06741068
-0.034901068 0.042992484 0.05075447 0.022707548 -0.0037040657 -0.023974 0.037795167 -6.3812826e-05
0.051082544 0.05932096 -0.065805726 0.05871305 0.0420769 -0.035239596 -0.0198357 0.06572413

lstm.bias_hh_l0 f4 [512]
00000000: 5690 c73c aa5b 5d3d e793 8b3d 9879 bc3d
00000010: 9f33 923d 8f4a 973d 28b7 823d 69da 703d
00000020: e637 cd3a 4b48 c83a b279 073d 1a4e 0c3c
00000030: 44af b73c de0e 6c3d 504d 0d3d 1caf f33c
00000040: 5fb8 f33d 745a e0bc 0baf 55bb eff0 963d
00000050: f1ac bebb 4cbb fc3b 2878 4e3d fbd4 863d
00000060: 7136 50bd 499a ce3d da8c 083b 36a6 883d
00000070: 00c1 103c ad23 a73d 6a71 aebc 79e0 3a3d
00000080: ac7c 243d 29ad c93d 8272 a23d 2c59 e93a
00000090: 689f 3d3b 5a4a 5abd a140 853d f9b8 d23d
000000a0: 7326 9b3d 817d 0a3d dd80 19bd b553 e23c
000000b0: 7f14 83bc 60d7 53bd 3720 3cbd 9e2c 093d
000000c0: e695 223c f128 6aba cc9f ae3d 6ff7 6e3d
000000d0: 35d2 153e 7423 913d 235e 10bd f2ac ae3d
000000e0: d0b2 44bc be13 f0bc fe74 e03d 255f 4f3a
000000f0: aebc 733d f7e1 113d 9ab3 da3c d464 a33c
00000100: 5d43 853d 9b97 693d 0123 3cbc b51c c63c
00000110: d31c 883d 0a3f 3d3d 83cb e2bc d2e6 06bd
00000120: 8d7c 92bd 15a4 0dbc def6 673d 0718 033e
00000130: 9adf e4bc d0b6 a83d bbe8 2d3e 4de1 c83d
00000140: e1dd 423c f8af 35bd 0f0c d43d 0333 c63d
00000150: de6a 663d b402 53bd 7b78 20bd 2831 c5bb
00000160: c3c7 3a3a ec21 1cbd b2e9 013d bdf2 993d
00000170: c79b 40bd b7ab 08bd c27a 843d 6c52 69bb
00000180: c652 31bd f225 e9bd 0f5a dbbb daaa cd3c
00000190: 01b4 793c bdc3 ba3b 2ba8 b7bc bc8f c5bc
000001a0: 7286 2fbd 51e9 143c c08f 783b 1931 9c3d
000001b0: d213 a43d c675 b0bc 6ddb 003e 7ad8 093d
000001c0: 0c05 c33d bb0f 6b3d 77fb de3c 7112 753c
000001d0: 1f4f 1dbb ed27 bcbc c917 cc3d 18e7 673d
000001e0: 4a24 57bd d49e dabc 89db 4dbd 2e32 da3d
000001f0: b4d4 a23d 6c30 23bd a0d7 df3b aad3 e7bc
00000200: cf8c 8bba febb 973d 340c e13c 814f 0b3d
00000210: 9fe2 ba3c b5a0 503d f570 8b3d 8fb5 f1bc
00000220: 38c9 9d3d 9e90 06bd d1c2 7f3d 50c1 4a3d
00000230: 0198 1bbc 8f73 883d d054 d33b 00a3 5ebc
00000240: 1646 b1bc 9b23 ebbc 90f6 4c3d e65d 6cbb
00000250: a4f5 15bd 7267 7d3c 8c4c d8bb 7646 d73c
00000260: f62b ae3c d8ff 943c 325a 8c3d 9c76 6abd
00000270: 10e0 683d 6bb8 95bc e491 1e3d 8a30 803d
00000280: 6a80 88bd 98f9 923d d877 dc3d 07ec 88bd
00000290: 5e0b df3d dbbe 71bd 37bb adbd f44e d83d
000002a0: 270f 0b3d 97dd 4c3d 70a3 2a3d 7025 7d3d
000002b0: c358 503c 2bba 203d 062b d53d e432 453d
000002c0: e799 83bd 06f3 94bd adf2 523d b662 7d3d
000002d0: 08b8 993d 0bb4 323b b8fc 1ebd 35be 18bc
000002e0: 358c 9bbc 5844 88bc e5ec 8d3c 6a6c 083d
000002f0: 76ec 903b 0ea0 ecbc e0ba c93d 520a 25bc
00000300: b542 49bd 7fbb 3bbd 389b 9b3c 3081 00bb
00000310: 9c00 0dbd 1829 373d 6e17 903d 5640 08bd
00000320: 97a9 3dbd ba2c af3d 9b24 3f3d 46df f2bc
00000330: b4c2 023d 02d1 0ebd 59b7 9d3d 38f2 2a3d
00000340: 46db f1b9 e663 0abc 7f98 cb3d 253c a03d
00000350: e746 043d f153 c63d 0941 eebc 514b 333d
00000360: 285c c13c 6e9f 493d 272d fdbc 8524 7b3d
00000370: 4a7f ec3b 871d cc3d 34bc 6bbd 2f1f 54bd
00000380: edf6 9bbc b0a6 493c 3460 703c d7c6 473c
00000390: 280f 46bd 96b8 72bd f1a9 77bd 786f c13d
000003a0: 026e ea3d 7c35 443d 9d4f 623d d463 7f3b
000003b0: fc3e cb3d f018 383d f551 28bd ef97 dc3d
000003c0: a210 b1bb 0183 4a3b bc7b 5b3d c4b7 33bc
000003d0: 360c 673c fc89 06bd a173 e73d 6e91 e5bc
000003e0: 86f2 7fbc 4699 d1bc 4795 d63b 36bd 83bd
000003f0: 9c53 bb3c fd4e 403d 93fb 8f3c b596 df3d
0.024360817 0.054042496 0.068153195 0.0920288 0.07138752 0.07387268 0.063825905 0.058802042
0.0015656918 0.0015280334 0.033075042 0.008563543 0.02242244 0.057631366 0.03449756 0.029746585
0.119004 -0.027386881 -0.0032605554 0.07370173 -0.005818956 0.007712757 0.05040756 0.065835916
-0.05083317 0.10088021 0.0020835907 0.06672327 0.008835077 0.081611015 -0.021294314 0.04562423
0.04015796 0.09847481 0.07931997 0.0017803065 0.0028934125 -0.053293563 0.065064676 0.10289187
0.07575693 0.033811096 -0.03747641 0.027627805 -0.016000984 -0.05171907 -0.04592916 0.033489816
0.009923434 -0.00089324923 0.085265726 0.05834144 0.14630969 0.0708684 -0.035246026 0.085290805
-0.012005523 -0.029306289 0.109598145 0.0007910601 0.05950611 0.035615887 0.026696969 0.01994554
0.06506989 0.057029348 -0.011482955 0.02418361 0.06646123 0.046202697 -0.027684933 -0.03293497
-0.071526624 -0.008645077 0.056631915 0.12802134 -0.027938653 0.08237994 0.16983311 0.09808598
0.01189372 -0.04435727 0.103538625 0.096776985 0.05625426 -0.05151625 -0.0391774 -0.006017823
0.0007125104 -0.038118288 0.03171701 0.07517002 -0.04702356 -0.033366885 0.06468727 -0.0035602106
-0.04329183 -0.113841906 -0.0066940854 0.025105882 0.01524067 0.0056996034 -0.022419056 -0.02411639
-0.042852826 0.00908883 0.0037927479 0.07626552 0.08011593 -0.021540534 0.12583704 0.033653714
0.09522447 0.05738805 0.027219517 0.01495801 -0.0024003459 -0.022968257 0.09965474 0.056616873
-0.052524842 -0.026687063 -0.050258193 0.10654102 0.07950726 -0.0398411 0.0068311244 -0.028299171
-0.0010646823 0.074089035 0.02747164 0.034011368 0.02281314 0.050934512 0.06808654 -0.02950552
0.07704395 -0.03285276 0.06244165 0.049500763 -0.00949669 0.06662666 0.0064493194 -0.013588667
-0.021639865 -0.028703501 0.050039828 -0.003606671 -0.036611214 0.015466558 -0.006600922 0.026278716
0.021261197 0.018188402 0.06853141 -0.05724202 0.056854308 -0.018276414 0.03871335 0.06259258
-0.06665118 0.071765125 0.10765046 -0.06685644 0.1089084 -0.059019905 -0.08482974 0.10561934
0.033949997 0.050016012 0.041659772 0.06180328 0.012716475 0.039240044 0.10408597 0.048144236
-0.06425839 -0.072729155 0.051500965 0.061861716 0.07505804 0.0027267959 -0.03881523 -0.009322693
-0.018987754 -0.016634151 0.017324874 0.033306517 0.0044227196 -0.028884914 0.09850097 -0.010073261
-0.049135882 -0.045833107 0.018994913 -0.0019608252 -0.03442441 0.044716924 0.07035719 -0.03326448
-0.04630431 0.08553453 0.04666577 -0.02964748 0.031923965 -0.034867294 0.077009864 0.041734904
-0.00046130473 -0.008446669 0.09941196 0.07823972 0.03229418 0.09683979 -0.029083746 0.043773
0.023603514 0.04922431 -0.03090532 0.061314125 0.0072173225 0.099665694 -0.05755253 -0.05178755
-0.019038642 0.012307808 0.014671374 0.012193403 -0.048354298 -0.059258066 -0.060464803 0.09445089
0.114467636 0.04790257 0.055251706 0.0038969414 0.09924123 0.044945657 -0.041093785 0.107711665
-0.005403594 0.0030900838 0.0535848 -0.010969106 0.014102032 -0.032846436 0.11301351 -0.028023448
-0.015621787 -0.025585782 0.006548557 -0.064325735 0.022867016 0.04695033 0.017576015 0.10917417

lstm.weight_ih_l0_reverse f4 [512, 32]
00000000: f5a1 1dbd 9651 3bbd 47b3 3fbc 55ac afbc
00000010: a618 883c 8156 703d fc49 0e3c f5b8 29bd
00000020: a5ff 913d 9984 ee3a bee6 bfbc 8bc7 f1bb
00000030: 6fb7 533d 9742 b53b 2682 083d 2294 e33d
00000040: 62d8 eb3d a1fd ae3d 637f 5d3c e847 353b
00000050: d96f 393d 36b7 9fbd 58c9 20bd 55d8 cfbc
00000060: 7189 203c 486b dabd 7cd0 a6bc 2344 90bc
00000070: cd18 d8bd fb59 f43c d8c9 b5bc bbdf d939
00000080: dd55 c43d b38b 37bc ef8b 19be c16e b53c
00000090: 5e6d 823d dc1f debc eb3f 0a3d c4cc 0cbd
000000a0: 9b49 273d c927 3b3c 27cc 2d3c bd6e bb3d
000000b0: 7c60 3ebd 4e85 3b3d c9d5 14bd cffd 01bd
000000c0: fce5 3b3d e338 763d 8392 233d fcb3 0d3c
000000d0: 61c6 0d3c ff3a 0f3d bcf4 a6bd 38be b0bd
000000e0: 38b1 44bb 35e2 d6bd cbcf 113d 8d36 3fbd
000000f0: 6b18 f43d 68f7 e13d b1b5 f93c 3bf5 fe3c
00000100: db87 97bd be6a cb3a 2611 70be 9df0 1b3e
00000110: 35cf 22be c22e 0a3e 4e1e ce3d 4f16 22bd
00000120: f8b5 353c df7e 7d3d 26da 1b3c 21f3 763d
00000130: a9fe c3bd df89 593c 0650 dd3d 0070 f3bd
00000140: d795 c83e 9dc2 633d 6994 7f3d 672a 1abd
00000150: 743b 1abd 7014 833c be7d 82bd 5a40 23be
00000160: 0f82 97bb 085c 793d bda8 2d3e 84f9 7abe
00000170: 0da3 f53c 7388 9f3c 043f d2bc edd2 d23d
00000180: 7f9a 6e3d c02f 79bc 8888 10be 2ee3 783d
00000190: 0f23 4ebd 96ac 28bd bcb3 e33d 9a05 43bd
000001a0: e345 3f3d 8fbd 4abd 4549 88bd fd79 233e
000001b0: 4be2 933d 6859 72bd 18e2 863b 3b95 d5bc
000001c0: e72a 783b e442 98ba 66c3 643c 84f6 bebd
000001d0: 52f1 28bd 5f95 cfbd 8b78 17bc ad1c 4b3c
000001e0: d99f 7a3d 25b0 f13c 2223 2dbd 359a c43c
000001f0: 9cdb 39bd dd22 903d 7d27 993c 785c 66bc
00000200: 9ffa 81bb 19c6 8d3d afaa fdbc 53f1 c33c
00000210: 3f01 9e3d b9e9 aebd 7082 35bd 89f6 b23c
00000220: c288 5e3b c2d4 16bd 6bdd b8bc eded ae3d
00000230: 848c babb bb35 a0bb 2c2f 363d d979 cd3a
00000240: 22e5 94bc a84d 2f3d a814 92bc d358 b8bd
00000250: 6598 40bd 4d7a c7bd 2e17 bc3d 6289 b1bd
00000260: 8616 19bd 05e8 ed3c 8d3f 883c 1c5b 8f3c
00000270: bea7 123d 068e a33d c22d 3b3d f27c ecbd
00000280: e980 953d eed9 03bd cc64 a0bc 136c c6bd
00000290: d4cb f9bc 0eb8 253d c001 6ebd f807 f43a
000002a0: 8433 ef3d b1d0 143c b5e9 58bd 1bef 793d
000002b0: ea9b a03d 906a b5bc ad0f e8bc e651 bfbc
000002c0: 7281 923d 4b8c ffbd 9a6d 063e 1922 b9bd
000002d0: 5bc4 3b3c d2c7 b8bd abeb f1bc e7f6 17bd
000002e0: 80c4 dc3d 5af4 46bd 4624 6e3d 84ae 31bd
000002f0: f411 acbd b223 e53d 8884 6d3d d320 b6bc
00000300: f704 c43d aefa e0b9 a0d9 17be 7980 0d3c
00000310: 98e2 df3c b9ed 9abc 255c 033e de9c 18bd
00000320: ee90 bcbd 8ea2 6fbb 0341 67bd 2b10 afbd
00000330: 6cdc 82bd 20a0 803d 687c b9bd 6686 8fbd
00000340: 6206 a0ba 1de6 b7bc 9c4e f93c 44d5 0fbe
00000350: c064 6dbc 9278 c8bd 4560 7bbd 6b93 a8bd
00000360: 7374 d33d abbe c7ba 8218 1bbc e3f8 2bbd
00000370: 1f97 c33c 05a8 903d 31c4 f23d 42ed 983b
00000380: 6ac2 c5bc 6599 923c 5f45 5a3d cf25 063d
00000390: da93 20bd 1832 123d b0ef c0bd 1f73 363d
000003a0: 9edb 9b3c 6863 e83c d1f4 fabc 2a8e 6f39
000003b0: d165 193d 936e 903d 1f81 2c3c 8a5c bbbc
000003c0: caeb 4cbd 374c 46bc 5963 ed3d 60bf 6abd
000003d0: 485d 53bc 79de 00be a010 af3d 6b3c 72bd
000003e0: 3758 a8bc a777 09bc 9cda 90bd d028 cfbc
000003f0: 1018 883d d783 493d 9837 df3d c7a9 24bc
-0.038484532 -0.045732103 -0.011700458 -0.021444479 0.016613316 0.058676247 0.008684631 -0.041436154
0.071288384 0.0018197476 -0.023425456 -0.0073785237 0.051688608 0.00553162 0.033327244 0.111122385
0.11515881 0.085444696 0.013519141 0.0027661268 0.04527268 -0.077986166 -0.039254516 -0.02537171
0.009798394 -0.106649935 -0.020363085 -0.017610615 -0.105516054 0.029828062 -0.022190973 0.00041556158
0.095866896 -0.0112027405 -0.14994787 0.022147538 0.063685164 -0.027114801 0.033752363 -0.034374967
0.04084168 0.01142306 0.010607756 0.09151981 -0.046478733 0.045781426 -0.036336694 -0.03173619
0.045873627 0.060112845 0.039934646 0.008648869 0.008653254 0.034968372 -0.08152148 -0.08630031
-0.0030012857 -0.10492364 0.035598557 -0.046682883 0.1191872 0.11033517 0.030482145 0.031122794
-0.07398959 0.0015519483 -0.23444042 0.15228505 -0.15899356 0.13494399 0.10064374 -0.039572056
0.011090748 0.06188857 0.00951246 0.06029046 -0.09570057 0.0132775 0.10806279 -0.11886597
0.3917682 0.05560552 0.062397394 -0.037638094 -0.037654355 0.016000956 -0.0637164 -0.15942517
-0.0046236585 0.060878783 0.169589 -0.24509245 0.029984975 0.019474244 -0.025664814 0.10294137
0.058252808 -0.015209138 -0.14114583 0.06076353 -0.050326403 -0.041180216 0.11118266 -0.047612764
0.04669751 -0.049497183 -0.066546 0.15964504 0.07220896 -0.059167296 0.004116308 -0.026072135
0.0037867369 -0.0011616615 0.013962602 -0.09324363 -0.041245766 -0.10135912 -0.009245048 0.012396974
0.0611876 0.029502938 -0.042269833 0.023999313 -0.04537545 0.070379 0.018695587 -0.014060132
-0.003966644 0.0692255 -0.030965177 0.023918783 0.077150814 -0.08540673 -0.044313848 0.021846073
0.0033956026 -0.036823995 -0.022566518 0.085414745 -0.0056930203 -0.0048892177 0.04447858 0.0015676572
-0.018175665 0.04279867 -0.017832115 -0.09001317 -0.047020335 -0.09740124 0.09184109 -0.08668782
-0.037374996 0.0290413 0.016631866 0.017499499 0.035804503 0.07986073 0.045697935 -0.11547269
0.07299978 -0.032190256 -0.019579314 -0.09688582 -0.0304927 0.04045873 -0.058107138 0.0018618098
0.11679748 0.009082959 -0.052957255 0.061019044 0.07842238 -0.02214554 -0.028327787 -0.023354482
0.07153596 -0.12477931 0.13127747 -0.09039707 0.011460389 -0.09022488 -0.02953132 -0.0371007
0.10779667 -0.048572876 0.05814006 -0.04337932 -0.08401862 0.11188449 0.05798772 -0.022232449
0.095712595 -0.0004291138 -0.14829111 0.008636587 0.027329728 -0.018912183 0.12828119 -0.037258975
-0.09207331 -0.0036565396 -0.056458484 -0.08548006 -0.063896984 0.062805414 -0.09056932 -0.07008056
-0.0012208933 -0.022448594 0.030432992 -0.14046198 -0.014489353 -0.09788622 -0.061371107 -0.08231243
0.10324945 -0.0015239319 -0.009466292 -0.041985404 0.023875771 0.07063297 0.11853827 0.004666955
-0.024140555 0.01789541 0.053288814 0.0327509 -0.039203502 0.035692304 -0.09420717 0.04454338
0.01902562 0.028367713 -0.030634316 0.00022845776 0.037450615 0.0705234 0.010528832 -0.022871275
-0.050029553 -0.012103132 0.11591215 -0.057311416 -0.012900658 -0.12584867 0.08548093 -0.05913965
-0.020549877 -0.008390344 -0.070729464 -0.025288016 0.066452146 0.049197998 0.108992755 -0.010050244

lstm.weight_hh_l0_reverse f4 [512, 128]
00000000: f374 013d 0470 8d3d fdc2 233d 48f2 1a3c
00000010: 42eb 3cbd 2400 6ebd eea7 373d 807d 69bd
00000020: a433 97bd 0ac1 5bbd 9d16 adbd 6753 3dbd
00000030: 400e 413d 8fe7 f4bc b7af b0bc 8c72 463d
00000040: 86f4 413d 7ebf b93d f79a 933d e7c3 f2bd
00000050: 2950 903d 737e a23c 72cc 8b3d 1f5b 543d
00000060: 8909 043c 4ddf cebc 761f 6a3c 56ea 89bb
00000070: 1204 a3bc 93e0 29bd 16b3 c43d 5c9a 473c
00000080: 8ff6 42bd 9181 803c c25b 993b 7c31 333c
00000090: 9c1f 61bc 8b24 f13c fe8f b1bd 46b8 ff3c
000000a0: 4a34 063d e495 8fbd f64d b53d a062 a03d
000000b0: e8f3 153d 6e92 aabd 254f 5ebc f7c9 adbc
000000c0: 60fc c2bd 505e e9bb 5995 a63d bf67 103c
000000d0: 2f2f f53d 9efd 5a3d 3d69 233d 5878 20bd
000000e0: 7e86 04bd 2e36 2c3c c616 cf3d 298b 8fbd
000000f0: 03a4 c13c 67af 613d c4c8 e73c f4d1 583c
00000100: ebe4 8b3d c303 32bd 1ea3 c23d 9bf4 7e3d
00000110: 5e68 133d fbb1 20bd 72e7 323c 233d d7bd
00000120: acc0 933b 5c1b 33bc 09b1 9dbc b862 9bbb
00000130: ce99 353d a2b0 a53d 7fc9 643d 0aff 8cbc
00000140: 40d6 5ebd efc8 f93d cb88 9d3d c79b 373d
00000150: e2e2 13bd f989 993c 0c3c d33d 3330 833d
00000160: 0002 0ebd c79a a6bd 1ebe 113c 5625 97bd
00000170: 5b37 a8bd f1eb b6bd a4b9 963d a25b 4c3d
00000180: e46c ce3c 2804 d8bc 3adc b93d fd33 32bc
00000190: a262 eb3d c803 393d 7756 9abc 2021 83bd
000001a0: 027a d4bc 2175 423d dc7d 203c 6004 293d
000001b0: 1916 b3bd 12b6 db3d 356f bb3c 8d5a 273c
000001c0: 551f ffbc d3af 06bd 875b 1ebd 9fff 9d3c
000001d0: 1f56 ad3c fb84 f53d b730 5b3d d29a 883b
000001e0: e3b8 b63d 31fb eebd 6659 bd3d 2d92 2b3d
000001f0: 5a50 a73d 15e6 0b3c 114c d1bc a04c d83b
00000200: 7488 5dbd ecf6 e03d 4df1 65bd 6126 a4bd
00000210: 2337 c83d 0fd2 f73c 315e 9b3d f33f 4a3d
00000220: 52a8 84bd 09de 95bc 1571 80bd d2e5 c2bc
00000230: a2cf b43d 003f f13d 547f adbb 4658 ed3d
00000240: ae2d a73d 8493 da3d 8227 9a3c 9a77 913c
00000250: 4815 f43d ceef 7d3d ab1a ba3c 1557 49bc
00000260: 68d7 eebd a42a c73d 6eda 583c fd70 c33c
00000270: 277c 463d 92a1 8ebd 4789 453b a5ef a4bd
00000280: 4c3d 3cbc 64b1 333b 34ee 593d 9925 c4bb
00000290: f836 9a3d 3038 84bc b153 24bd 3324 b43b
000002a0: 038d 873d 2a4b 673a 94fd d9bc ae11 023e
000002b0: ce9e 3e3d ed39 1abd 4dd4 1c3d e7b2 0b3d
000002c0: a442 d6bc c101 483d c54f 6a3d 86d2 eb3d
000002d0: 702c 51bd 9d42 d73c d046 c0bb bda8 993d
000002e0: 3012 af3b 2607 8fbd 2506 a3bd ae88 91bd
000002f0: 7fd1 4cbc bbbf c93c 916e fcbd d1e3 49bc
00000300: 58df ec3d 777b 4ebc 7d62 80bc f32f f33c
00000310: 7a5d 993d 332e 65bd b184 47bd 1576 d33c
00000320: 64ce ba3c 78ec 9f3d 3201 c4bd 9447 6e3c
00000330: 5c90 f2bd b504 8f3c f817 15bd d123 d9bc
00000340: b907 c6bc 2365 ff3d ff42 b83d 342a 74bd
00000350: b505 d7bd 3a62 01bd 0e5c 1a3d 32b2 a7bc
00000360: 5e26 d03d 5635 f93c 77fe adbd 4631 423d
00000370: 859c 9bbd f41e 6dbd e327 b43c d480 91bd
00000380: 40be a03c 1cb3 c73d c27d ce3d 45bc 953b
00000390: 7c01 c63d 91c3 49bb 85f9 0ebd 6d0e 183d
000003a0: c63c 97bd 5dd6 a0bc bcfe 6bbd 133c 11bc
000003b0: 7c49 093d fad7 653d 8e07 1a3d 6b26 63bb
000003c0: b360 573d 9dbc c33d db6a 2e3d 481d a639
000003d0: cb3c 46bd f137 303c f61c 1a3d de83 283d
000003e0: 661a c0ba eeb1 97bc cd7a 293c d873 79bd
000003f0: 69d5 62bd 9d2c 7cbb 8c60 ce3c 1e41 e53d
0.031605672 0.06906131 0.039980877 0.009457178 -0.046122797 -0.058105603 0.044837885 -0.05700445
-0.073828965 -0.053650893 -0.08451579 -0.046222117 0.04713273 -0.029895572 -0.021568162 0.048449084
0.047352336 0.09069727 0.072072916 -0.11853772 0.07046539 0.019835686 0.06826104 0.051844712
0.008058914 -0.025252962 0.014289727 -0.004208843 -0.019899402 -0.041473936 0.096044704 0.012182798
-0.047598418 0.015686782 0.004680128 0.010937091 -0.013740446 0.02943637 -0.086700425 0.031215798
0.03276471 -0.07011011 0.088527605 0.07831311 0.03660956 -0.083287105 -0.013568674 -0.021214468
-0.09520793 -0.0071218386 0.081339546 0.0088137975 0.1197189 0.053464524 0.039895285 -0.03917727
-0.032354824 0.010510964 0.101117656 -0.070089646 0.023637777 0.055098917 0.028293975 0.0132336505
0.06830772 -0.04346062 0.095037684 0.062244993 0.035988204 -0.039232235 0.010919439 -0.10509708
0.0045090523 -0.010931816 -0.019249456 -0.004741993 0.044336133 0.08090331 0.055856224 -0.017211456
-0.054403543 0.12196528 0.07692107 0.044826295 -0.036105044 0.018742548 0.103141874 0.06405678
-0.034669876 -0.0813499 0.008895425 -0.07380168 -0.08213683 -0.08931721 0.07359627 0.049892075
0.025198407 -0.02636917 0.09075208 -0.010876653 0.11493422 0.04516962 -0.018840058 -0.064028025
-0.025937084 0.047474984 0.009795632 0.041263938 -0.08744449 0.107280865 0.022880176 0.01021446
-0.03114287 -0.032882523 -0.038661506 0.019286929 0.02115923 0.11988255 0.053513255 0.0041688466
0.08921983 -0.11669005 0.09245567 0.04188745 0.08169623 0.008538743 -0.025548967 0.0066009313
-0.05408521 0.109845966 -0.056138325 -0.08015133 0.097761415 0.03025153 0.07586325 0.049377393
-0.06477417 -0.018294351 -0.06271569 -0.023791227 0.08828665 0.117795944 -0.0052947197 0.115891024
0.081630096 0.106726676 0.018817667 0.017757226 0.119181216 0.061996274 0.022717794 -0.012288828
-0.11662179 0.0972493 0.013235671 0.023857588 0.048458245 -0.06964411 0.0030141638 -0.08053521
-0.011489224 0.0027418965 0.053205684 -0.0059859273 0.07530016 -0.016140074 -0.040118877 0.0054974793
0.06618693 0.0008823151 -0.026610173 0.12702057 0.046538167 -0.0376529 0.038288403 0.03410616
-0.026154824 0.048829798 0.05720498 0.115147635 -0.05106777 0.02627688 -0.0058678165 0.075028874
0.0053427443 -0.06983785 -0.07960156 -0.07106148 -0.01250112 0.024627557 -0.12325776 -0.012322382
0.11566037 -0.0126026785 -0.015671963 0.02968595 0.07488532 -0.055952262 -0.04871053 0.025813142
0.022803493 0.07808775 -0.095705405 0.014543433 -0.118439406 0.0174583 -0.03639981 -0.026506336
-0.024173604 0.12470462 0.089971535 -0.05961056 -0.104991354 -0.031587817 0.037685446 -0.020470712
0.10163568 0.03042094 -0.08495801 0.047410272 -0.07598213 -0.057890847 0.021991676 -0.0710465
0.019621968 0.09750959 0.1008258 0.0045695626 0.09668252 -0.0030786733 -0.03490593 0.037123132
-0.073846385 -0.019633466 -0.05761598 -0.0088644205 0.033517346 0.056114174 0.03760486 -0.003466035
0.052582454 0.095574595 0.042582374 0.00031683804 -0.04839782 0.010755525 0.037625276 0.041141383
-0.0014656305 -0.01851746 0.010344219 -0.060901493 -0.055379305 -0.003847874 0.025192522 0.11194061
