runs/lstm_uncentered/lstm_uncentered_python.pt (torch, 702081 bytes, 10 tensors)

emb.weight f4 [256, 32]
-1.8393825 1.4735023 2.5937696 1.1911632 0.14259785 0.25398266 -0.73659533 -0.15846854
-0.21631366 -2.550834 -1.5329968 0.40232548 1.9018047 0.028954562 0.11415531 -0.15640303
0.27253973 -0.19982646 -1.4349785 -0.39585516 0.4864746 0.79328156 -0.3063843 1.5870674
-0.56273204 0.04136659 -0.20289148 0.9542747 -0.09966192 -1.591354 0.81320024 0.33108163
0.110416025 -0.86428297 0.24989869 -0.44124344 0.5503593 0.04021462 0.11974092 0.3681061
-0.023155127 -0.049526982 -1.3003433 -1.5698761 -0.72694135 1.8166016 0.49278194 0.6700868
1.6613739 0.5060242 0.64410937 -0.90051085 1.2624876 0.58518827 0.7253255 -0.82253
-0.80074996 -0.83074766 0.3927493 -0.35136002 0.6162699 0.37127325 -0.20157762 0.6793214
1.3958346 2.753285 -1.2790546 -1.5099599 -0.4976176 -0.4801637 0.92203057 -0.6977117
0.38935626 1.099105 -1.0163635 0.5582164 -0.8804186 0.08125144 -2.4920936 0.1435937
0.2504643 -0.65223455 0.22579671 0.15858473 -0.23649634 1.5081671 0.14589137 -0.83265364
-0.23748334 1.1023977 0.5435174 0.51873255 0.5077222 -0.11724729 -0.20139468 -0.78636926
-0.39941043 -0.7281847 0.67614305 0.15200296 0.78826106 0.09052194 0.30574474 1.2237357
0.25057435 0.041944027 0.13290109 0.48754975 0.008900053 1.5660298 -1.1219999 -0.63916945
0.18845873 -0.22105245 0.83937633 1.7627941 0.33072445 -0.55026037 0.7373445 -0.20577252
-0.07431459 -0.16851777 0.273347 1.2034518 0.316523 0.11733908 0.52823853 -0.43710035
2.020638 1.5931076 -1.1043714 -2.0949342 0.22543845 0.44140363 0.3167347 -0.5433341
-0.25747827 0.12012446 -0.8432052 1.4375376 0.37997195 0.7076686 0.45826128 1.5389034
1.732706 -0.86858267 -2.0874856 -0.5230681 0.2332981 -1.6687006 1.8279614 0.08317587
0.26289678 -1.064504 -0.36930314 -1.0279983 0.44593397 -1.082772 0.03548099 0.31777605
1.8056716 1.3603808 -1.4498926 -1.1263763 1.2182932 1.8073604 2.2009938 -0.56358534
-0.56732744 -1.3430747 -1.853829 -0.018281836 0.1548708 -0.9438556 1.0228978 -0.79584414
-1.9847779 -0.5160024 0.89963603 -0.062695384 -2.0024486 -1.1361301 1.0358715 0.24537386
-1.3468757 1.0314001 -0.40105823 -0.34799075 1.1601499 -0.5605423 0.7369063 -1.2829503
0.71529245 -0.18302172 0.38080266 -0.9586761 0.8931882 0.03325505 -0.54898983 -0.30611202
-0.18369801 -1.2757148 -0.68274796 1.1158854 -0.9152008 -1.1393636 -2.2227402 -0.7895498
-0.60122633 -1.6846503 -0.71714807 0.42735004 0.59983444 -0.6467654 -1.0427289 -0.53270173
0.48033965 1.2665017 1.6206576 -1.0898267 1.1823996 0.293362 1.594511 0.15599455
0.74556345 -0.091602325 -0.27001935 0.47416875 1.5018078 0.17272952 -0.24662921 -0.06793706
0.3390017 0.9245582 -0.7306368 0.6356801 2.0619152 -0.9454703 -1.3413918 0.46862635
0.23512879 0.44648623 -0.10304133 0.9862655 0.0010317058 0.23766367 -0.4837278 0.6117921
0.8624165 0.40796995 -0.45939946 -0.22583653 -0.796621 1.742273 0.46994913 -1.0342505
00000000: e370 ebbf b99b bc3f 5200 2640 0978 983f
00000010: 2c05 123e 040a 823e 8391 3cbf 9445 22be
00000020: 5481 5dbe dd40 23c0 3d39 c4bf 9bfd cd3e
00000030: 566e f33f 1e32 ed3c 42ca e93d 1e28 20be
00000040: 548a 8b3e 4f9f 4cbe 60ad b7bf 87ad cabe
00000050: 3313 f93e 8014 4b3f 67de 9cbe 0625 cb3f
00000060: 350f 10bf 0370 293d c9c2 4fbe 594b 743f
00000070: 8c1b ccbd 7db1 cbbf e42d 503f 8883 a93e
00000080: cc21 e23d a641 5dbf 71e5 7f3e a9ea e1be
00000090: 59e4 0c3f 16b8 243d ba3a f53d 6778 bc3e
000000a0: d2af bdbc cedc 4abd a671 a6bf b3f1 c8bf
000000b0: d418 3abf 6786 e83f ea4d fc3e cf8a 2b3f
000000c0: e6a7 d43f cd8a 013f 5ae4 243f e187 66bf
000000d0: 3299 a13f e6ce 153f efae 393f 5391 52bf
000000e0: f3fd 4cbf e1ab 54bf 7016 c93e 76e5 b3be
000000f0: ddc3 1d3f 8717 be3e 5d6a 4ebe 02e8 2d3f
00000100: b5aa b23f d235 3040 10b8 a3bf 5e46 c1bf
00000110: bcc7 febe 04d8 f5be 320a 6c3f 3c9d 32bf
00000120: b459 c73e 79af 8c3f 3318 82bf 45e7 0e3f
00000130: 1d63 61bf 2867 a63d 767e 1fc0 3a0a 133e
00000140: db3c 803e d8f8 26bf 4137 673e 0964 223e
00000150: 192c 72be 9f0b c13f 8c64 153e ca28 55bf
00000160: d52e 73be 5e1b 8d3f f523 0b3f a8cb 043f
00000170: 15fa 013f 591f f0bd 683a 4ebe 7f4f 49bf
00000180: 867f ccbe 506a 3abf b617 2d3f aaa6 1b3e
00000190: 7acb 493f 9163 b93d 938a 9c3e 5fa3 9c3f
000001a0: 484b 803e 80cd 2b3d 3917 083e 1fa0 f93e
000001b0: 87d1 113c aa73 c83f b19d 8fbf 9ca0 23bf
000001c0: 53fb 403e 935b 62be 5ee1 563f 3da3 e13f
000001d0: b754 a93e dddd 0cbf 9cc2 3c3f 08b6 52be
000001e0: 3f32 98bd ec8f 2cbe 23f4 8b3e b50a 9a3f
000001f0: 4d0f a23e 794f f03d a43a 073f 9ecb dfbe
00000200: 2252 0140 f3ea cb3f 0b5c 8dbf 6713 06c0
00000210: 56d9 663e a8ff e13e 0d2b a23e f217 0bbf
00000220: 31d4 83be d003 f63d 4cdc 57bf 3b01 b83f
00000230: af8b c23e c529 353f 39a1 ea3e c9fa c43f
00000240: 4fc9 dd3f 6f5b 5ebf 5d99 05c0 cae7 05bf
00000250: b2e5 6e3e fb97 d5bf a4fa e93f 1c58 aa3d
00000260: 689a 863e ab41 88bf 4d15 bdbe 7395 83bf
00000270: 7551 e43e 4698 8abf 8454 113d 8bb3 a23e
00000280: 3f20 e73f f520 ae3f 1596 b9bf 192d 90bf
00000290: 08f1 9b3f 9657 e73f 15dd 0c40 2147 10bf
000002a0: 5f3c 11bf dfe9 abbf 454a edbf cac3 95bc
000002b0: 7396 1e3e 85a0 71bf 51ee 823f 71bc 4bbf
000002c0: 340d febf bc18 04bf 8c4e 663f 7066 80bd
000002d0: 1e28 00c0 b66c 91bf 7097 843f 4943 7b3e
000002e0: 6c66 acbf eb04 843f 8157 cdbe d82b b2be
000002f0: cb7f 943f b37f 0fbf e4a5 3c3f b737 a4bf
00000300: 681d 373f 0c6a 3bbe 91f8 c23e cc6b 75bf
00000310: fba7 643f 7336 083d 998a 0cbf b7ba 9cbe
00000320: 551b 3cbe 9f4a a3bf 92c8 2ebf 55d5 8e3f
00000330: 9a4a 6abf abd6 91bf 6041 0ec0 f01f 4abf
00000340: f8e9 19bf 9fa2 d7bf 0497 37bf a0cd da3e
00000350: c08e 193f 6b92 25bf 2478 85bf 245f 08bf
00000360: 14ef f53e ba1c a23f b571 cf3f 717f 8bbf
00000370: df58 973f 8b33 963e f018 cc3f 09bd 1f3e
00000380: 3fdd 3e3f 009a bbbd fa3f 8abe 3fc6 f23e
00000390: 3d3b c03f 02e0 303e 5e8c 7cbe 9622 8bbd
000003a0: a191 ad3e d9af 6c3f 030b 3bbf eebb 223f
000003b0: 6bf6 0340 570a 72bf bab2 abbf cbef ef3e
000003c0: 9ac5 703e d899 e43e 5507 d3bd e57b 7c3f
000003d0: 4d3a 873a 1b5e 733e 2cab f7be 689e 1c3f
000003e0: 54c7 5c3f 70e1 d03e 6836 ebbe b141 67be
000003f0: 5bef 4bbf cd02 df3f 2c9d f03e 5262 84bf

lstm.weight_ih_l0 f4 [512, 32]
-0.072955206 0.11249684 -0.0054659666 -0.065835 -0.06376707 0.018220244 -0.023692274 -0.011035907
0.100405864 0.12871923 0.002221499 -0.025268419 0.01080316 0.021288056 0.08119032 0.085606396
0.024409853 -0.124992326 0.017040504 0.027392102 0.030943066 0.011432349 0.124400124 -0.039463744
-0.09453708 -0.022633785 0.0019430927 -0.05235451 -0.018230632 -0.017324554 -0.11142344 0.0720072
0.08693677 0.014789744 -0.07658624 -0.113339506 -0.033145986 -0.0432084 0.109785736 0.049785003
-0.014043922 -0.013918328 0.013182913 0.075485095 0.065514326 -0.008608052 0.11934962 0.013389935
0.10363636 -0.00974239 -0.034912746 0.030773116 0.08595226 -0.050553434 0.065584175 0.0025545044
0.10539104 0.028091425 0.050538745 0.052059434 0.04201607 0.047866654 0.031205133 0.054795805
0.08461752 -0.007194564 -0.10953064 -0.09758925 -0.0194242 0.049165525 0.019097714 -0.066715874
0.001066517 0.017598094 0.022472752 -0.048381906 -0.012355918 -0.036581554 0.035716154 0.102369584
0.09491792 0.039153557 -0.07792128 0.077409156 -0.08426558 0.012549849 0.054439176 -0.14661998
0.15540665 -0.01613903 0.026227543 0.047896918 -0.06572149 0.012556367 -0.0048552905 0.010965843
0.08788236 -0.0059691826 -0.012235255 0.034014314 0.12292 0.0005007378 0.007579185 0.06243816
-0.07480878 0.16036902 0.105453804 -0.01703343 -0.03359338 0.049501643 -0.025094235 -0.02569729
-0.010094232 0.044651385 -0.19331694 -0.07551476 0.09406979 -0.28740022 -0.10262365 0.18209311
-0.28195727 -0.005427748 -0.043263413 0.051376827 0.12065506 -0.05403841 -0.020246655 -0.17170084
0.00678535 0.20076573 -0.13923442 0.116013184 -0.047416236 -0.038081005 0.07181413 0.015268558
-0.20585243 0.010190114 -0.050003923 0.012664012 0.07903648 -0.10788389 -0.0019707715 -0.026714431
-0.039496876 -0.13680568 -0.010307103 -0.11812233 0.013477578 -0.040807944 0.29312402 0.043989897
-0.0028462515 0.016035486 0.05743807 -0.11647707 0.04679619 -0.06789729 0.041445464 -0.020140229
-0.13511497 -0.015915677 -0.1080373 -0.098441355 0.026232826 0.08287291 -0.03350418 -0.05035859
-0.15645272 -0.08328473 0.04669023 0.07993433 0.06092744 -0.042965498 -0.012238001 -0.013750504
0.11686613 -0.08597504 -0.049190868 -0.033852447 -0.120695494 0.0018315074 -0.050550357 -0.11102468
0.011233661 -0.015363211 0.06782862 -0.08535858 -0.07886026 -0.09793992 -0.051688414 0.09380732
0.0307246 0.04585888 -0.059452698 -0.07729572 -0.006595897 -0.03348221 0.01626544 0.066335455
-0.054080173 0.08098251 0.10939502 0.02155942 0.043180913 -0.05424327 0.03604667 0.19444042
0.017073037 -0.12145301 -0.05192011 0.07256211 0.04428124 0.02781663 -0.015055005 0.04087077
-0.07652861 -0.08136997 0.14841257 -0.056433372 0.11802671 -0.0011167831 -0.07947255 0.058260065
-0.019120023 0.009478277 -0.023637393 0.18884061 -0.04318632 -0.0032070063 -0.05091943 -0.05419705
-0.0407128 0.05623956 -0.071679376 0.098483205 0.013452717 -0.09131871 0.020523503 -0.32345197
0.026598528 -0.17112035 -0.029175702 -0.01026443 0.048429675 -0.05728305 0.16852114 0.04094954
-0.008380161 0.015513701 0.11192671 0.085378096 -0.006629514 -0.08396789 -0.15675299 -0.18010688
00000000: 8a69 95bd be64 e63d da1b b3bb 80d4 86bd
00000010: 4f98 82bd 9f42 953c 4d16 c2bc f3cf 34bc
00000020: 97a1 cd3d f9ce 033e 9296 113b b7ff cebc
00000030: bdff 303c 4a64 ae3c 1c47 a63d 6852 af3d
00000040: 2cf7 c73c fafb ffbd 8798 8b3c 6765 e03c
00000050: 507c fd3c bf4e 3b3c 7ec5 fe3d bca4 21bd
00000060: a89c c1bd 7d6a b9bc 5faf fe3a af71 56bd
00000070: 6858 95bc 39ec 8dbc f931 e4bd 8378 933d
00000080: e80b b23d af50 723c 3fd9 9cbd 8b1e e8bd
00000090: 16c4 07bd 4bfb 30bd 58d7 e03d 5ceb 4b3d
000000a0: 7a18 66bc b309 64bc 25fd 573c ee97 9a3d
000000b0: 602c 863d c908 0dbc 936d f43d 7561 5b3c
000000c0: 4d3f d43d 8c9e 1fbc ab00 0fbd e717 fc3c
000000d0: bd07 b03d 1e11 4fbd ff50 863d 7969 273b
000000e0: 42d7 d73d fd1f e63c b701 4f3d 463c 553d
000000f0: 0b19 2c3d d30f 443d e8a1 ff3c 9171 603d
00000100: f34b ad3d 61c0 ebbb 9a51 e0bd dfdc c7bd
00000110: 801f 9fbc ca61 493d cf72 9c3c 55a2 88bd
00000120: 5fca 8b3a e129 903c c718 b83c 1b2c 46bd
00000130: 7a70 4abc 8ad6 15bd 1a4b 123d 25a7 d13d
00000140: 5464 c23d 7b5f 203d 3195 9fbd b188 9e3d
00000150: 6f93 acbd e29d 4d3c 9dfb 5e3d 8c23 16be
00000160: ec22 1f3e 0036 84bc 25db d63c 8f2f 443d
00000170: fd98 86bd 38b9 4d3c 2119 9fbb 14aa 333c
00000180: abfb b33d 2299 c3bb 6176 48bc 9852 0b3d
00000190: 7bbd fb3d f243 033a d05a f83b 28bf 7f3d
000001a0: 5835 99bd c737 243e 2af8 d73d b189 8bbc
000001b0: 3699 09bd 3cc2 4a3d 6d92 cdbc 2083 d2bc
000001c0: 4762 25bc 5fe4 363d e0f4 45be 7ca7 9abd
000001d0: a9a7 c03d 1f26 93be 592c d2bd 9e76 3a3e
000001e0: b45c 90be 40db b1bb fa34 31bd 8270 523d
000001f0: 001a f73d 6157 5dbd 50dc a5bc 58d2 2fbe
00000200: a457 de3b 8895 4d3e 7893 0ebe 5298 ed3d
00000210: 8737 42bd d4fa 1bbd 4913 933d f928 7a3c
00000220: fbca 52be 70f4 263c ead0 4cbd b77c 4f3c
00000230: e1dd a13d 3bf2 dcbd 0f28 01bb 39d8 dabc
00000240: 7ac7 21bd ca16 0cbe 20df 28bc 1fea f1bd
00000250: 0fd1 5c3c 3b26 27bd 5a14 963e c02e 343d
00000260: 2d88 3abb da5c 833c 2f44 6b3d 888b eebd
00000270: 5dad 3f3d bc0d 8bbd b8c2 293d 1ffd a4bc
00000280: 945b 0abe 9861 82bc a942 ddbd 9f9b c9bd
00000290: 39e6 d63c 46b9 a93d ae3b 09bd cf44 4ebd
000002a0: 2435 20be 2f91 aabd 413e 3f3d 9cb4 a33d
000002b0: 0d8f 793d 97fc 2fbd e681 48bc cb49 61bc
000002c0: 8257 ef3d af13 b0bd 5d7c 49bd dda8 0abd
000002d0: 332f f7bd 310f f03a e40d 4fbd e860 e3bd
000002e0: 640d 383c fab5 7bbc bbe9 8a3d 7bd0 aebd
000002f0: 7d81 a1bd ba94 c8bd 3bb7 53bd 0d1e c03d
00000300: 28b2 fb3c 85d6 3b3d ac84 73bd 384d 9ebd
00000310: 6522 d8bb a424 09bd 1a3f 853c e2da 873d
00000320: 2c83 5dbd 28da a53d 7f0a e03d 619d b03c
00000330: 78de 303d 312e 5ebd aca5 133d 641b 473e
00000340: c1dc 8b3c 5bbc f8bd 2eaa 54bd 729b 943d
00000350: 3f60 353d b4df e33c 45a9 76bc 1c68 273d
00000360: 08bb 9cbd 4da5 a6bd 77f9 173e ae26 67bd
00000370: fdb7 f13d 0661 92ba 81c2 a2bd 1ba2 6e3d
00000380: 98a1 9cbc c64a 1b3c 35a3 c1bc 6f5f 413e
00000390: 24e4 30bd a32c 52bb e490 50bd bafd 5dbd
000003a0: 77c2 26bd 745b 663d a3cc 92bd 90b1 c93d
000003b0: c968 5c3c 4e05 bbbd e820 a83c 7f9b a5be
000003c0: 28e5 d93c 2c3a 2fbe e201 efbc 242c 28bc
000003d0: 325e 463d a2a1 6abd ce90 2c3e b4ba 273d
000003e0: f14c 09bc 2e2d 7e3c d539 e53d b6da ae3d
000003f0: 653c d9bb 5bf7 abbd db83 20be f06d 38be

lstm.weight_hh_l0 f4 [512, 128]
-0.0524947 -0.029905966 -0.045256156 0.060967155 -0.029095985 -0.007190103 -0.058819864 0.039771903
0.02723508 -0.06529815 0.097363986 0.08896049 0.10376574 0.09774532 0.08245783 -0.035029724
-0.06412704 -0.035629805 -0.051397145 0.06493726 -0.012713906 -0.056320094 0.032721743 -0.04803626
0.031798452 0.100856945 0.022224626 0.10644787 0.10259101 0.071325004 0.111133985 0.09405447
-0.019917194 -0.044293847 -0.10614495 -0.04313599 -0.014774287 -0.036910497 -0.10801999 0.025525337
0.05457928 0.067247726 -0.0048190895 -0.0133975325 -0.03830553 0.004258586 0.11197173 0.03027872
0.05174698 0.042799663 0.03721082 -0.0842839 -0.045204066 -0.067563064 0.036882307 -0.059981674
0.0595144 0.08352611 0.010728097 0.020592876 0.10625524 0.030755503 -0.08172408 0.04369116
-0.101808265 0.048761107 -0.10290248 -0.056999054 0.0671106 -0.015180236 -0.06923495 0.042590488
-0.090964854 0.09661102 -0.04259041 -0.019383261 0.0441083 -0.045719866 -0.09721276 -0.028584825
0.011312633 -0.0013561979 0.023944162 -0.010572189 -0.009533038 -0.04929261 0.033206083 0.027773274
0.055626493 -0.03962439 0.028970512 -0.031699687 -0.029455211 -0.10462434 0.05749367 -0.050080426
0.018987296 0.0006452041 0.014217595 -0.0052936436 0.014964124 0.015277503 -0.07615522 0.13885887
-0.027352232 -0.10401783 0.0045051565 -0.06358977 0.008525387 0.0018422775 -0.09231058 -0.06137565
-0.07489192 -0.12508419 -0.054292846 -0.018085781 0.010802025 0.06857495 0.008017939 -0.06863626
-0.042665586 -0.08125853 -0.012373406 0.05691167 0.052481662 -0.018231045 -0.057045955 -0.08368516
-0.022296108 -0.059273034 0.05009492 -0.006095021 -0.087145865 0.059444394 -0.09256057 -0.022866283
-0.10159171 -0.055568058 -0.037754506 0.11651832 0.037312374 -0.044083517 0.0901732 0.056553613
-0.10755147 -0.014239734 -0.03366909 0.001282918 -0.06458375 -0.0853798 -0.006717916 -0.01577882
-0.11106638 -0.04105083 0.033345982 -0.004928815 0.014663878 0.02341676 -0.005286501 -0.022968592
0.101030715 -0.03912674 -0.008069416 -0.034007642 0.025222437 -0.057301152 0.06036897 0.1166091
-0.09747258 -0.040799573 0.011080187 -0.097440064 0.10362577 -0.045908872 -0.036566716 0.06331684
-0.020991543 0.0009863504 -0.111415826 0.004058409 -0.020696098 0.069321014 0.039578892 0.09033585
0.06402769 0.05637025 -0.10835538 0.030080639 0.08228516 -0.05732982 0.07220087 -0.032565918
-0.071700156 -0.085452765 0.044740964 0.0034586224 0.044215195 0.040745452 -0.10554848 0.039205197
-0.06790823 0.069146805 0.115065016 0.030078324 -0.056585826 0.045928396 -0.01431625 -0.010154667
0.053584713 -0.044418547 0.09081999 -0.0780975 0.0274715 -0.06813265 0.006772312 -0.098110855
-0.038481273 -0.004815599 -0.052484643 -0.10763089 -0.078545086 -0.09406224 -0.00824595 0.01701231
0.02662276 0.103997104 0.035806917 -0.005123135 -0.024296056 0.051422015 -0.08027873 0.13611822
-0.013211927 0.009012712 -0.03853136 0.005007305 0.09249429 -0.05285013 -0.030535145 -0.00637387
0.002975542 0.048236325 -0.030589849 -0.059445463 -0.083263166 0.08414767 -0.05612593 -0.059837036
-0.063340805 -0.010972938 0.009804585 0.06652085 0.021246705 0.06433693 -0.0995799 -0.056817092
00000000: af04 57bd 5bfd f4bc 855e 39bd b2b8 793d
00000010: b45a eebc f59a ebbb 19ed 70bd dde7 223d
00000020: 1a1c df3c 09bb 85bd c566 c73d eb30 b63d
00000030: 2283 d43d b32e c83d a7df a83d 547b 0fbd
00000040: 0a55 83bd 8ff0 11bd d085 52bd d3fd 843d
00000050: fd4d 50bc e6af 66bd 3c07 063d abc1 44bd
00000060: 183f 023d 168e ce3d 6b10 b63c 5701 da3d
00000070: 3c1b d23d d812 923d 379a e33d a19f c03d
00000080: 6229 a3bc 776d 35bd 8662 d9bd 5daf 30bd
00000090: da0f 72bc 762f 17bd 9639 ddbd 831a d13c
000000a0: 868e 5f3d 2db9 893d 74e9 9dbb 5381 5bbc
000000b0: 42e6 1cbd 9c8b 8b3b 6f51 e53d 140b f83c
000000c0: a4f4 533d b34e 2f3d 5f6a 183d 0a9d acbd
000000d0: e627 39bd 815e 8abd e711 173d 58af 75bd
000000e0: 5fc5 733d bd0f ab3d e6c4 2f3c 64b2 a83c
000000f0: 599c d93d f7f2 fb3c f45e a7bd 80f5 323d
00000100: da80 d0bd bab9 473d 89be d2bd d777 69bd
00000110: 4871 893d 86b6 78bc 0ecb 8dbd 5d73 2e3d
00000120: c84b babd 00dc c53d 4873 2ebd a5c9 9ebc
00000130: e8aa 343d c144 3bbd 7c17 c7bd b92a eabc
00000140: 9f58 393c 73c2 b1ba 8c26 c43c fa36 2dbc
00000150: 7630 1cbc 0ce7 49bd 1a03 083d c784 e33c
00000160: 9bd8 633d 2f4d 22bd 9153 ed3c 88d7 01bd
00000170: 0e4c f1bc 4945 d6bd 7c7e 6b3d 2221 4dbd
00000180: 3f8b 9b3c ea22 293a eaf0 683c 4d76 adbb
00000190: 162c 753c 7e4e 7a3c 45f7 9bbd 0531 0e3e
000001a0: ca11 e0bc 4d07 d5bd fe9f 933b 5a3b 82bd
000001b0: 11ae 0b3c 9378 f13a 540d bdbd 0965 7bbd
000001c0: ef60 99bd 1216 00be 2d62 5ebd a228 94bc
000001d0: fafa 303c 0671 8c3d ac5d 033c 2b91 8cbd
000001e0: 1cc2 2ebd df6a a6bd d4b9 4abc 361c 693d
000001f0: 03f7 563d 4659 95bc 05a9 69bd 2063 abbd
00000200: 54a6 b6bc 48c8 72bd 5530 4d3d beb8 c7bb
00000210: 8879 b2bd f77b 733d 6590 bdbd 1252 bbbc
00000220: 500f d0bd 559b 63bd 78a4 1abd 28a1 ee3d
00000230: dcd4 183d eb90 34bd baac b83d c3a4 673d
00000240: f243 dcbd c64d 69bc 9ae8 09bd 9627 a83a
00000250: 7c44 84bd 9bdb aebd f721 dcbb 9542 81bc
00000260: c576 e3bd ea24 28bd cc95 083d e681 a1bb
00000270: c340 703c 81d4 bf3c 623a adbb a128 bcbc
00000280: 31e9 ce3d 5c43 20bd 9535 04bc 994b 0bbd
00000290: 499f ce3c 9db4 6abd 7445 773d c0d0 ee3d
000002a0: b49f c7bd 741d 27bd ac89 353c a88e c7bd
000002b0: bf39 d43d f10a 3cbd fbc6 15bd 42ac 813d
000002c0: 75f6 abbc 6d48 813a fb2d e4bd 67fc 843b
000002d0: dd8a a9bc 2df8 8d3d 7a1d 223d 0102 b93d
000002e0: f320 833d 7ee4 663d 6de9 ddbd ac6b f63c
000002f0: 1f85 a83d acd2 6abd 0dde 933d d763 05bd
00000300: 88d7 92bd dc01 afbd 4d42 373d 0eaa 623b
00000310: fe1a 353d b4e4 263d cd29 d8bd a195 203d
00000320: 7813 8bbd d79c 8d3d 35a7 eb3d d166 f63c
00000330: 8ac6 67bd 6a1f 3c3d b48e 6abc c35f 26bc
00000340: a57b 5b3d 39f0 35bd d5ff b93d 95f1 9fbd
00000350: e90b e13c 2189 8bbd 45ea dd3b 58ee c8bd
00000360: 8a9e 1dbd 2ccc 9dbb 23fa 56bd 966d dcbd
00000370: 3fdc a0bd b4a3 c0bd 051a 07bc 665d 8b3c
00000380: f917 da3c 6ffc d43d 46aa 123d f9df a7bb
00000390: 8608 c7bc e49f 523d 2d69 a4bd 9362 0b3e
000003a0: d776 58bc 0eaa 133c 0fd3 1dbd 5214 a43b
000003b0: a56d bd3d 6179 58bd d724 fabc e6db d0bb
000003c0: 5001 433b 7493 453d 9097 fabc 167d 73bd
000003d0: e185 aabd 9d55 ac3d 4ee4 65bd ae17 75bd
000003e0: d3b8 81bd d6c7 33bc 69a3 203c 153c 883d
000003f0: 920d ae3c 15c3 833d 8cf0 cbbd 0ab9 68bd

lstm.bias_ih_l0 f4 [512]
0.028377242 0.072716966 0.048707265 0.01821529 0.056591943 0.016591122 0.08727348 0.043287393
0.055879604 -0.025177103 0.10147648 0.0048818854 0.103481404 0.021858562 0.11959741 -0.03220729
0.022694644 0.07690364 0.09923393 -0.03936393 0.13938718 0.047683887 0.08379695 -0.0415389
0.11878069 0.054237746 -0.075772375 0.11576187 0.13345046 0.13834359 -0.011548285 -0.06030056
0.0611688 0.06270888 0.05930065 -0.011004315 0.0763193 -0.017492352 0.045589224 0.043982353
0.07244026 0.12596439 -0.051320665 0.07836528 0.08096118 0.09109388 0.07395575 0.122773744
0.09607016 -0.1765742 0.056982193 0.08601498 -0.055129737 -0.027881669 0.14860338 0.02474863
-0.055682022 -0.04138546 0.11713992 0.01854706 0.111322984 -0.028021999 0.00077048014 0.00868288
-0.048276912 0.10311464 0.0064403326 0.0526077 -0.04651454 0.08433052 0.11872119 0.018685322
0.036868744 0.09634207 -0.080694094 0.088297665 -0.04808561 -0.030184211 0.050137755 0.08251604
0.032359257 0.0029902298 0.02540591 0.12050395 0.10344095 0.06791781 -0.016593141 -0.06989563
0.07832632 0.09326362 0.07076635 -0.03297755 0.057464547 0.06488422 0.10260346 0.044132315
0.12844384 -0.000637706 0.011887042 -0.013149972 -0.024272738 -0.049802896 0.17446989 -0.064782776
0.11209223 0.041056145 0.13228235 0.10146324 0.04990539 -0.0014891214 0.13229726 0.023137508
0.08222999 0.35893372 -0.020932734 -0.041573096 0.109669626 0.25752378 0.09507518 0.12573616
0.0045573427 0.10772013 0.12825397 -0.031294223 0.0012298179 -0.046624564 0.023142576 -0.028680513
0.09938536 -0.04952822 -0.055986915 -0.06180785 -0.042095453 -0.099527925 0.10050365 -0.02083363
0.084894225 0.1097649 0.14378564 0.11594915 0.11561499 0.057674102 0.03632527 -0.0184391
-0.029012883 -0.031044161 0.046231195 -0.04390244 0.0091501605 0.0331744 0.041497353 0.03971542
0.03212224 0.0050654984 -0.007688248 -0.10624924 0.016850289 -0.010913306 -0.055477187 0.07599491
0.09084886 0.06778039 -0.019563677 -0.009701258 -0.0127696395 0.037827488 0.083216466 0.0506425
0.03919024 -0.0058128093 0.021486657 0.018777363 0.04595078 0.013127081 -0.027608024 0.08275028
-0.008034014 -0.07041194 0.117435075 0.049328655 0.041217357 0.08103996 0.057762384 0.06622651
0.0044747395 -0.0034227497 0.0462681 0.032141365 0.0245572 0.09330742 0.027187869 0.041777335
0.033969868 0.055581592 -0.05543801 -0.0023052082 -0.046117075 -0.00988902 0.06942698 0.0039851456
0.022309238 0.039324723 0.070797786 0.06493882 0.0074382 0.057962455 -0.043202188 -0.042347413
0.036596585 0.075182445 0.07803685 -0.020868886 0.11003778 0.02311015 0.054767165 -0.00019853801
-0.020468954 0.09553835 0.027501483 -0.013379066 -0.046223376 0.031076666 0.087857224 0.0039046092
0.014987822 0.10792379 0.020997701 0.012943601 0.098401286 0.06424654 0.011870036 -0.08267518
0.0992207 -0.051920585 0.060550027 0.02030418 0.077535264 -0.009961592 0.013529777 0.01556873
0.090375036 -0.10608076 0.057085473 0.031399608 0.027000895 0.07019635 0.11444654 -0.0512163
-0.045974705 -0.06711533 0.017267838 0.10908311 -0.03508813 0.07095486 -0.011269643 -0.049996715
00000000: 6477 e83c a2ec 943d 4581 473d 3b38 953c
00000010: f4cc 673d 1bea 873c 70bc b23d 1f4e 313d
00000020: 03e2 643d 3640 cebc e7d2 cf3d 39f8 9f3b
00000030: 0fee d33d ba10 b33c 7def f43d cbeb 03bd
00000040: 1eea b93c a87f 9d3d 293b cb3d 123c 21bd
00000050: 83bb 0e3e 2e50 433d bc9d ab3d b224 2abd
00000060: 4a43 f33d 6628 5e3d 8c2e 9bbd 8f14 ed3d
00000070: 3da7 083e f1a9 0d3e 0535 3dbc b8fd 76bd
00000080: 238c 7a3d 836d 803d 3de5 723d 714b 34bc
00000090: 4b4d 9c3d 1f4c 8fbc c4bb 3a3d d726 343d
000000a0: 8f5b 943d cffc 003e 9e35 52bd fa7d a03d
000000b0: face a53d 6e8f ba3d 1d76 973d cd70 fb3d
000000c0: 6fc0 c43d decf 34be 2966 693d 9f28 b03d
000000d0: b8cf 61bd 1968 e4bc 7c2b 183e a4bd ca3c
000000e0: d512 64bd cd83 29bd 0ee7 ef3d 01f0 973c
000000f0: 4efd e33d 648e e5bc 0cfa 493a a342 0e3c
00000100: 03be 45bd c52d d33d 6d09 d33b 2c7b 573d
00000110: 0886 3ebd 7bb5 ac3d 1824 f33d f611 993c
00000120: ae03 173d fe4e c53d f242 a5bd 68d5 b43d
00000130: 6bf5 44bd e144 f7bc 3f5d 4d3d 2bfe a83d
00000140: 248b 043d bbf7 433b 0e20 d03c c6ca f63d
00000150: d9d8 d33d 7e18 8b3d 57ee 87bc 7125 8fbd
00000160: 8d69 a03d ff00 bf3d f3ed 903d 7813 07bd
00000170: f25f 6b3d 05e2 843d c321 d23d 16c4 343d
00000180: c886 033e ba2b 27ba dec1 423c fb72 57bc
00000190: 9fd7 c6bc 1ffe 4bbd 3ca8 323e d5ac 84bd
000001a0: 9c90 e53d 7d2a 283d 0675 073e f6cb cf3d
000001b0: 9869 4c3d 9f2e c3ba ef78 073e df8a bd3c
000001c0: 3268 a83d 29c6 b73e 207b abbc 8d48 2abd
000001d0: 789a e03d 28da 833e c7b6 c23d fbc0 003e
000001e0: c355 953b 5f9c dc3d 0255 033e 5f2e 00bd
000001f0: d731 a13a 66f9 3ebd 8095 bd3c 65f3 eabc
00000200: 8d8a cb3d 1ade 4abd 8952 65bd 3a2a 7dbd
00000210: 486c 2cbd 4cd5 cbbd dcd4 cd3d 4aab aabc
00000220: 06dd ad3d 6bcc e03d 8b3c 133e bf76 ed3d
00000230: 8dc7 ec3d ae3b 6c3d cec9 143d 980d 97bc
00000240: 6dac edbc 5350 febc ec5c 3d3d 0cd3 33bd
00000250: 8eea 153c e1e1 073d 21f9 293d a3ac 223d
00000260: 9c92 033d 7bfc a53b b3ed fbbb 3499 d9bd
00000270: 9e09 8a3c b9cd 32bc 0c3c 63bd 38a3 9b3d
00000280: f80e ba3d 72d0 8a3d 0144 a0bc 06f2 1ebc
00000290: c037 51bc fff0 1a3d 656d aa3d 836e 4f3d
000002a0: f285 203d 6179 bebb c904 b03c fcd2 993c
000002b0: e336 3c3d f812 573c 392a e2bc fb78 a93d
000002c0: 19a1 03bc 2334 90bd cd81 f03d d80c 4a3d
000002d0: 88d3 283d 47f8 a53d 4098 6c3d c4a1 873d
000002e0: d6a0 923b 3650 60bb 9f83 3d3d aaa6 033d
000002f0: 2e2c c93c f617 bf3d 18b9 de3c b61e 2b3d
00000300: fd23 0b3d 86a9 633d f712 63bd fa12 17bb
00000310: 42e5 3cbd 8e05 22bc bc2f 8e3d d395 823b
00000320: ddc1 b63c f612 213d 6efe 903d a5fe 843d
00000330: 25bc f33b 0a6a 6d3d c7f4 30bd 7b74 2dbd
00000340: 4de6 153d 41f9 993d c9d1 9f3d 3af5 aabc
00000350: 7d5b e13d 7f51 bd3c 8953 603d a42e 50b9
00000360: 82ae a7bc 9ca9 c33d ca4a e13c df33 5bbc
00000370: b954 3dbd 7e94 fe3c 7dee b33d 79e4 7f3b
00000380: 7b8f 753c 2607 dd3d 5f03 ac3c 6611 543c
00000390: 9d86 c93d b193 833d 8a7a 423c 9b51 a9bd
000003a0: 3934 cb3d aeaa 54bd 4e03 783d f454 a63c
000003b0: cfca 9e3d f235 23bc ffab 5d3c fd13 7f3c
000003c0: 8c16 b93d df40 d9bd 75d2 693d e09c 003d
000003d0: fb30 dd3c 1bc3 8f3d f362 ea3d 2fc8 51bd
000003e0: f94f 3cbd c373 89bd 4875 8d3c f766 df3d
000003f0: 92b8 0fbd c850 913d 4fa4 38bc 5bc9 4cbd

lstm.bias_hh_l0 f4 [512]
0.015740262 0.08356417 0.121886 -0.012349071 0.10966943 -0.010180947 -0.004232608 -0.005334257
0.021193502 0.014322255 0.04748089 0.106373005 0.121490605 0.12454878 0.056899842 0.0865061
-0.02176642 -0.03938854 0.09789702 0.12931466 0.003905757 0.12317202 0.061496183 0.109287836
0.03961832 -0.038154535 0.04699683 0.13294794 0.11312282 0.19210564 0.103612155 0.016441692
0.06418705 0.05834919 -0.0059978026 0.01105854 0.008046073 0.08704994 -0.039573252 0.021006035
-0.06875814 0.0030796104 0.06261967 0.07726506 -0.024017278 0.115084045 -0.019928025 0.014790553
0.08450841 -0.08338215 0.030570224 0.050340787 0.07711693 0.03927002 0.0025966233 0.110028654
0.094064295 -0.030453758 0.04034546 -0.059306815 0.030211048 -0.049749754 0.016465941 0.029943693
0.056513008 -0.0451179 -0.0053179627 0.04017604 0.060209 0.098918 0.038776763 0.07473713
0.090119444 -0.03767902 -0.017203316 0.0013285769 0.06379684 -0.052757308 0.026684161 0.037208896
0.024817348 0.09078542 0.09194162 0.0737018 0.08136567 -0.011945406 0.11834599 0.030119134
0.02017558 -0.014696171 -0.025312299 -0.02093771 0.11478476 0.12332969 0.0334412 0.08360962
0.13472314 0.091119245 0.035248633 0.016710626 0.024536463 0.07517932 0.10740521 -0.016180262
-0.025274321 -0.104633905 0.15788166 0.025887279 0.17040339 0.08879143 0.10247049 0.11587128
-0.0066934284 0.32651103 0.0697383 0.08207858 0.10444637 0.18038806 0.08535003 0.0783016
0.065457314 -0.028863074 0.078172445 0.037424415 -0.024400167 0.04630418 -0.022728056 -0.04383989
0.05326951 0.01574552 -0.028022112 -0.05059053 0.045228675 -0.055827502 0.072713174 -0.013196223
-0.009896114 -0.0111355195 -0.0013938404 -0.009273204 -0.026672922 -0.048819352 0.10449606 0.04968765
0.035137177 -0.04592001 -0.034177054 0.032024205 -0.031117762 0.087571025 0.023094974 0.029630812
-0.053416282 -0.02681283 -0.094739065 -0.08414005 0.004439338 0.07607443 0.09507842 0.052183162
-0.0013520352 -0.031026047 -0.031976644 0.03208867 0.10349232 0.10480228 -0.047884762 0.016209092
-0.031478196 0.0036920477 0.033970766 0.026116949 0.03427908 0.030223161 0.056743007 0.04723571
-0.0068308813 -0.0919809 0.005730876 -0.052756466 -0.012788282 0.033175435 0.11825554 0.11142899
0.009278834 0.091565534 0.049928676 0.048729718 -0.007826282 -0.003805654 -0.045147598 -0.009478839
0.048720647 -0.05263648 -0.016457932 -0.0028649697 -0.041115645 8.63984e-05 -0.004450773 0.0016760787
0.0755949 -0.02667045 -0.083373815 0.109193586 -0.0014929702 0.00028929446 -0.017617373 -0.011178201
0.08347585 0.030053768 0.003234887 -0.024262201 0.01138548 -0.035955418 -0.06621061 0.025050247
0.05531891 0.046997014 -0.057353493 0.10855964 -0.06040645 0.020522512 -0.016911112 0.021741705
0.090098694 0.067835785 0.10734834 -0.08438322 -0.034437038 -0.046701286 0.038763512 0.032152794
0.02592156 0.03305181 0.07664481 -0.027542958 0.042778295 0.06947109 -0.004915405 0.022983847
0.045259807 -0.09973515 0.08410644 0.096052244 -0.022327855 0.13511011 0.012553651 -0.01755594
0.019138705 -0.000759629 0.006110663 -0.0031073166 -0.03889469 0.07688992 -0.041704107 0.05796538
00000000: b9f1 803c b123 ab3d 5e9f f93d c253 4abc
00000010: 5e9a e03d fdcd 26bc b0b1 8abb feca aebb
00000020: ff9d ad3c e4a7 6a3c 527b 423d 17da d93d
00000030: 11d0 f83d 6e13 ff3d cf0f 693d 1c2a b13d
00000040: 7e4f b2bc e155 21bd 3c7e c83d 106b 043e
00000050: bbf7 7f3b 9d41 fc3d 6ce3 7b3d 4dd2 df3d
00000060: d246 223d ee47 1cbd bf7f 403d 8123 083e
00000070: f0ac e73d 57b7 443e 9c32 d43d bab0 863c
00000080: 8074 833d 8fff 6e3d 3789 c4bb e12e 353c
00000090: add3 033c 3d47 b23d 9017 22bd d914 ac3c
000000a0: 11d1 8cbd 4ad3 493b be3e 803d 253d 9e3d
000000b0: e2bf c4bc 2fb1 eb3d 1940 a3bc 1354 723c
000000c0: bf12 ad3d 43c4 aabd 686e fa3c 2432 4e3d
000000d0: 7bef 9d3d 9ad9 203d 1c2c 2a3b b456 e13d
000000e0: c8a4 c03d 297a f9bc 4841 253d b4eb 72bd
000000f0: 297d f73c 66c6 4bbd 95e3 863c 7a4c f53c
00000100: 2f7a 673d 8ccd 38bd 4e42 aebb a28f 243d
00000110: b69d 763d 8595 ca3d 62d4 1e3d c80f 993d
00000120: 8b90 b83d 5155 1abd f8ed 8cbc a523 ae3a
00000130: eba7 823d 0c18 58bd be98 da3c 5b68 183d
00000140: c04d cb3c b5ed b93d e34b bc3d f8f0 963d
00000150: 0ba3 a63d aab6 43bc 625f f23d 67bc f63c
00000160: 4247 a53c 35c8 70bc bd5b cfbc 8f85 abbc
00000170: 4614 eb3d 4794 fc3d a4f9 083d 853b ab3d
00000180: ddf4 093e ba9c ba3d df60 103d b9e4 883c
00000190: b100 c93c 9ef7 993d 43f7 db3d 788c 84bc
000001a0: 180c cfbc 4d4a d6bd bbab 213e 8f11 d43c
000001b0: 3a7e 2e3e 48d8 b53d 0cdc d13d ec4d ed3d
000001c0: 8c54 dbbb 742c a73e f4d2 8e3d d118 a83d
000001d0: fae7 d53d a6b7 383e ffcb ae3d 975c a03d
000001e0: 7c0e 863d 4172 ecbc e018 a03d 584a 193d
000001f0: dce2 c7bc 74a9 3d3d 3030 babc 7591 33bd
00000200: 2131 5a3d c0fc 803c a18e e5bc 0438 4fbd
00000210: b441 393d 61ab 64bd a5ea 943d f934 58bc
00000220: 4f23 22bc c171 36bc 86b1 b6ba a3ee 17bc
00000230: 2c81 dabc cdf6 47bd 0802 d63d 4785 4b3d
00000240: 00ec 0f3d 9f16 3cbd 3dfd 0bbd d02b 033d
00000250: adea febc 7058 b33d ac31 bd3c 51bc f23c
00000260: 08cb 5abd 94a6 dbbc 8e06 c2bd 9e51 acbd
00000270: de77 913b e9cc 9b3d 7ab8 c23d 03be 553d
00000280: c636 b1ba 562a febc f1f9 02bd 696f 033d
00000290: c8f3 d33d 94a2 d63d d022 44bd eec8 843c
000002a0: 48ef 00bd 48f6 713b ee24 0b3d 36f3 d53c
000002b0: 3868 0c3d 9096 f73c 5b6b 683d 3b7a 413d
000002c0: 96d5 dfbb 7b60 bcbd 12ca bb3b 2a17 58bd
000002d0: f185 51bc f7e2 073d f62f f23d e234 e43d
000002e0: 4006 183c b686 bb3d 0382 4c3d d098 473d
000002f0: ce39 00bc 4768 79bb b0ec 38bd 224d 1bbc
00000300: 4d8f 473d 5a99 57bd c9d2 86bc 37c2 3bbb
00000310: e168 28bd ca30 b538 cad7 91bb deaf db3a
00000320: 80d1 9a3d fd7b dabc e4bf aabd e3a0 df3d
00000330: c4af c3ba 72ac 9739 4f52 90bc c624 37bc
00000340: 63f5 aa3d 5233 f63c 6600 543b 86c1 c6bc
00000350: 2a8a 3a3c fd45 13bd 6e99 87bd 2d36 cd3c
00000360: 1596 623d f17f 403d 7feb 6abd 8454 de3d
00000370: c16c 77bd d41e a83c 2c89 8abc a91b b23c
00000380: aa85 b83d 7ded 8a3d 72d9 db3d 1cd1 acbd
00000390: da0d 0dbd d949 3fbd 7dc6 1e3d a6b2 033d
000003a0: 7459 d43c 5661 073d f4f7 9c3d c5a1 e1bc
000003b0: 4b38 2f3d dc46 8e3d 6811 a1bb 9f48 bc3c
000003c0: 5962 393d f141 ccbd ff3f ac3d 0ab7 c43d
000003d0: e8e8 b6bc 4e5a 0a3e d4ad 4d3c 7ad1 8fbc
000003e0: c6c8 9c3c d721 47ba f53b c83b 1fa4 4bbb
000003f0: 0a50 1fbd 7678 9d3d edd1 2abd 1b6d 6d3d

lstm.weight_ih_l0_reverse f4 [512, 32]
-0.090164416 0.06564267 0.03329584 -0.12513186 -0.017693011 -0.014342648 0.09774818 0.0012298285
0.082826845 -0.0826111 0.100342385 0.055690285 -0.0028127993 -0.01919016 0.07040422 0.049078673
0.0075828596 -0.09701175 -0.09759013 -0.100268506 0.075706124 -0.069159225 0.1273085 -0.06618357
0.020007033 0.009689948 -0.10465027 -0.117471695 0.13988249 -0.01850565 -0.0029417987 0.03609764
0.309533 -0.0676612 -0.11773645 0.089657806 -0.2852232 0.19560248 0.2019264 0.015810493
0.08840369 -0.049564056 0.004786643 0.2640496 -0.016429618 -0.045447316 0.05649979 -0.08953275
0.0029773628 -0.1727796 0.20144887 0.0412915 -0.006157116 -0.06282325 0.1166698 -0.151134
-0.06390884 -0.02748565 0.12318535 -0.25638872 -0.03594515 0.044230185 0.02244193 0.065949656
0.52372634 -0.30536053 0.0035238324 -0.33543715 0.111990236 0.23342757 0.1789539 -0.044292647
0.5897901 0.32854456 0.49182528 0.37688124 0.082323804 -0.035176083 0.89463633 0.13498384
-0.041507315 0.34170166 0.24637683 -0.18034491 0.06936996 -0.10934773 -0.12952892 0.059081495
-0.26493612 0.0719437 -0.21689719 0.25078753 0.1928811 -0.08366758 -0.094152845 0.15846051
0.19218318 0.13914175 -0.06560778 0.05016846 -0.011377324 -0.049604643 -0.061162546 -0.1499013
-0.13879688 0.06430565 0.015765145 0.07437588 0.070727736 -0.077577904 0.15441638 0.04847212
-0.021921398 -0.10828933 -0.026289975 -0.073839076 -0.087217286 0.021521691 0.087648936 -0.097416
-0.039824586 -0.035322733 0.104552016 0.08191596 0.05171572 -0.16971482 -0.08815594 0.10916814
0.12776385 -0.08670432 -0.008999729 -0.026069041 -0.0028815197 0.016649943 0.044867646 -0.06901035
-0.032664042 0.03316572 0.0027109436 0.025873069 -0.057308625 -0.050961707 0.07416135 -0.06125802
0.06618116 -0.0619741 -0.026334587 0.1096803 -0.06660155 -0.017096806 -0.03959612 0.011343779
0.13087605 -0.061294075 0.00091936335 0.033125322 0.0084888395 -0.012526599 -0.11850754 0.04736198
-0.034047544 0.057414554 -0.055580854 0.013437527 -0.05892714 0.06793646 0.013846355 -0.13572241
-0.026850428 0.12200769 0.012286561 0.085433014 0.048916314 -0.021092622 0.001213062 -0.04436278
-0.030308772 -0.0011830097 0.006587142 0.037848305 0.043604936 0.0430887 0.099438004 -0.1372399
0.053915035 -0.06916554 -0.013341987 0.015911216 0.051831286 -0.12601005 -0.011510767 -0.08486762
0.14948203 0.017786546 -0.01748381 -0.047119834 -0.018048987 -0.083264634 -0.01730668 -0.119629376
-0.13429645 -0.08512681 -0.04607233 -0.0913717 -0.04300331 -0.07642766 0.13584279 -0.016166808
-0.098036125 -0.09796482 0.012789314 0.04687397 0.008978727 -0.08942712 0.054139797 0.058176156
0.008360061 -0.05871836 -0.0060852296 0.03132356 0.12142129 0.009296786 -0.15979856 0.021517262
0.031014293 -0.042436045 -0.050015025 -0.024770407 0.02793958 -0.018534884 -0.031003835 -0.030003553
-0.023553152 -0.0048663053 0.05628725 -0.042548362 0.14635067 -0.092986554 0.05704244 0.046391018
0.030391667 0.0031368528 -0.082588784 0.013961347 0.035408456 0.099369675 0.09607552 -0.094042294
-0.047944754 -0.1196311 0.1782695 -0.07387175 -0.05196542 0.06101733 -0.02064856 0.11429806
00000000: 1fa8 b8bd aa6f 863d 3861 083d 9122 00be
00000010: eff0 90bc 6dfd 6abc 3330 c83d 3232 a13a
00000020: 1fa1 a93d 0230 a9bd 4f80 cd3d 7f1b 643d
00000030: f156 38bb af34 9dbc 1630 903d b806 493d
00000040: a379 f83b 19ae c6bd 56dd c7bd 9359 cdbd
00000050: d00b 9b3d 5aa3 8dbd 295d 023e 408b 87bd
00000060: cae5 a33c 96c2 1e3c e152 d6bd 0095 f0bd
00000070: 5b3d 0f3e 2999 97bc 31cb 40bb 1edb 133d
00000080: 1c7b 9e3e f591 8abd cf1f f1bd 839e b73d
00000090: c608 92be 044c 483e cbc5 4e3e 0285 813c
000000a0: fe0c b53d ae03 4bbd 46d9 9c3b 8231 873e
000000b0: 6897 86bc f726 3abd 536c 673d f25c b7bd
000000c0: dc1f 433b 23ed 30be 9d48 4e3e 4721 293d
000000d0: a2c1 c9bb 7aa9 80bd 93f0 ee3d dfc2 1abe
000000e0: a3e2 82bd 9629 e1bc 9a48 fc3d 6245 83be
000000f0: 393b 13bd b62a 353d 23d8 b73c 9d10 873d
00000100: ee12 063f 3758 9cbe 19f0 663b 6bbe abbe
00000110: 235b e53d a307 6f3e b13f 373e 356c 35bd
00000120: 7cfc 163f fe36 a83e 86d0 fb3e 94f6 c03e
00000130: 6299 a83d cc14 10bd e306 653f 3439 0a3e
00000140: 9303 2abd 85f3 ae3e 354a 7c3e 56ac 38be
00000150: d611 8e3d b4f1 dfbd 3ba3 04be 70ff 713d
00000160: b5a5 87be 3857 933d 4c1a 5ebe 3967 803e
00000170: a082 453e e859 abbd 35d3 c0bd 7943 223e
00000180: abcb 443e 2d7b 0e3e 5f5d 86bd 717d 4d3d
00000190: f567 3abc 3d2e 4bbd 9485 7abd ba7f 19be
000001a0: c520 0ebe aeb2 833d e825 813c 6252 983d
000001b0: b4d9 903d 2ae1 9ebd 541f 1e3e b48a 463d
000001c0: 8194 b3bc ccc6 ddbd 135e d7bc f138 97bd
000001d0: fa9e b2bd 424e b03c 4981 b33d 0a82 c7bd
000001e0: 1b1f 23bd 92ae 10bd 5e1f d63d 8ec3 a73d
000001f0: ddd3 533d b9c9 2dbe 1a8b b4bd 8c93 df3d
00000200: 87d4 023e 0992 b1bd 9973 13bc be8e d5bc
00000210: e1d7 3cbb 7665 883c 23c7 373d 4c55 8dbd
00000220: bbca 05bd c7d8 073d 16aa 313b c2f3 d33c
00000230: 73bc 6abd 39bd 50bd e8e1 973d b1e9 7abd
00000240: fd89 873d 8ed8 7dbd a2bb d7bc 11a0 e03d
00000250: 6566 88bd 9a0e 8cbc 8b2f 22bd 42db 393c
00000260: 5f04 063e 7f0f 7bbd 6e01 713a 6bae 073d
00000270: c614 0b3c 5d3c 4dbc 15b4 f2bd a3fe 413d
00000280: 7075 0bbd 862b 6b3d c0a8 63bd 1329 5c3c
00000290: 965d 71bd 4522 8b3d d2db 623c d1fa 0abe
000002a0: 6ef5 dbbc 2bdf f93d 924d 493c 81f7 ae3d
000002b0: 795c 483d 6fca acbc 9bff 9e3a bfb5 35bd
000002c0: 1a4a f8bc 380f 9bba f4d8 d73b d306 1b3d
000002d0: 179b 323d c77d 303d 27a6 cb3d 9e88 0cbe
000002e0: 03d6 5c3d aaa6 8dbd 5998 5abc 3d58 823c
000002f0: 0b4d 543d c708 01be a897 3cbc 13cf adbd
00000300: d111 193e 17b5 913c 353a 8fbc ba00 41bd
00000310: 78db 93bc a686 aabd bdc6 8dbc 3f00 f5bd
00000320: 0285 09be f756 aebd 57b6 3cbd 1621 bbbd
00000330: 3d24 30bd 1b86 9cbd 5f1a 0b3e 4170 84bc
00000340: 2ac7 c8bd c8a1 c8bd 458a 513c ecfe 3f3d
00000350: 831b 133c 9125 b7bd b1c1 5d3d 1f4a 6e3d
00000360: a3f8 083c aa82 70bd 9b66 c7bb 224d 003d
00000370: baab f83d 8c51 183c 3ca2 23be f844 b03c
00000380: b011 fe3c 6bd1 2dbd 8edc 4cbd 4feb cabc
00000390: 8ce1 e43c 78d6 97bc c1fb fdbc 03ca f5bc
000003a0: 8af2 c0bc 8775 9fbb 768d 663d 3147 2ebd
000003b0: f3dc 153e bc6f bebd 55a5 693d 8204 3e3d
000003c0: f2f7 f83c a893 4d3b 4f24 a9bd 22be 643c
000003d0: 7508 113d 5482 cb3d 3ec3 c43d 3f99 c0bd
000003e0: b861 44bd 2601 f5bd 488c 363e 124a 97bd
000003f0: b1d9 54bd 4fed 793d 2b27 a9bc 1a15 ea3d

lstm.weight_hh_l0_reverse f4 [512, 128]
0.1357427 -0.11783807 -0.019255983 0.13208526 0.010956592 -0.10970682 0.12743735 -0.07464521
0.045628905 0.028297666 -0.1113208 0.03950665 -0.04065524 0.031176835 -0.033901535 -0.073088184
-0.10521859 0.0050033685 -0.055960067 -0.106311984 -0.041868832 0.047999572 -0.03613361 0.02216561
0.064145505 0.079406016 0.05828621 -0.082729004 0.06198716 0.044822183 0.03688014 0.024064876
0.007206358 0.09245349 0.10139682 -0.026654279 -0.056714382 -0.0869131 -0.017239269 0.05888473
-0.007327126 -0.0011624739 0.04754767 -0.045538243 -0.024453143 0.050999798 0.103205875 -0.061319225
0.051667877 -0.043398812 -0.0069945604 -0.051363155 -0.0038915034 0.024326261 0.08625229 0.027337274
-0.07342172 -0.03247851 0.09940412 0.06538913 -0.016939333 -0.067493066 0.036568888 -0.05591375
-0.04235191 0.107566066 -0.07843973 -0.09964851 0.033475965 0.022225956 0.07186924 -0.06412467
-0.04072098 0.09514806 0.10719392 0.008366841 0.11447931 0.12996876 -0.03499786 -0.09838099
-0.045123618 -0.0657675 0.10532322 0.07658538 0.034396127 -0.08779753 -0.035865087 -0.046271633
0.11582553 -0.018343 0.0591901 -0.10077816 0.06550644 0.045450408 0.028100966 0.06853392
-0.09619713 -0.08207632 -0.037602898 0.05745359 0.046628326 0.08876243 -0.09776457 0.0015841514
-0.0042257174 0.0618263 0.0071640355 -0.013340071 -0.1000998 -0.051079508 -0.055218823 -0.020590317
0.09815518 0.01571003 0.046746977 -0.10599656 0.028772775 -0.10156747 -0.055645768 -0.019629907
-0.02216042 0.05661257 0.0066045634 0.037848905 0.047717046 0.04062767 -0.06711341 0.051631253
-0.06700356 -0.017612465 0.14242515 0.07453246 0.103966676 -0.06031995 0.0026203159 0.1050561
-0.05600543 -0.071990736 -0.028005686 -0.26803792 -0.08449038 0.021736825 0.00054681755 0.11933095
-0.02677809 -0.26790768 0.056517933 -0.013862266 0.054888498 -0.056643106 -0.0006883646 0.035685804
-0.029839212 0.010138358 0.009178892 0.038185164 0.042232305 0.14687893 0.023472784 -0.015229146
0.11075609 -0.120068185 -0.02933341 -0.08847879 -0.038785484 0.043932427 0.06492447 0.54608446
-0.052628625 0.010658999 0.06521028 0.060238156 0.04757367 -0.032174714 -0.020828726 -0.23778027
0.055945802 -0.077913225 -0.059270136 0.026847197 -0.06453724 -0.042840354 -0.040187985 -0.019580266
0.009859553 0.07103577 -0.09385809 0.07416447 -0.0059093395 -0.0075787245 0.0028859836 0.07679054
-0.0067246626 -0.120831035 0.06871462 -0.06762064 0.037901804 0.10718302 0.031374402 -0.061984845
0.041226096 -0.06533198 -0.14597356 0.01982017 -0.0040689786 -0.05681571 0.07156529 -0.12179233
-0.09006305 0.06404099 0.027745102 0.004560928 0.05755538 0.0938392 -0.010059742 0.16127005
0.082769416 -0.045251932 -0.09762337 0.1179804 0.015785536 0.20730232 -0.42458636 -0.14650843
0.059400406 -0.064227 0.044241756 -0.05476065 0.020832747 -0.046788346 0.009180165 -0.00036445446
0.045360636 0.09620368 -0.032378785 0.03341033 0.04896353 -0.010071675 0.038090922 0.0053675924
-0.12376608 -0.256901 0.057387874 -0.08507398 -0.0817323 -0.005850232 0.08675645 0.00406579
-0.094799526 0.022423932 -0.02185929 0.022337237 -0.00606983 -0.10986492 -0.0679186 -0.06525143
00000000: 2200 0b3e 1655 f1bd b9be 9dbc 5c41 073e
00000010: 4783 333c f8ad e0bd f07e 023e 96df 98bd
00000020: 60e5 3a3d 82d0 e73c 29fc e3bd bad1 213d
00000030: 1c86 26bd 9066 ff3c 56dc 0abd 42af 95bd
00000040: d87c d7bd 4cf3 a33b 6236 65bd 19ba d9bd
00000050: a77e 2bbd 339b 443d d600 14bd a794 b53c
00000060: b85e 833d 9f9f a23d 85bd 6e3d d36d a9bd
00000070: 40e6 7d3d 7797 373d a10f 173d b423 c53c
00000080: 5023 ec3b 4158 bd3d 23a9 cf3d 135a dabc
00000090: 574d 68bd 7fff b1bd 5e39 8dbc 1d31 713d
000000a0: 6318 f0bb 275e 98ba 58c1 423d 4f86 3abd
000000b0: f551 c8bc 2ae5 503d 9a5d d33d de29 7bbd
000000c0: b2a1 533d f4c2 31bd a032 e5bb 2c62 52bd
000000d0: 9808 7fbb de47 c73c 0aa5 b03d 6bf2 df3c
000000e0: 205e 96bd 3008 05bd 6394 cb3d bcea 853d
000000f0: 5bc4 8abc ce39 8abd 42c9 153d d105 65bd
00000100: 3279 2dbd 994b dc3d 02a5 a0bd 8514 ccbd
00000110: 181e 093d 3513 b63c 2e30 933d cc53 83bd
00000120: 0bcb 26bd fcdc c23d 7c88 db3d 1315 093c
00000130: 2174 ea3d 8816 053e eb59 0fbd f97b c9bd
00000140: 8bd3 38bd 1cb1 86bd b3b3 d73d ccd8 9c3d
00000150: f4e2 0c3d 31cf b3bd 45e7 12bd 5387 3dbd
00000160: ef35 ed3d 0f44 96bc 5171 723d c864 cebd
00000170: 3e28 863d 352a 3a3d ff33 e63c 835b 8c3d
00000180: 0003 c5bd a117 a8bd 7f05 1abd 7554 6b3d
00000190: 58fd 3e3d 14c9 b53d ca38 c8bd 4da3 cf3a
000001a0: e377 8abb 933d 7d3d 49c0 ea3b 5090 5abc
000001b0: 2001 cdbd bf38 51bd 222d 62bd 06ad a8bc
000001c0: 9505 c93d 52b2 803c c279 3f3d b914 d9bd
000001d0: e2b4 eb3c 9b02 d0bd d1ec 63bd e6ce a0bc
000001e0: c589 b5bc 95e2 673d 186b d83b 7407 1b3d
000001f0: f372 433d 3369 263d c172 89bd 4b7b 533d
00000200: 2a39 89bd 0448 90bc e6d7 113e 79a4 983d
00000210: 7bec d43d 0d12 77bd 9bb9 2b3b a727 d73d
00000220: f365 65bd e16f 93bd 2e6c e5bc 443c 89be
00000230: 4b09 adbd 6d11 b23c 4e58 0f3a c963 f43d
00000240: ba5d dbbc 322b 89be 597f 673d 8f1e 63bc
00000250: c3d2 603d 9a02 68bd 5e73 34ba 472b 123d
00000260: 5d71 f4bc 5b1b 263c 1063 163c 0c68 1c3d
00000270: c8fb 2c3d 6e67 163e ff49 c03c ab83 79bc
00000280: 17d4 e23d 4fe6 f5bd 9f4c f0bc 5e34 b5bd
00000290: 87dd 1ebd 7df2 333d 1ff7 843d 31cc 0b3f
000002a0: 1d91 57bd 15a3 2e3c f88c 853d 49bc 763d
000002b0: 9cdc 423d a2c9 03bd 01a1 aabc ac7c 73be
000002c0: 6d27 653d f890 9fbd 3ec5 72bd a7ee db3c
000002d0: 1a2c 84bd 5e79 2fbd 289c 24bd cb66 a0bc
000002e0: f689 213c 347b 913d ac38 c0bd 8be3 973d
000002f0: 22a3 c1bb f356 f8bb c522 3d3b 5c44 9d3d
00000300: 8f5a dcbb 4376 f7bd 40ba 8c3d b17c 8abd
00000310: ec3e 1b3d c582 db3d 7282 003d d2e3 7dbd
00000320: b2dc 283d c6cc 85bd 187a 15be e95d a23c
00000330: 1155 85bb 97b7 68bd d390 923d 426e f9bd
00000340: fa72 b8bd ec27 833d b249 e33c d673 953b
00000350: 31bf 6b3d c42e c03d 9ed1 24bc fa23 253e
00000360: 0383 a93d 175a 39bd c3ee c7bd b59f f13d
00000370: ab50 813c 0f47 543e 6263 d9be 4e06 16be
00000380: d74d 733d 7289 83bd d836 353d b44c 60bd
00000390: 70a9 aa3c 23a5 3fbd 6768 163c 4014 bfb9
000003a0: 13cc 393d 6f06 c53d 9e9f 04bd 45d9 083d
000003b0: fc8d 483d ab03 25bc 3a05 1c3d a1e2 af3b
000003c0: 1279 fdbd 8788 83be 8c0f 6b3d 443b aebd
000003d0: 4463 a7bd 4eb3 bfbb 5ead b13d 523a 853b
000003e0: 4126 c2bd 65b2 b73c 4112 b3bc 95fc b63c
000003f0: 6de5 c6bb dc00 e1bd e818 8bbd 8ba2 85bd

lstm.bias_ih_l0_reverse f4 [512]
0.031574473 0.016894381 0.27428493 0.15424792 0.087428205 0.075929426 -0.009074579 0.07293001
0.12968688 0.036692467 -0.006927553 -0.08359391 0.10553935 -0.019275501 0.014898971 0.16393223
0.027672853 0.18649332 0.14386417 0.11187789 0.0027155464 0.027710013 0.047840707 0.011094026
0.0013189773 0.12305151 0.00086340844 -0.018909443 0.044649556 0.17668696 0.12712938 0.06195267
0.033661947 0.018168988 0.10476107 -0.061123416 -0.008388597 0.014204426 0.07147992 0.12060494
0.06723771 0.0001355429 0.017114088 0.1340026 0.10121219 -0.02174794 0.015851105 0.3377905
0.02531673 0.03990782 -0.021192392 0.07220303 0.110771835 0.038679197 -0.002604045 0.00886966
0.095319875 0.09055936 0.09822614 0.10320415 0.0120626865 0.058538646 0.021234844 0.06529074
0.00032991814 0.04201595 -0.057280716 0.0661645 0.0060948473 0.097768985 0.12237462 -0.035945695
0.10407373 -0.0024243665 -0.0065366765 0.014558918 0.013872359 0.18916066 -0.023878817 0.06255813
0.06342442 -0.060503136 0.08033292 0.040717114 0.013531332 -0.036930505 0.069380835 0.099944144
0.031254426 0.021753604 0.033029422 0.053457666 0.10810857 0.033526782 0.05648059 -0.022544969
0.1311622 0.050166786 0.051180094 0.05257778 0.13847439 -0.050264183 0.041279104 0.17991489
0.016799673 0.06202291 -0.00761257 -0.012309126 -0.03595472 0.13225432 0.1180026 0.07386454
0.096950434 0.24997313 0.025921075 0.12023932 0.10793147 0.10384754 0.005443847 0.034875568
-0.052114077 0.10812753 0.0581675 -0.017521892 -0.016761992 0.05215059 0.05723417 -0.005209919
-0.07164425 -0.017182238 -0.041821197 0.012093426 0.0012290943 0.051772106 0.05811614 -0.018886758
-0.009623442 0.0025152464 -0.028101094 0.00084278185 0.04752137 -0.049229234 0.041073136 0.038122382
-0.0404679 -0.021025205 -0.04807945 0.008991999 -0.03652658 -0.026599579 0.09086118 0.025789842
0.091310374 -0.019526739 0.028023884 -0.055430777 0.031758897 -0.047417972 0.09792331 0.046686582
0.026476491 0.04593892 -0.032105763 0.023186462 0.036627084 0.03194595 0.073014535 -0.09861663
-0.039979562 0.11666246 0.0539305 -0.03925327 -0.018626532 0.100733906 0.039723568 -0.065596305
0.09470912 0.022063058 0.03190437 -0.049451098 -0.05740955 0.114553064 0.03807128 0.037417833
0.10399992 0.07737229 0.10223072 -0.05483054 0.07417763 -0.055954847 0.01878938 0.03409915
0.0053389613 0.036255307 -0.032233555 0.018009627 0.036237657 0.051314678 0.09282979 0.07595861
-0.052933227 0.037224423 0.046477217 -0.04690862 -0.0014085417 -0.05357146 0.03716738 0.052462604
-0.053687144 0.001438464 0.025930954 0.02846811 -0.0035223332 -0.015692152 0.030996725 -0.04527046
0.00767233 0.101339266 0.013917257 -0.03294889 0.012676624 0.044241887 0.07036372 0.043263648
0.06268362 0.07592577 0.09171727 0.011081388 -0.049350366 0.05390942 0.042918563 0.06976347
-0.005059965 0.017278098 0.02585011 -0.025545398 0.009708901 0.0018359312 0.062974855 0.050512683
0.025639065 0.06352695 0.059434865 0.009656075 0.07488909 -0.036022566 0.02463478 -0.041508477
0.08502259 -0.057301767 -0.05315233 0.087539956 0.038516857 -0.01867526 -0.020077799 -0.0038392046
00000000: 3c54 013d 1666 8a3c 136f 8c3e 2bf3 1d3e
00000010: 8f0d b33d e380 9b3d 8bad 14bc 545c 953d
00000020: a3cc 043e d74a 163d 8700 e3bb 4933 abbd
00000030: 0425 d83d a8e7 9dbc d01a 743c dadd 273e
00000040: 2eb2 e23c 1bf8 3e3e 2151 133e 3c20 e53d
00000050: 4ff7 313b 1c00 e33c 9ef4 433d b8c3 353c
00000060: 89e1 ac3a 6e02 fc3d 5c56 623a fae7 9abc
00000070: 74e2 363d 6ded 343e 342e 023e 15c2 7d3d
00000080: 1ce1 093d 21d7 943c f98c d63d 8c5c 7abd
00000090: 5370 09bc aeb9 683c 1064 923d b9ff f63d
000000a0: edb3 893d 8520 0e39 d832 8c3c fa37 093e
000000b0: 5648 cf3d bc28 b2bc 2dda 813c e0f2 ac3e
000000c0: 0865 cf3c 6276 233d ab9b adbc 2fdf 933d
000000d0: 58dc e23d 146e 1e3d a0a8 2abb 0d52 113c
000000e0: 1137 c33d 3077 b93d c92a c93d b35c d33d
000000f0: 93a2 453c 38c6 6f3d b2f4 ad3c 27b7 853d
00000100: ddf8 ac39 eb18 2c3d 2f9f 6abd 4181 873d
00000110: 49b7 c73b 1b3b c83d 8b9f fa3d cb3b 13bd
00000120: 9c24 d53d 1fe2 1ebb 9e31 d6bb 8788 6e3c
00000130: e448 633c 55b3 413e 829d c3bc 7a1e 803d
00000140: aae4 813d 23d2 77bd 9685 a43d fdc6 263d
00000150: 85b2 5d3c 7144 17bd 8a17 8e3d 84af cc3d
00000160: a404 003d 9d34 b23c dc49 073d 6df6 5a3d
00000170: 0768 dd3d 6153 093d 3158 673d 3ab0 b8bc
00000180: 624f 063e b07b 4d3d 38a2 513d cc5b 573d
00000190: 3bcc 0d3e d1e1 4dbd 4714 293d 9c3b 383e
000001a0: 789f 893c bc0b 7e3d de72 f9bb 37ac 49bc
000001b0: 4245 13bd ad6d 073e 59ab f13d 4b46 973d
000001c0: f38d c63d f5f8 7f3e 6f58 d43c 0840 f63d
000001d0: 2d0b dd3d 05ae d43d 4c62 b23b afd9 0e3d
000001e0: 9275 55bd f771 dd3d 0b41 6e3d 128a 8fbc
000001f0: 7250 89bc db9b 553d 616e 6a3d f8b7 aabb
00000200: 38ba 92bd c4c1 8cbc b44c 2bbd 8123 463c
00000210: 9019 a13a fd0e 543d 310b 6e3d 67b8 9abc
00000220: a4ab 1dbc d5d6 243b 4434 e6bc 22ee 5c3a
00000230: c5a5 423d 98a4 49bd 4e3c 283d 3726 1c3d
00000240: abc1 25bd 0d3d acbc f5ee 44bd 2d53 133c
00000250: e59c 15bd 5ce7 d9bc 6d15 ba3d 3845 d33c
00000260: ef00 bb3d 8af6 9fbc 5892 e53c 620b 63bd
00000270: 9e15 023d 5939 42bd 048c c83d 6e3a 3f3d
00000280: 3ae5 d83c 732a 3c3d 5581 03bd 89f1 bd3c
00000290: 4806 163d c2d9 023d a588 953d 84f7 c9bd
000002a0: 9cc1 23bd baec ee3d 3ae6 5c3d 09c8 20bd
000002b0: ab96 98bc 944d ce3d 2eb5 223d 5b57 86bd
000002c0: dbf6 c13d 96bd b43c 28ae 023d 3c8d 4abd
000002d0: 4726 6bbd cc9a ea3d a1f0 1b3d 7143 193d
000002e0: e9fd d43d 5d75 9e3d 575e d13d fd95 60bd
000002f0: 71ea 973d e930 65bd 30ec 993c 8dab 0b3d
00000300: 74f2 ae3b 7280 143d 5507 04bd ed88 933c
00000310: f06d 143d 572f 523d 8c1d be3d 3090 9b3d
00000320: 83d0 58bd a378 183d e55e 3e3d 4123 40bd
00000330: d19e b8ba bf6d 5bbd d33c 183d 07e3 563d
00000340: 0de7 5bbd d88a bc3a 276d d43c f435 e93c
00000350: f2d6 66bb d48c 80bc d8ec fd3c 856d 39bd
00000360: 2b68 fb3b f68a cf3d 3505 643c 6af5 06bd
00000370: 9db1 4f3c fb36 353d db1a 903d 3935 313d
00000380: 4560 803d f87e 9b3d 44d6 bb3d b68e 353c
00000390: 9c23 4abd 20d0 5c3d 60cb 2f3d 26e0 8e3d
000003a0: 10ce a5bb cc8a 8d3c 9cc3 d33c 9544 d1bc
000003b0: 1512 1f3c a1a3 f03a f6f8 803d 63e6 4e3d
000003c0: 0409 d23c 6b1a 823d f971 733d 8434 1e3c
000003d0: 745f 993d 668c 13bd e1ce c93c cb04 2abd
000003e0: 5320 ae3d 42b5 6abd 42b6 59bd 2648 b33d
000003f0: dac3 1d3d dcfc 98bc 327a a4bc 2a9b 7bbb
