runs/lstm_centered/lstm_centered_all.pt (torch, 864449 bytes, 10 tensors)

emb.weight f4 [256, 64]
0.23881148 -0.21878465 0.42719316 0.18218127 0.05453693 0.057558183 0.1829284 -0.32917306
0.15386654 0.05605045 -0.018002508 0.007390931 -0.086912245 -0.1023226 0.084376946 0.13561426
0.05334235 -0.19258848 0.057603583 0.26014036 0.14013234 -0.27173802 0.1844273 -0.33872804
0.41864237 0.015115388 0.08626756 -0.019065471 0.07389877 -0.05933987 0.13095245 -0.04486802
-0.03743451 0.12738883 0.07949974 0.30702224 0.046426747 -0.032641042 0.022015296 -0.10026459
0.07967647 -0.12626475 0.038924888 -0.18294269 0.18294339 -0.33814105 -0.19121353 -0.069772646
0.16199255 -0.24200778 -0.04367008 -0.04199315 -0.14680627 0.037713557 0.08532018 -0.23904394
0.034000862 0.23797162 -0.2557224 0.051351324 -0.044140007 0.2834957 -0.10397266 0.096546896
0.068739995 -0.0019745934 0.0055574663 0.09873233 0.10686052 0.098263636 -0.13691784 -0.079544395
-0.09143167 -0.08020711 0.13541482 0.08567915 -0.07012376 -0.047766216 -0.04383804 0.116178915
-0.077714324 0.009524609 0.043194797 -0.08768318 -0.13576876 0.03742046 0.113424666 0.034836955
-0.08110811 -0.007965005 -0.1287434 -0.06925325 0.05486698 -0.037872665 -0.07879626 0.0009492223
0.05654093 0.1029042 0.058715254 0.11154974 -0.064267725 -0.012986574 -0.102522865 -0.022140088
-0.1025951 0.04202276 0.024790436 -0.044962883 0.08913477 0.07294295 -0.029535651 -0.02821964
0.056643862 0.012798937 -0.08444582 0.008313886 -0.015589194 -0.11411952 -0.05994733 0.13503821
-0.08230664 0.08190306 -0.11047401 0.11255716 -0.053175304 -0.063347265 0.026450412 0.020598374
-0.015959017 -0.084369235 0.035518456 0.1090684 0.027581364 -0.06228084 0.033296563 -0.034417134
-0.11890918 0.03723974 -0.13486555 0.12584594 0.006873835 0.0015543146 0.029599361 0.12301272
0.0016208978 0.13241017 -0.008879916 0.1003515 0.089353584 0.08377751 -0.061783418 0.07828377
-0.03393701 0.06944583 0.091512896 0.0033104517 0.06669257 0.12640625 0.10897567 -0.048402634
-0.078603595 0.011291144 0.08025376 -0.038360476 -0.07413936 -0.0738596 0.06702281 -0.053971283
0.110735804 -0.05811684 -0.052296877 -0.075375915 0.0351883 -0.0022555355 -0.124582954 -0.13606185
0.11031259 -0.0029299369 -0.0054405746 -0.052753948 0.03746853 0.019602483 0.033304807 -0.13578442
-0.022114737 -0.13006909 0.05740674 0.046340954 0.10664183 -0.11056686 0.023315405 0.09462996
-0.028565355 -0.0045784866 -0.028570252 -0.10243629 -0.05621831 0.0691631 0.08542804 -0.12465907
-0.014044315 0.057169296 0.07711792 -0.0021069108 -0.11468444 0.09410383 -0.105968885 0.11981585
-0.013594377 -0.041042883 -0.031766456 -0.040504392 -0.10907415 -0.08606313 0.079122595 0.12378963
0.05977107 0.0927243 0.012626007 0.07488411 -0.10954159 0.095933355 0.06545215 0.12527181
-0.121298894 -0.016801942 -0.006644393 0.017184252 0.09049271 -0.118685156 0.13609087 0.0779485
0.06058401 -0.09116 0.12595126 0.089842 -0.1353735 -0.127505 0.028375562 -0.12451368
0.022674434 0.04069859 -0.029724464 0.031133417 -0.06453243 0.0011307712 0.041194644 0.087453
-0.022416001 0.056653365 -0.08663417 0.13512625 -0.13341951 -0.04947461 -0.06518603 -0.06987756
00000000: ff8a 743e 1509 60be 10b9 da3e ba8d 3a3e
00000010: 1e62 5f3d 21c2 6b3d 9551 3b3e 5f89 a8be
00000020: 318f 1d3e 2895 653d ff79 93bc 9f2f f23b
00000030: 0cff b1bd 838e d1bd d2cd ac3d 77de 0a3e
00000040: 827d 5a3d ea35 45be bcf1 6b3d 1e31 853e
00000050: da7e 0f3e 3f21 8bbe 83da 3c3e c36d adbe
00000060: 4b58 d63e 88a6 773c 0cad b03d 312f 9cbc
00000070: 3d58 973d 5d0e 73bd 6618 063e 87c7 37bd
00000080: ee54 19bd 3872 023e c2d0 a23d 0532 9d3e
00000090: f929 3e3d 9db2 05bd 6c59 b43c 8557 cdbd
000000a0: 6b2d a33d 8c4b 01be b46f 1f3d 5455 3bbe
000000b0: 8355 3b3e d320 adbe 7bcd 43be f6e4 8ebd
000000c0: 60e1 253e e3d0 77be 66df 32bd 0201 2cbd
000000d0: 6254 16be 8879 1a3d 59bc ae3d efc7 74be
000000e0: 7d44 0b3d d5ae 733e 0cee 82be c455 523d
000000f0: 27cc 34bd 5926 913e 9eef d4bd 61ba c53d
00000100: 8ec7 8c3d 2e68 01bb 681b b63b 2d34 ca3d
00000110: b0d9 da3d 723e c93d 3134 0cbe 2ce8 a2bd
00000120: 8740 bbbd a043 a4bd 2faa 0a3e 8d78 af3d
00000130: 0c9d 8fbd 82a6 43bd 848f 33bd 36ef ed3d
00000140: b028 9fbd 1b0d 1c3c 07ed 303d 3d93 b3bd
00000150: f706 0bbe 3246 193d 314b e83d 32b1 0e3d
00000160: 021c a6bd a77f 02bc 4fd5 03be a6d4 8dbd
00000170: 33bc 603d 5e20 1bbd ef5f a1bd 3bd5 783a
00000180: 7697 673d 70bf d23d 687f 703d 3174 e43d
00000190: cc9e 83bd a4c5 54bc 82f7 d1bd 215f b5bc
000001a0: 611d d2bd 0f20 2c3d 5015 cb3c 002b 38bd
000001b0: 4a8c b63d 1d63 953d c0f4 f1bc e02c e7bc
000001c0: 6503 683d a2b2 513c eef1 acbd f736 083c
000001d0: d269 7fbc 7fb7 e9bd 558b 75bd 7547 0a3e
000001e0: 6290 a8bd cbbc a73d 3340 e2bd 5e84 e63d
000001f0: 59ce 59bd 36bc 81bd 89ae d83c ecbd a83c
00000200: 7cbc 82bc c7c9 acbd cd7b 113d 415f df3d
00000210: 50f2 e13c 321a 7fbd fa61 083d fbf8 0cbd
00000220: a886 f3bd b388 183d 321a 0abe c2dd 003e
00000230: e83d e13b 25ba cb3a 5c7a f23c 18ee fb3d
00000240: 4e74 d43a 8896 073e 117d 11bc 1685 cd3d
00000250: 03ff b63d 8b93 ab3d 9c10 7dbd 3e53 a03d
00000260: 8901 0bbd 9e39 8e3d 1d6b bb3d 2af4 583b
00000270: 1d96 883d a470 013e a32e df3d d741 46bd
00000280: ecfa a0bd 7efe 383c 155c a43d e01f 1dbd
00000290: 60d6 97bd b443 97bd 4143 893d fe10 5dbd
000002a0: 74c9 e23d ec0b 6ebd 4035 56bd b05e 9abd
000002b0: 9b21 103d 9bd1 13bb 5925 ffbd cc53 0bbe
000002c0: 91eb e13d 2f04 40bb d946 b2bb 8614 58bd
000002d0: 9a78 193d 6395 a03c 9f6a 083d 120b 0bbe
000002e0: f729 b5bc d530 05be 5423 6b3d 03d0 3d3d
000002f0: 0867 da3d e170 e2bd f3ff be3c 5acd c13d
00000300: e401 eabc 2107 96bb 290c eabc 1eca d1bd
00000310: 2c45 66bd 62a5 8d3d e5f4 ae3d 414d ffbd
00000320: 201a 66bc 5a2a 6a3d 00f0 9d3d 1914 0abb
00000330: addf eabd 82b9 c03d 3706 d9bd 0362 f53d
00000340: f3ba 5ebc 951c 28bd 8b1d 02bd efe7 25bd
00000350: 4562 dfbd de41 b0bd 070b a23d 6b85 fd3d
00000360: 82d2 743d 3de6 bd3d 50dd 4e3c d75c 993d
00000370: 5757 e0bd b578 c43d c70b 863d 4147 003e
00000380: 8e6b f8bd 3aa4 89bc 35b9 d9bb fdc5 8c3c
00000390: 3e54 b93d 3411 f3bd 685b 0b3e 77a3 9f3d
000003a0: f026 783d 18b2 babd 5ef9 003e 15ff b73d
000003b0: 5a9f 0abe ac90 02be de73 e83c 0701 ffbd
000003c0: bcbf b93c 91b3 263d b880 f3bc 820b ff3c
000003d0: 9429 84bd 6336 943a b7bb 283d 8f1a b33d
000003e0: c3a1 b7bc 5c0d 683d 416d b1bd 895e 0a3e
000003f0: 209f 08be e3a5 4abd 4180 85bd f71b 8fbd

lstm.weight_ih_l0 f4 [512, 64]
0.22865656 0.0024242715 0.014504775 0.049583815 -0.05887666 0.14534482 -0.044348255 -0.071199864
-0.1061747 0.07977309 0.08410198 -0.09267017 -0.102976084 0.054550197 0.13468471 0.13073365
-0.02320278 0.013601424 -0.17658527 0.043584924 0.035340402 0.0969072 0.14770108 -0.116869725
0.08202385 -0.02895649 0.1458849 0.13485041 0.03871372 -0.069777735 0.111181274 -0.05150342
0.08351225 0.03402467 0.05040119 0.13471611 0.06782605 -0.12582003 -0.03486067 -0.12949763
-0.14428799 -0.08976632 -0.050555855 -0.15340106 -0.060812622 0.0117232 -0.23703995 0.035327166
0.019047262 -0.10211636 0.040429376 0.063646056 -0.06855067 -0.013396724 0.22151062 -0.08215057
-0.1359143 0.14274476 -0.10131078 0.18629771 -0.0872597 0.13000488 -0.10193832 -0.18015507
0.16669849 -0.09085529 0.11076487 0.113842316 -0.15644097 -0.11496863 0.0671832 -0.17045099
0.057917565 -0.025958285 0.070323996 -0.09023445 -0.030681832 -0.24563394 -0.047211766 0.06809714
-0.05258662 -0.13385196 0.04494469 0.021131251 0.038371023 -0.1961747 0.121562645 -0.04177646
0.24955899 -0.048399273 -0.17347698 -0.14921102 -0.013832587 -0.079146735 -0.08800846 0.048945136
-0.0349403 -0.07001868 0.06542844 -0.0038224922 0.12207513 0.011255546 0.13934019 0.12380437
-0.22302248 -0.4539425 0.30867305 -0.16557528 0.0021530727 -0.10479431 -0.24476911 -0.05373992
0.025334306 -0.20344827 -0.12314599 0.08278683 -0.31337473 0.05409852 -0.007605127 -0.21450862
0.031504977 0.05953207 -0.3218535 0.07880478 0.02025442 0.20010144 0.09083821 -0.030869037
-0.012977313 0.04037082 -0.1849222 0.19761701 -0.2559479 -0.21912307 -0.08756343 0.062182117
-9.104435e-05 -0.100177646 -0.06091941 0.20632797 0.03861818 0.16372244 0.055098638 0.31853172
-0.032772593 -0.1693261 0.19201817 0.07872604 0.20487079 0.06608788 -0.12565777 0.009041382
0.016600342 0.17031106 0.011843895 -0.094551355 -0.09971098 -0.2448414 -0.016187236 -0.17092831
0.2453876 0.012841487 0.026114948 -0.17062926 0.2299821 0.08577981 0.05866809 -0.13188453
0.006349989 -0.057285786 -0.017375708 0.3727027 -0.17078301 0.089887895 -0.06165415 -0.34732434
-0.07551271 -0.18578272 -0.0009516422 0.19810605 -0.18139414 -0.105578214 -0.24376419 0.025684755
0.12825496 -0.011212602 -0.033543147 -0.28140068 -0.028499512 -0.2112926 0.06020918 0.01641189
-0.07197722 0.08091697 0.07334988 0.33188996 -0.016041882 -0.17203654 0.12494447 0.026552925
0.0044092387 -0.16254893 -0.07630986 0.043527406 0.14098613 0.11256899 -0.1799875 0.08793153
-0.0729855 -0.03716771 0.184284 -0.057180416 0.09995117 -0.033608418 -0.058565553 -0.020821327
0.056831066 0.13517112 0.0153340185 -0.12746708 -0.108328715 -0.12704907 -0.008828476 -0.06257407
0.030349217 -0.06005807 0.13968104 -0.088637315 0.15642597 0.023232086 -0.09334392 0.08787017
-0.009052021 -0.14067273 0.13783507 0.012119162 0.07607832 0.0085268235 -0.011859442 0.019008357
-0.073854044 0.04414789 -0.1350793 0.1478605 -0.04837754 -0.0008351204 -0.04490284 0.036931816
0.15292434 -0.044206817 -0.09460924 -0.08767311 0.01627334 0.043668047 0.08159372 0.10549783
00000000: f224 6a3e 87e0 1e3b 70a5 6d3c 6618 4b3d
00000010: a728 71bd 46d5 143e 84a6 35bd 3cd1 91bd
00000020: 1f72 d9bd 1360 a33d a93d ac3d dcc9 bdbd
00000030: 20e5 d2bd 0770 5f3d caea 093e 0bdf 053e
00000040: c213 bebc 82d8 5e3c c5d2 34be 1b86 323d
00000050: 19c1 103d 4877 c63d f43e 173e 6559 efbd
00000060: 1ffc a73d 2936 edbc da62 153e 3a16 0a3e
00000070: 4792 1e3d a1e7 8ebd 02b3 e33d 40f5 52bd
00000080: 7808 ab3d 745d 0b3d 7a71 4e3d 05f3 093e
00000090: 62e8 8a3d f7d6 00be 10ca 0ebd 079b 04be
000000a0: 3bc0 13be 68d7 b7bd a813 4fbd 2b15 1dbe
000000b0: a816 79bd aa12 403c 9aba 72be 38b3 103d
000000c0: 0109 9c3c 6222 d1bd 4699 253d dd58 823d
000000d0: 4b64 8cbd ef7d 5bbc aed3 623e 8f3e a8bd
000000e0: 1e2d 0bbe af2b 123e 077c cfbd d4c4 3e3e
000000f0: 37b5 b2bd 0020 053e 0ac5 d0bd 927a 38be
00000100: 02b3 2a3e 5712 babd b1d8 e23d 2926 e93d
00000110: 1032 20be ac74 ebbd 5897 893d b48a 2ebe
00000120: f83a 6d3d 78a6 d4bc 0706 903d d7cc b8bd
00000130: 7758 fbbc 7787 7bbe 2061 41bd 8376 8b3d
00000140: 1165 57bd 7d10 09be ec17 383d 721b ad3c
00000150: ef2a 1d3d 05e2 48be d6f5 f83d cb1d 2bbd
00000160: 648c 7f3e 513e 46bd f3a3 31be c6ca 18be
00000170: 13a2 62bc af17 a2bd c83d b4bd b27a 483d
00000180: 8f1d 0fbd f465 8fbd 59ff 853d c782 7abb
00000190: 8702 fa3d 2e69 383c 32af 0e3e 258d fd3d
000001a0: 0160 64be 276b e8be 650a 9e3e 918c 29be
000001b0: 911a 0d3b 669e d6bd c1a4 7abe 641e 5cbd
000001c0: e489 cf3c be54 50be f733 fcbd 248c a93d
000001d0: a772 a0be 6996 5d3d 6e34 f9bb 26a8 5bbe
000001e0: 5d0b 013d e6d7 733d fbc9 a4be 6764 a13d
000001f0: 99ec a53c 64e7 4c3e 6209 ba3d 10e1 fcbc
00000200: cc9e 54bc df5b 253d 3f5c 3dbe 1d5c 4a3e
00000210: 9a0b 83be cc61 60be 7554 b3bd adb2 7e3d
00000220: 10ef beb8 f029 cdbd a286 79bd a447 533e
00000230: 192e 1e3d dba6 273e 1caf 613d 9716 a33e
00000240: 8e3c 06bd d263 2dbe 69a0 443e 1e3b a13d
00000250: a6c9 513e 1559 873d 6eac 00be 4e22 143c
00000260: 71fd 873c 0666 2e3e e50c 423c 24a4 c1bd
00000270: 4535 ccbd b4b7 7abe 189b 84bc d507 2fbe
00000280: e346 7b3e 1a65 523c 04ef d53c 70b9 2ebe
00000290: 6d80 6b3e 53ad af3d f34d 703d bd0c 07be
000002a0: 9213 d03b 80a4 6abd 8057 8ebc e3d2 be3e
000002b0: bee1 2ebe 2517 b83d 1089 7cbd 7fd4 b1be
000002c0: 68a6 9abd d33d 3ebe a177 79ba 50dc 4a3e
000002d0: 63bf 39be 6439 d8bd 529d 79be d668 d23c
000002e0: 4555 033e 10b5 37bc 8a64 09bd c013 90be
000002f0: cf77 e9bc 165d 58be e79d 763d 3a72 863c
00000300: cb68 93bd ccb7 a53d 7638 963d 7bed a93e
00000310: 446a 83bc 592a 30be e3e2 ff3d 8585 d93c
00000320: 607b 903b 3a73 26be 5848 9cbd cb49 323d
00000330: ab5e 103e 928a e63d a54e 38be 7215 b43d
00000340: 6c79 95bd 2b3d 18bd f2b4 3c3e 0336 6abd
00000350: 33b3 cc3d fba8 09bd 6fe2 6fbd 7d91 aabc
00000360: b1c7 683d 4c6a 0a3e 893b 7b3c bb86 02be
00000370: 72db ddbd 2719 02be 50a5 10bc d626 80bd
00000380: ec9e f83c 73ff 75bd 8c08 0f3e 7b87 b5bd
00000390: 212e 203e 3751 be3c 192b bfbd 47f5 b33d
000003a0: ee4e 14bc 830c 10be a324 0d3e 738f 463c
000003b0: f3ce 9b3d 17b4 0b3c 1b4e 42bc 6ab7 9b3c
000003c0: ca40 97bd 6bd4 343d 3a52 0abe be68 173e
000003d0: 8727 46bd fbeb 5aba 0aec 37bd d145 173d
000003e0: 3398 1c3e 3512 35bd 7dc2 c1bd f68d b3bd
000003f0: ab4f 853c 44dd 323d 9c1a a73d 3f0f d83d

lstm.weight_hh_l0 f4 [512, 128]
-0.18580538 0.0031587246 -0.08561874 0.064880736 -0.15596175 -0.016644884 0.015281561 -0.13774881
-0.044317115 0.1209737 0.01578969 -0.0811268 0.148249 0.06829757 -0.14585869 0.28583997
-0.3821261 0.034434825 0.13003276 0.11155985 0.04023649 0.32303345 -0.010239262 -0.2551372
0.2922158 0.03988162 0.16279826 -0.14705817 0.033684503 -0.1354036 0.11869857 0.052254707
-0.07791015 -0.1750864 -0.041007943 0.039311282 -0.038447198 -0.120224476 0.10012058 0.12278067
0.22055945 -0.0053943805 0.16734374 0.10535486 -0.04718774 0.17891306 0.045460943 0.14502639
-0.1858461 -0.29123563 -0.076675765 -0.0054558585 -0.13109836 -0.15889873 -0.031676434 -0.20565386
-0.18220721 0.2128799 -0.027148787 0.060983505 -0.13961202 -0.3556648 0.12927435 -0.07333435
-0.18307252 0.039059296 0.05497714 0.13883115 0.018656915 0.061803177 -0.13076112 0.1512475
0.007588196 -0.16444907 0.0020627745 -0.05153268 0.04776578 0.10614496 0.12850009 0.18497519
0.16339223 -0.019005459 -0.007282662 0.05770183 0.28089184 0.081981085 -0.0038776374 -0.072447695
0.09929791 0.016471203 -0.26694423 -0.31417617 0.13516036 -0.08071815 0.21175373 -0.093839355
0.060921498 0.26795164 0.2386698 0.23115934 0.09458411 -0.13623339 0.0024807793 -0.20432124
0.16319108 0.3314455 0.061516672 -0.09817624 0.05163325 -0.0708653 -0.12071509 0.04990343
0.1772048 0.031067532 -0.2613564 -0.18844979 -0.22224471 -0.20746161 -0.30854353 0.11348468
-0.1888562 -0.079689085 -0.15262187 0.16689348 -0.015626524 0.05089743 -0.044182066 -0.034190062
0.13537754 -0.11131784 -0.23679027 -0.09602627 -0.1904723 -0.032686792 0.111750245 -0.18875173
0.015817894 0.2587549 -0.02898865 -0.40215477 0.060970444 -0.20754379 -0.29967517 0.30461422
-0.19702713 0.3205099 -0.07952629 0.039630484 -0.119843304 0.40255275 -0.03674348 -0.09117419
-0.064771436 -0.09729428 0.45365092 -0.30409834 -0.357097 -0.46286947 0.16533756 0.11748017
-0.21022859 -0.2058377 -0.1151109 -0.27006355 0.19401996 -0.05057806 0.1331775 -0.16516294
0.18222149 0.09414619 0.050607312 0.113620825 -0.10363432 -0.023754561 0.019315092 -0.09449874
0.097486146 -0.12825297 -0.25403693 0.21689385 0.07138608 0.18942943 -0.061267063 -0.28772518
-0.08762696 0.08812871 -0.27407977 -0.060094714 -0.2883878 -0.522876 0.24639858 -0.0679792
0.029470058 -0.03262949 -0.09790973 0.032591444 -0.077691466 -0.03487657 0.033333138 -0.00411794
0.07573945 0.019494444 -0.03357935 -0.06361098 -0.082930155 -0.01780567 0.26030523 0.25774026
-0.05761955 0.066660516 0.13250728 -0.2831799 0.46460864 0.2683153 -0.15061533 -0.045820702
-0.3386243 0.3095835 -0.044450473 -0.18872383 0.048987985 -0.23310487 0.2540471 -0.14178719
-0.036807004 0.18735749 0.060553197 0.12541953 -0.29157433 -0.25239885 -0.10798081 -0.081925675
0.47351703 0.29706952 0.10417082 -0.10455897 0.14197901 -0.15291055 -0.22179852 -0.28484085
0.09927352 0.45387703 0.050989974 -0.30289468 -0.10753967 0.14816333 -0.27898034 0.052223634
0.058519766 -0.08044208 -0.12869473 0.084986515 0.077066466 -0.17592695 0.049263567 -0.19256395
00000000: c443 3ebe 9b02 4f3b e158 afbd 31e0 843d
00000010: 70b4 1fbe da5a 88bc 835f 7a3c 060e 0dbe
00000020: dd85 35bd 0fc1 f73d 6159 813c cf25 a6bd
00000030: 96ce 173e 99df 8b3d fb5b 15be 9e59 923e
00000040: 08a6 c3be 880b 0d3d 4f27 053e 7e79 e43d
00000050: 05cf 243d a464 a53e 94c2 27bc 58a1 82be
00000060: 4f9d 953e e95a 233d 96b4 263e 6b96 16be
00000070: c3f8 093d 3ea7 0abe 3c18 f33d 0809 563d
00000080: 5b8f 9fbd d949 33be f2f7 27bd de04 213d
00000090: cf7a 1dbd 4038 f6bd 050c cd3d 6f74 fb3d
000000a0: 56da 613e 58c3 b0bb 285c 2b3e 4ac4 d73d
000000b0: ef47 41bd fc34 373e 4135 3a3d cc81 143e
000000c0: 714e 3ebe d61c 95be 2f08 9dbd 0fc7 b2bb
000000d0: a63e 06be 59b6 22be 26bf 01bd ed96 52be
000000e0: 8794 3abe 30fd 593e 2267 debc d7c9 793d
000000f0: 74f6 0ebe b219 b6be 7f60 043e 5230 96bd
00000100: 5d77 3bbe a4fc 1f3d b62f 613d c129 0e3e
00000110: 63d6 983c 5425 7d3d 3ee6 05be a0e0 1a3e
00000120: 67a6 f83b 5665 28be 9d2f 073b ee13 53bd
00000130: 0da6 433d 8762 d93d 8795 033e 236a 3d3e
00000140: 4b50 273e 56b1 9bbc 66a3 eebb c158 6c3d
00000150: 0ed1 8f3e b3e5 a73d f61f 7ebb 755f 94bd
00000160: b45c cb3d 9eee 863c eaac 88be b3db a0be
00000170: 7a67 0a3e 8f4f a5bd f8d5 583e d92e c0bd
00000180: d288 793d f530 893e db65 743e 09b5 6c3e
00000190: 50b5 c13d c480 0bbe 9294 223b 9639 51be
000001a0: 901b 273e 39b3 a93e e8f8 7b3d a010 c9bd
000001b0: 637d 533d d421 91bd 7939 f7bd 8a67 4c3d
000001c0: 2d75 353e 5681 fe3c 82d0 85be fbf8 40be
000001d0: 1e94 63be d170 54be 6bf9 9dbe a86a e83d
000001e0: 8563 41be 0834 a3bd e848 1cbe 20e6 2a3e
000001f0: 3203 80bc d379 503d 41f8 34bd e10a 0cbd
00000200: 69a0 0a3e 9cfa e3bd 2679 72be 6ca9 c4bd
00000210: 2c0b 43be 96e2 05bd 50dd e43d 2248 41be
00000220: 8794 813c 867b 843e 9b79 edbc 3be7 cdbe
00000230: 25bc 793d 5c86 54be 066f 99be 65f6 9b3e
00000240: 7bc1 49be e019 a43e aede a2bd 9353 223d
00000250: 6870 f5bd 651b ce3e 5580 16bd 89b9 babd
00000260: e3a6 84bd 3942 c7bd ef44 e83e c7b2 9bbe
00000270: 6bd5 b6be 3afd ecbe 404e 293e 7299 f03d
00000280: 2a46 57be 1ec7 52be 43bf ebbd c545 8abe
00000290: 2bad 463e f12a 4fbd af5f 083e 7920 29be
000002a0: 4598 3a3e b8cf c03d 9d49 4f3d 09b2 e83d
000002b0: 3b3e d4bd ed98 c2bc af3a 9e3c 8e88 c1bd
000002c0: d1a6 c73d bf54 03be 2111 82be 6c19 5e3e
000002d0: dd32 923d caf9 413e 2cf3 7abd b750 93be
000002e0: c375 b3bd d37c b43d 2f54 8cbe e025 76bd
000002f0: 91a7 93be 34db 05bf e94f 7c3e ae38 8bbd
00000300: 316b f13c 80a6 05bd e684 c8bd 9b7e 053d
00000310: b41c 9fbd bcda 0ebd 5488 083d c9ef 86bb
00000320: 491d 9b3d d0b2 9f3c 808a 09bd 7946 82bd
00000330: 49d7 a9bd 32dd 91bc ba46 853e 88f6 833e
00000340: 7a02 6cbd 4f85 883d fdaf 073e f5fc 90be
00000350: 2fe1 ed3e 9f60 893e e83a 1abe 7dae 3bbd
00000360: 2a60 adbe ba81 9e3e b311 36bd d240 41be
00000370: a0a7 483d 0bb3 6ebe 7612 823e a930 11be
00000380: f1c2 16bd a4da 3f3e a106 783d fa6d 003e
00000390: 3b49 95be 6c3a 81be 0b25 ddbd a6c8 a7bd
000003a0: d370 f23e 7f19 983e 8357 d53d 0323 d6bd
000003b0: f262 113e 9594 1cbe 271f 63be a9d6 91be
000003c0: ea4f cb3d 9262 e83e ddda 503d 0315 9bbe
000003d0: c23d dcbd 21b8 173e 83d6 8ebe 73e8 553d
000003e0: 6cb2 6f3d d1be a4bd 8dc8 03be 690d ae3d
000003f0: 06d5 9d3d 3226 34be 98c8 493d 7c2f 45be

lstm.bias_ih_l0 f4 [512]
0.025922948 0.021760203 -0.23102666 -0.40619776 -0.06702226 -0.2575843 -0.17768599 -0.3306924
-0.20460527 -0.31189212 -0.28861004 -0.2923458 -0.26553482 -0.1098305 -0.027163181 -0.04704263
-0.1196831 0.018264582 -0.12592678 -0.10574685 0.11446431 0.031902466 -0.26093316 -0.11924969
-0.12330428 -0.05249448 0.03565303 -0.39197248 -0.16244227 -0.24392232 0.09461183 -0.15322575
-0.21578756 -0.09081277 -0.19525234 -0.29986086 -0.053240463 -0.06979036 -0.14518303 -0.16680329
-0.38766527 -0.18681441 -0.044903535 -0.34093416 -0.09146728 -0.0605047 -0.15132707 -0.01201735
-0.18773735 -0.15526818 -0.42329288 -0.30080205 -0.12232624 -0.05213622 -0.14556733 -0.16822903
-0.3927077 -0.2064589 -0.2800155 -0.13277428 -0.023899386 -0.22606169 -0.111121364 -0.56935525
-0.06192028 -0.22807258 -0.145059 -0.13617122 -0.14624043 -0.23597138 -0.28962338 -0.06651982
-0.21410955 0.048102956 0.033520844 -0.19736545 -0.21175118 -0.2210624 -0.1855734 -0.10603188
0.06758176 -0.18091919 -0.15222946 -0.15622208 -0.12364321 -0.09941469 -0.06753384 -0.1179503
0.069335274 0.11664124 -0.100916944 -0.049897645 -0.10639659 -0.032251284 0.023256915 -0.4274495
-0.23295906 0.018245894 -0.021378655 -0.29142323 0.014581741 -0.12719822 -0.15712447 -0.19770338
0.034232467 -0.027425868 -0.17868052 -0.26621968 -0.27005288 -0.24356347 -0.29895702 -0.03357986
-0.3180546 0.10031463 -0.40197834 -0.27144733 -0.20881385 0.05050624 -0.15259172 0.057306953
-0.04000257 -0.12046966 -0.11016176 -0.08786397 -0.17390986 0.032232277 -0.22559929 0.06527547
0.044351842 0.071588434 0.0029673704 -0.043024335 0.09559211 -0.07959015 -0.018207436 -0.11785997
0.092130765 0.041248586 -0.074906506 -0.23834206 -0.07119914 0.104603 0.124796994 0.2155708
-0.14482278 0.12447145 0.21463138 -0.026458403 0.14767575 0.14178471 -0.08376593 0.06702358
-0.006536489 0.123711385 0.10637513 -0.3050268 -0.04934055 0.01788267 0.16992158 -0.034953844
-0.003522389 0.06750711 -0.08937754 -0.088658266 0.09615406 -0.01620596 0.12604411 0.1113398
-0.050543062 0.055905566 0.120962985 -0.25425518 -0.06914951 0.13562511 0.01582815 0.08634452
-0.16423966 -0.065433785 0.004859551 -0.12697561 0.034294736 0.072353974 0.057301294 0.07646165
-0.2332259 -0.050958507 -0.055227656 0.06017202 0.06796866 -0.11470921 0.16360521 -0.08008772
-0.11043202 0.12068784 0.101872854 0.07877336 0.19692871 -0.014388477 0.080331184 0.019602256
0.057640884 0.020640628 0.12399779 0.051666405 -0.051874038 0.01751216 0.10767698 -0.06925776
0.26121667 0.017053148 0.2122762 -0.09614 0.10095333 0.19899511 0.17870606 0.15205911
0.12451528 0.21081014 -0.006905351 -0.032369815 0.10492808 0.1552791 0.10661067 -0.3360983
-0.007099462 0.19583192 0.086158015 -0.17585093 0.11535986 0.028561616 0.106482424 -0.031659443
0.13402364 0.10823616 -0.039087694 -0.24869415 -0.11572926 0.19477242 -0.07306585 0.13636275
0.06073491 0.25104833 -0.29815757 -0.14165561 0.056138422 0.2223873 0.03979985 0.17572847
0.1320317 -0.002025722 -0.037293408 0.0925166 0.18351229 -0.034660712 0.03832601 0.19441776
00000000: 5d5c d43c 7442 b23c 4192 6cbe 27f9 cfbe
00000010: f742 89bd 17e2 83be 51f3 35be 8450 a9be
00000020: 0b84 51be 53b0 9fbe b2c4 93be 59ae 95be
00000030: 2ef4 87be d0ee e0bd 5285 debc c6af 40bd
00000040: 6a1c f5bd 9b9f 953c f3f2 00be ce91 d8bd
00000050: 446c ea3d 29ac 023d 0899 85be 2e39 f4bd
00000060: f486 fcbd 7404 57bd e908 123d 9eb0 c8be
00000070: 4457 26be c6c6 79be d9c3 c13d 36e7 1cbe
00000080: 6af7 5cbe 0cfc b9bd 3bf0 47be 5d87 99be
00000090: ac12 5abd 40ee 8ebd dcaa 14be 7bce 2abe
000000a0: 107c c6be 474c 3fbe c5ec 37bd ec8e aebe
000000b0: 3353 bbbd c7d3 77bd 7cf5 1abe 6be4 44bc
000000c0: 383e 40be 9ffe 1ebe d8b9 d8be ba02 9abe
000000d0: 2e86 fabd ca8c 55bd 9a0f 15be 3b44 2cbe
000000e0: fc10 c9be f669 53be 315e 8fbe fbf5 07be
000000f0: a5c8 c3bc b77c 67be 9993 e3bd 44c1 11bf
00000100: 1fa0 7dbd dc8b 69be 598a 14be 7870 0bbe
00000110: 0dc0 15be 7ba2 71be 8449 94be 8b3b 88bd
00000120: 893f 5bbe 9b07 453d 274d 093d 2b1a 4abe
00000130: 4dd5 58be 2f5e 62be f406 3ebe 3e27 d9bd
00000140: 4e68 8a3d e142 39be 0ae2 1bbe aef8 1fbe
00000150: a738 fdbd ee99 cbbd 2f4f 8abd ed8f f1bd
00000160: a7ff 8d3d 9ae1 ee3d 8bad cebd 7961 4cbd
00000170: 75e6 d9bd ec19 04bd 4985 be3c a9da dabe
00000180: d28c 6ebe 6a78 953c 4a22 afbc 6d35 95be
00000190: 41e8 6e3c 4040 02be 3de5 20be c172 4abe
000001a0: 5837 0c3d 37ac e0bc 07f8 36be f24d 88be
000001b0: 5f44 8abe b468 79be e510 99be 098b 09bd
000001c0: 0dd8 a2be c271 cd3d 1bd0 cdbe 25fb 8abe
000001d0: 4cd3 55be a2df 4e3d 0141 1cbe b2ba 6a3d
000001e0: bcd9 23bd ccb8 f6bd 7d9c e1bd 06f2 b3bd
000001f0: 6d15 32be fe05 043d 8003 67be 25af 853d
00000200: 47aa 353d f59c 923d 3778 423b 493a 30bd
00000210: ccc5 c33d 2900 a3bd c327 95bc 9160 f1bd
00000220: 0eaf bc3d 47f4 283d 9568 99bd f10f 74be
00000230: dbd0 91bd 193a d63d 9195 ff3d 97be 5c3e
00000240: 6c4c 14be e3ea fe3d 54c8 5b3e 4bbf d8bc
00000250: 5038 173e 0330 113e 798d abbd a943 893d
00000260: 0b30 d6bb 655c fd3d 34db d93d 792c 9cbe
00000270: 5119 4abd ad7e 923c ecff 2d3e c32b 0fbd
00000280: e2d7 66bb 2b41 8a3d 920b b7bd 7792 b5bd
00000290: 6bec c43d 5dc2 84bc b511 013e 1f06 e43d
000002a0: 3e06 4fbd 3cfd 643d 71bb f73d bc2d 82be
000002b0: 429e 8dbd 4fe1 0a3e 09aa 813c 65d5 b03d
000002c0: 712e 28be 2602 86bd de3c 9f3b e505 02be
000002d0: a378 0c3d 522e 943d c3b4 6a3d ed97 9c3d
000002e0: c5d2 6ebe deb9 50bd 6536 62bd f076 763d
000002f0: 2733 8b3d aaec eabd 2088 273e 0805 a4bd
00000300: 2f2a e2bd 302b f73d b7a2 d03d ed53 a13d
00000310: aea7 493e a6bd 6bbc ad84 a43d e994 a03c
00000320: d918 6c3d 8916 a93c 8ef2 fd3d 27a0 533d
00000330: df79 54bd a975 8f3c c085 dc3d 03d7 8dbd
00000340: 31be 853e 0bb3 8b3c ef5e 593e 0ce5 c4bd
00000350: 9fc0 ce3d 60c5 4b3e b9fe 363e 62b5 1b3e
00000360: de01 ff3d 9dde 573e 4846 e2bb 3696 04bd
00000370: 89e4 d63d 7c01 1f3e b256 da3d 1415 acbe
00000380: 9ba2 e8bb 2a88 483e 9d73 b03d 4412 34be
00000390: ca41 ec3d 0dfa e93c 7513 da3d 55ad 01bd
000003a0: 7e3d 093e ebaa dd3d 6b1a 20bd aea9 7ebe
000003b0: 7603 edbd 6c72 473e 8ca3 95bd ada2 0b3e
000003c0: 2bc5 783d 6889 803e 1ca8 98be 2b0e 11be
000003d0: 67f1 653d 7fb9 633e 2b05 233d 2af2 333e
000003e0: 5133 073e fac1 04bb f9c0 18bd 5879 bd3d
000003f0: a5ea 3b3e 64f8 0dbd bcfb 1c3d 7315 473e

lstm.bias_hh_l0 f4 [512]
0.025922948 0.021760203 -0.23102666 -0.40619776 -0.06702226 -0.2575843 -0.17768599 -0.3306924
-0.20460527 -0.31189212 -0.28861004 -0.2923458 -0.26553482 -0.1098305 -0.027163181 -0.04704263
-0.1196831 0.018264582 -0.12592678 -0.10574685 0.11446431 0.031902466 -0.26093316 -0.11924969
-0.12330428 -0.05249448 0.03565303 -0.39197248 -0.16244227 -0.24392232 0.09461183 -0.15322575
-0.21578756 -0.09081277 -0.19525234 -0.29986086 -0.053240463 -0.06979036 -0.14518303 -0.16680329
-0.38766527 -0.18681441 -0.044903535 -0.34093416 -0.09146728 -0.0605047 -0.15132707 -0.01201735
-0.18773735 -0.15526818 -0.42329288 -0.30080205 -0.12232624 -0.05213622 -0.14556733 -0.16822903
-0.3927077 -0.2064589 -0.2800155 -0.13277428 -0.023899386 -0.22606169 -0.111121364 -0.56935525
-0.06192028 -0.22807258 -0.145059 -0.13617122 -0.14624043 -0.23597138 -0.28962338 -0.06651982
-0.21410955 0.048102956 0.033520844 -0.19736545 -0.21175118 -0.2210624 -0.1855734 -0.10603188
0.06758176 -0.18091919 -0.15222946 -0.15622208 -0.12364321 -0.09941469 -0.06753384 -0.1179503
0.069335274 0.11664124 -0.100916944 -0.049897645 -0.10639659 -0.032251284 0.023256915 -0.4274495
-0.23295906 0.018245894 -0.021378655 -0.29142323 0.014581741 -0.12719822 -0.15712447 -0.19770338
0.034232467 -0.027425868 -0.17868052 -0.26621968 -0.27005288 -0.24356347 -0.29895702 -0.03357986
-0.3180546 0.10031463 -0.40197834 -0.27144733 -0.20881385 0.05050624 -0.15259172 0.057306953
-0.04000257 -0.12046966 -0.11016176 -0.08786397 -0.17390986 0.032232277 -0.22559929 0.06527547
0.044351842 0.071588434 0.0029673704 -0.043024335 0.09559211 -0.07959015 -0.018207436 -0.11785997
0.092130765 0.041248586 -0.074906506 -0.23834206 -0.07119914 0.104603 0.124796994 0.2155708
-0.14482278 0.12447145 0.21463138 -0.026458403 0.14767575 0.14178471 -0.08376593 0.06702358
-0.006536489 0.123711385 0.10637513 -0.3050268 -0.04934055 0.01788267 0.16992158 -0.034953844
-0.003522389 0.06750711 -0.08937754 -0.088658266 0.09615406 -0.01620596 0.12604411 0.1113398
-0.050543062 0.055905566 0.120962985 -0.25425518 -0.06914951 0.13562511 0.01582815 0.08634452
-0.16423966 -0.065433785 0.004859551 -0.12697561 0.034294736 0.072353974 0.057301294 0.07646165
-0.2332259 -0.050958507 -0.055227656 0.06017202 0.06796866 -0.11470921 0.16360521 -0.08008772
-0.11043202 0.12068784 0.101872854 0.07877336 0.19692871 -0.014388477 0.080331184 0.019602256
0.057640884 0.020640628 0.12399779 0.051666405 -0.051874038 0.01751216 0.10767698 -0.06925776
0.26121667 0.017053148 0.2122762 -0.09614 0.10095333 0.19899511 0.17870606 0.15205911
0.12451528 0.21081014 -0.006905351 -0.032369815 0.10492808 0.1552791 0.10661067 -0.3360983
-0.007099462 0.19583192 0.086158015 -0.17585093 0.11535986 0.028561616 0.106482424 -0.031659443
0.13402364 0.10823616 -0.039087694 -0.24869415 -0.11572926 0.19477242 -0.07306585 0.13636275
0.06073491 0.25104833 -0.29815757 -0.14165561 0.056138422 0.2223873 0.03979985 0.17572847
0.1320317 -0.002025722 -0.037293408 0.0925166 0.18351229 -0.034660712 0.03832601 0.19441776
00000000: 5d5c d43c 7442 b23c 4192 6cbe 27f9 cfbe
00000010: f742 89bd 17e2 83be 51f3 35be 8450 a9be
00000020: 0b84 51be 53b0 9fbe b2c4 93be 59ae 95be
00000030: 2ef4 87be d0ee e0bd 5285 debc c6af 40bd
00000040: 6a1c f5bd 9b9f 953c f3f2 00be ce91 d8bd
00000050: 446c ea3d 29ac 023d 0899 85be 2e39 f4bd
00000060: f486 fcbd 7404 57bd e908 123d 9eb0 c8be
00000070: 4457 26be c6c6 79be d9c3 c13d 36e7 1cbe
00000080: 6af7 5cbe 0cfc b9bd 3bf0 47be 5d87 99be
00000090: ac12 5abd 40ee 8ebd dcaa 14be 7bce 2abe
000000a0: 107c c6be 474c 3fbe c5ec 37bd ec8e aebe
000000b0: 3353 bbbd c7d3 77bd 7cf5 1abe 6be4 44bc
000000c0: 383e 40be 9ffe 1ebe d8b9 d8be ba02 9abe
000000d0: 2e86 fabd ca8c 55bd 9a0f 15be 3b44 2cbe
000000e0: fc10 c9be f669 53be 315e 8fbe fbf5 07be
000000f0: a5c8 c3bc b77c 67be 9993 e3bd 44c1 11bf
00000100: 1fa0 7dbd dc8b 69be 598a 14be 7870 0bbe
00000110: 0dc0 15be 7ba2 71be 8449 94be 8b3b 88bd
00000120: 893f 5bbe 9b07 453d 274d 093d 2b1a 4abe
00000130: 4dd5 58be 2f5e 62be f406 3ebe 3e27 d9bd
00000140: 4e68 8a3d e142 39be 0ae2 1bbe aef8 1fbe
00000150: a738 fdbd ee99 cbbd 2f4f 8abd ed8f f1bd
00000160: a7ff 8d3d 9ae1 ee3d 8bad cebd 7961 4cbd
00000170: 75e6 d9bd ec19 04bd 4985 be3c a9da dabe
00000180: d28c 6ebe 6a78 953c 4a22 afbc 6d35 95be
00000190: 41e8 6e3c 4040 02be 3de5 20be c172 4abe
000001a0: 5837 0c3d 37ac e0bc 07f8 36be f24d 88be
000001b0: 5f44 8abe b468 79be e510 99be 098b 09bd
000001c0: 0dd8 a2be c271 cd3d 1bd0 cdbe 25fb 8abe
000001d0: 4cd3 55be a2df 4e3d 0141 1cbe b2ba 6a3d
000001e0: bcd9 23bd ccb8 f6bd 7d9c e1bd 06f2 b3bd
000001f0: 6d15 32be fe05 043d 8003 67be 25af 853d
00000200: 47aa 353d f59c 923d 3778 423b 493a 30bd
00000210: ccc5 c33d 2900 a3bd c327 95bc 9160 f1bd
00000220: 0eaf bc3d 47f4 283d 9568 99bd f10f 74be
00000230: dbd0 91bd 193a d63d 9195 ff3d 97be 5c3e
00000240: 6c4c 14be e3ea fe3d 54c8 5b3e 4bbf d8bc
00000250: 5038 173e 0330 113e 798d abbd a943 893d
00000260: 0b30 d6bb 655c fd3d 34db d93d 792c 9cbe
00000270: 5119 4abd ad7e 923c ecff 2d3e c32b 0fbd
00000280: e2d7 66bb 2b41 8a3d 920b b7bd 7792 b5bd
00000290: 6bec c43d 5dc2 84bc b511 013e 1f06 e43d
000002a0: 3e06 4fbd 3cfd 643d 71bb f73d bc2d 82be
000002b0: 429e 8dbd 4fe1 0a3e 09aa 813c 65d5 b03d
000002c0: 712e 28be 2602 86bd de3c 9f3b e505 02be
000002d0: a378 0c3d 522e 943d c3b4 6a3d ed97 9c3d
000002e0: c5d2 6ebe deb9 50bd 6536 62bd f076 763d
000002f0: 2733 8b3d aaec eabd 2088 273e 0805 a4bd
00000300: 2f2a e2bd 302b f73d b7a2 d03d ed53 a13d
00000310: aea7 493e a6bd 6bbc ad84 a43d e994 a03c
00000320: d918 6c3d 8916 a93c 8ef2 fd3d 27a0 533d
00000330: df79 54bd a975 8f3c c085 dc3d 03d7 8dbd
00000340: 31be 853e 0bb3 8b3c ef5e 593e 0ce5 c4bd
00000350: 9fc0 ce3d 60c5 4b3e b9fe 363e 62b5 1b3e
00000360: de01 ff3d 9dde 573e 4846 e2bb 3696 04bd
00000370: 89e4 d63d 7c01 1f3e b256 da3d 1415 acbe
00000380: 9ba2 e8bb 2a88 483e 9d73 b03d 4412 34be
00000390: ca41 ec3d 0dfa e93c 7513 da3d 55ad 01bd
000003a0: 7e3d 093e ebaa dd3d 6b1a 20bd aea9 7ebe
000003b0: 7603 edbd 6c72 473e 8ca3 95bd ada2 0b3e
000003c0: 2bc5 783d 6889 803e 1ca8 98be 2b0e 11be
000003d0: 67f1 653d 7fb9 633e 2b05 233d 2af2 333e
000003e0: 5133 073e fac1 04bb f9c0 18bd 5879 bd3d
000003f0: a5ea 3b3e 64f8 0dbd bcfb 1c3d 7315 473e

lstm.weight_ih_l0_reverse f4 [512, 64]
-0.5278992 0.38892397 -0.37557453 0.09480356 -0.5500134 -0.60060495 -0.11952747 0.6882334
-0.39610675 -0.4542871 -0.8096474 0.53369266 -0.28660536 0.27926165 0.28186086 0.1539995
-0.9213268 -0.033398993 0.38868445 -0.3202589 0.68541086 0.22345264 -0.56593496 0.39592734
-0.5340368 0.31466943 0.6211975 0.33260313 -0.52411735 0.1481913 -0.87995625 -0.30580914
0.5637523 -0.48013765 0.23694903 -0.8459821 0.54848236 0.51348567 0.15897776 0.06718585
-0.27514625 0.33913928 -0.3328469 0.80986506 -0.3167553 0.5326449 0.59994113 -0.3062393
-0.6746628 0.2810853 -0.014126372 0.55946696 0.2516278 -0.5999294 -0.1783915 1.0737777
-0.14276698 -0.26451954 0.44977638 -0.54818743 0.11005294 -0.38289747 0.18831225 0.10789297
-0.006687253 0.058961194 0.098671675 0.15040125 -0.019551916 0.06474322 -0.011099724 0.05322579
-0.09931688 0.10105356 -0.06628398 0.13928986 -0.12379767 0.08735546 0.1832028 -0.015778732
-0.029338278 -0.11341508 -0.113956384 0.06710034 0.04887027 0.09963635 0.0580386 0.08532836
0.08552114 -0.09742169 0.03476912 0.304421 -0.2571637 -0.11461285 -0.16904914 0.18338993
0.031758863 -0.1246029 0.11302474 0.109514184 0.061399482 -0.054094512 0.107067965 0.071812205
0.14510907 -0.071265854 -0.11327067 0.11878658 -0.24858399 0.06610336 -0.06229295 -0.10579345
-0.08889218 0.32306919 -0.06331002 0.17274086 0.10336072 -0.25517502 0.08906218 0.13189246
-0.18407468 -0.006749513 0.22935648 0.022302765 0.12974289 0.015764426 -0.12459785 -0.1745265
0.41984963 -0.12876898 0.31631997 -0.10124663 0.19333458 -0.055127904 0.32247874 -0.32520628
0.23238677 0.04635025 0.3438069 -0.09094545 0.30468297 0.024530118 -0.27914408 0.042902082
0.30097878 -0.07801283 -0.1700463 0.41032347 -0.2376101 -0.21069252 0.42202783 -0.15787056
0.3357371 -0.49727312 -0.24712269 -0.12060111 0.41565117 -0.01600976 0.20850764 0.044711776
-0.32839623 0.4015739 -0.036804274 0.2889738 -0.17323643 -0.29186544 -0.03376615 0.21703008
0.023127016 -0.26571083 0.2244534 -0.49513188 -0.16637471 -0.26749164 -0.41636693 0.09076036
0.4158918 0.31196195 0.006147799 -0.59074724 -0.28228006 -0.09657352 0.19881134 -0.24897207
-0.098142594 0.2699002 -0.25470418 0.08492805 -0.12839033 0.056330558 -0.3629974 -0.22995986
-0.07233424 -0.05796747 0.009814235 0.0895774 0.120942354 0.026894683 0.18583149 -0.16287161
-0.1139736 -0.2550487 0.107614025 0.08963891 -0.09402447 0.05588767 0.0799697 -0.14136167
-0.008379682 0.09468873 0.20892817 0.101913705 -0.1487512 -0.17390296 -0.16923364 -0.06673375
0.054997593 0.2039079 0.060678296 -0.07038104 0.015118102 -0.22332168 0.002551124 -0.05845564
-0.018444462 0.13570693 0.087375194 -0.13042839 -0.25655973 -0.1126298 -0.21748036 -0.2895481
-0.0058005443 -0.11195101 0.08677834 -0.19613269 0.14327478 -0.3643032 -0.36481056 0.14382371
-0.018872581 -0.3975486 0.07098313 -0.3067588 0.038097966 0.12180432 0.13033576 0.10060083
0.44828925 -0.14192747 -0.06268245 -0.12884162 0.076848984 0.27427608 0.35433373 0.015460676
00000000: 6724 07bf 0b21 c73e 4e4b c0be 5e28 c23d
00000010: aecd 0cbf 3fc1 19bf d1ca f4bd 1030 303f
00000020: 81ce cabe 5298 e8be 0d45 4fbf 15a0 083f
00000030: f0bd 92be 62fb 8e3e 1150 903e 0cb2 1d3e
00000040: 13dc 6bbf 62cd 08bd a601 c73e f9f8 a3be
00000050: 1677 2f3f c5d0 643e 1de1 10bf fdb6 ca3e
00000060: a3b6 08bf 5a1c a13e cd06 1f3f f54a aa3e
00000070: 8e2c 06bf 76bf 173e d044 61bf 0493 9cbe
00000080: 1252 103f 9ad4 f5be c4a2 723e 4892 58bf
00000090: 5769 0c3f cc73 033f 11cb 223e bc98 893d
000000a0: f8df 8cbe aaa3 ad3e e96a aabe 5153 4f3f
000000b0: c02d a2be 6b5b 083f be95 193f 66cb 9cbe
000000c0: b4b6 2cbf 6aea 8f3e 4c72 67bc 3a39 0f3f
000000d0: 5cd5 803e f994 19bf 43ac 36be 8c71 893f
000000e0: 8231 12be 1b6f 87be 1749 e63e 0356 0cbf
000000f0: 7063 e13d 230b c4be edd4 403e fdf6 dc3d
00000100: be20 dbbb 4b81 713d 6014 ca3d c902 1a3e
00000110: 572b a0bc 1898 843d 9edb 35bc 4903 5a3d
00000120: a666 cbbd 2bf5 ce3d e5bf 87bd 00a2 0e3e
00000130: a289 fdbd 6be7 b23d 8499 3b3e 6642 81bc
00000140: d456 f0bc 2a46 e8bd f761 e9bd e76b 893d
00000150: 312c 483d 250e cc3d e2b9 6d3d a3c0 ae3d
00000160: b525 af3d 0685 c7bd 116a 0e3d 12dd 9b3e
00000170: f6aa 83be 24ba eabd 381b 2dbe 92ca 3b3e
00000180: 9515 023d ce2f ffbd 8479 e73d f948 e03d
00000190: 067e 7b3d 3592 5dbd 7346 db3d 4712 933d
000001a0: 7997 143e d5f3 91bd 74fa e7bd 6146 f33d
000001b0: cd8c 7ebe 3361 873d e426 7fbd 3caa d8bd
000001c0: 1a0d b6bd 5369 a53e afa8 81bd fbe2 303e
000001d0: c9ae d33d 4da6 82be 3b66 b63d d10e 073e
000001e0: 137e 3cbe 052b ddbb 6ddc 6a3e 4ab4 b63c
000001f0: 52db 043e 6624 813c 282d ffbd 13b7 32be
00000200: 88f6 d63e 04dc 03be b1f4 a13e 655a cfbd
00000210: 80f9 453e cccd 61bd ef1b a53e 7081 a6be
00000220: ccf6 6d3e c2d9 3d3d 7507 b03e 9c41 babd
00000230: 68ff 9b3e 63f3 c83c f9eb 8ebe 18ba 2f3d
00000240: e419 9a3e 31c5 9fbd 9e20 2ebe eb15 d23e
00000250: 1050 73be c8bf 57be 0814 d83e d2a8 21be
00000260: bce5 ab3e 959a febe bb0d 7dbe b7fd f6bd
00000270: 3bd0 d43e e626 83bc 0783 553e b223 373d
00000280: 8d23 a8be 189b cd3e 14c0 16bd 60f4 933e
00000290: e464 31be 636f 95be 604e 0abd 223d 5e3e
000002a0: de74 bd3c 400b 88be 1dd7 653e ed81 fdbe
000002b0: 225e 2abe aaf4 88be 0c2e d5be 91e0 b93d
000002c0: c5ef d43e 7ab9 9f3e 7a73 c93b 363b 17bf
000002d0: 0387 90be 56c8 c5bd 3395 4b3e 89f2 7ebe
000002e0: fcfe c8bd 5c30 8a3e 9668 82be c2ee ad3d
000002f0: c178 03be dfba 663d ccda b9be 997a 6bbe
00000300: f923 94bd 4c6f 6dbd e3cb 203c 5b74 b73d
00000310: a0b0 f73d 3d52 dc3c 9c4a 3e3e d1c7 26be
00000320: fe6a e9bd be95 82be be64 dc3d 9b94 b73d
00000330: e78f c0bd 78ea 643d 27c7 a33d 1dc1 10be
00000340: ef4a 09bc 2aec c13d 44f1 553e 22b8 d03d
00000350: 3c52 18be 9e13 32be 954b 2dbe b4ab 88bd
00000360: 2845 613d 3ccd 503e ce89 783d ef23 90bd
00000370: eab1 773c 70ae 64be c230 273b 2e6f 6fbd
00000380: d718 97bc c2f6 0a3e c4f1 b23d 058f 05be
00000390: cc5b 83be 74aa e6bd 2cb3 5ebe a63f 94be
000003a0: 7e12 bebb 9246 e5bd d8b8 b13d 02d7 48be
000003b0: a0b6 123e f385 babe 73c8 babe 8646 133e
000003c0: ac9a 9abc 7d8b cbbe 9a5f 913d 7d0f 9dbe
000003d0: 9d0c 1c3d 8b74 f93d bd76 053e cf07 ce3d
000003e0: 2b86 e53e 6f55 11be a85f 80bd 0fef 03be
000003f0: 0063 9d3d ea6d 8c3e 3b6b b53e c64e 7d3c

lstm.weight_hh_l0_reverse f4 [512, 128]
0.13442674 0.012807293 -0.16044247 -0.07612923 0.075959414 -0.06029867 -0.11674343 -0.17708838
0.0727073 -0.135715 0.036958124 -0.020816945 -0.07643705 0.10693425 0.027971137 0.17286871
0.24250828 0.030938646 0.12406438 0.048883043 0.030292043 -0.010683649 0.047492728 0.15905763
0.06807276 0.15738072 -0.15322517 0.03484567 -0.078947276 0.19205837 -0.107044645 0.014747698
-0.14415002 0.0848509 -0.05526217 -0.20355752 -0.23572552 -0.108139634 0.15992196 -0.021141686
0.02573811 0.29088235 -0.037818495 0.04331888 -0.029326709 0.24921347 -0.03727883 0.11098641
0.049733043 -0.021196656 0.009185274 -0.107224375 -0.22821829 -0.09924275 -0.18065655 -0.29627138
0.24267928 -0.11147435 0.0757814 -0.065749384 0.036362555 0.114876024 0.13510942 -0.018724011
-0.21925323 0.0366582 -0.10031301 0.01083215 -0.15396796 0.08400048 -0.009943183 0.16384119
-0.092451125 0.074998714 0.009927193 -0.034039844 0.057722513 -0.21165358 -0.16891466 -0.33406946
-0.117212586 -0.10089539 -0.09805628 0.24556938 0.039093584 0.12617165 0.050433375 -0.13161272
-0.09720364 -0.036871795 -0.22878045 -0.10495653 -0.06820274 -0.05368727 -0.13705842 -0.16837761
0.10273236 -0.19289504 0.038501553 0.060455557 -0.061382454 0.16993836 -0.08466602 -0.10486904
0.20368649 0.07142664 -0.26329038 -0.1574589 -0.13610548 -0.233537 -0.09356021 0.065687306
0.018973157 -0.05143187 0.16214149 -0.11407076 -0.01460215 -0.20351605 0.049295306 0.08276234
0.1389335 0.103427745 -0.014103057 -0.024478598 0.17408699 0.003307939 -0.07874155 0.1556315
-0.0523231 0.0510332 0.25877067 -0.05337721 -0.1254168 0.27151614 0.31620762 0.16883719
-0.016179796 0.28087223 0.031512942 0.0055923504 -0.052969135 0.03635292 0.18531606 -0.012086081
-0.2325205 -0.20521674 0.15316157 -0.11989003 -0.18615514 0.09270539 -0.24602236 -0.1759413
0.082734026 -0.12654714 0.29507783 0.22883417 0.011297523 0.21555594 -0.2088582 0.05850616
0.50282604 -0.14175117 0.11414982 -0.04135084 0.09755024 0.35579723 -0.10637445 -0.04950695
0.033746522 0.07575225 0.15796149 -0.42856938 -0.07450989 0.24429639 0.36849564 -0.010642536
0.050130893 0.07368606 -0.15836918 0.16978304 0.02034386 0.49009967 -0.1360452 0.16006146
0.21018577 -0.021887075 -0.25342447 -0.13575298 -0.0889875 -0.3371458 -0.13269751 0.32879633
-0.04977251 0.098649725 0.073924355 -0.074191324 -0.25377616 -0.040720854 0.26118615 -0.15734704
0.005393952 0.030838562 0.13714078 0.11922766 0.24497375 0.15894514 0.10815097 0.032054063
0.25851506 -0.033572804 -0.08482829 -0.17159176 0.16686262 0.23272523 -0.19689874 0.16338606
0.031244589 0.13225803 0.49037117 -0.16702051 0.10002585 0.05103004 -0.14599182 0.38801077
-0.005567845 -0.2325081 0.051046364 0.19658905 0.34121007 -0.16644235 0.034447744 0.14037646
-0.044081263 -0.13764645 0.02274192 -0.02893721 -0.09890653 0.07320453 0.16704395 -0.1935226
-0.06658325 -0.005865566 -0.018175477 0.16185558 -0.05481001 -0.1948588 0.040244613 0.0347856
0.07337565 0.28015366 0.28176853 -0.14286746 -0.19818506 -0.13896711 -0.19625308 -0.064376436
00000000: 2aa7 093e aed5 513c 084b 24be a4e9 9bbd
00000010: 9c90 9b3d bdfb 76bd 2e17 efbd a856 35be
00000020: 91e7 943d dff8 0abe 6761 173d 4c88 aabc
00000030: 078b 9cbd 5800 db3d ba23 e53c 7f04 313e
00000040: 1754 783e 0b73 fd3c 7715 fe3d 9639 483d
00000050: 0527 f83c 790a 2fbc bc87 423d 01e0 223e
00000060: bb69 8b3d 6928 213e 0fe7 1cbe 55ba 0e3d
00000070: 1caf a1bd f3aa 443e 393a dbbd 54a0 713c
00000080: 109c 13be 4fc6 ad3d 965a 62bd 6271 50be
00000090: 0862 71be 5078 ddbd 95c2 233e 5431 adbc
000000a0: bbd8 d23c 88ee 943e 91e7 1abd 236f 313d
000000b0: 913e f0bc d131 7f3e b0b1 18bd d84c e33d
000000c0: e0b4 4b3d 9ca4 adbc d57d 163c 7498 dbbd
000000d0: 0eb2 69be c83f cbbd 08fe 38be e2b0 97be
000000e0: eb80 783e aa4c e4bd 4733 9b3d 9da7 86bd
000000f0: e7f0 143d 1f44 eb3d 205a 0a3e 1963 99bc
00000100: eb83 60be e926 163d e870 cdbd 5479 313c
00000110: c7a9 1dbe 7208 ac3d bbe8 22bc fcc5 273e
00000120: 0457 bdbd ed98 993d aaa5 223c 5d6d 0bbd
00000130: 716e 6c3d b7bb 58be f7f7 2cbe 270b abbe
00000140: 270d f0bd 3ea2 cebd bbd1 c8bd 8a76 7b3e
00000150: 9820 203d 2433 013e 3a93 4e3d 7cc5 06be
00000160: b412 c7bd e106 17bd 6c45 6abe 73f3 d6bd
00000170: e1ad 8bbd 2fe7 5bbd 0b59 0cbe 2e6b 2cbe
00000180: 5865 d23d 4786 45be ceb3 1d3d 3fa0 773d
00000190: 2b6c 7bbd 5204 2e3e 6165 adbd 94c5 d6bd
000001a0: 3193 503e 2148 923d ffcd 86be e83c 21be
000001b0: 3c5f 0bbe 5324 6fbe 7f9c bfbd 1187 863d
000001c0: 986d 9b3c 39aa 52bd 6b08 263e ee9d e9bd
000001d0: db3d 6fbc 8366 50be e0e9 493d 4d7f a93d
000001e0: 9544 0e3e edd1 d33d 8210 67bc 5787 c8bc
000001f0: dc43 323e 02ca 583b 4043 a1bd dd5d 1f3e
00000200: bf50 56bd 3008 513d 977d 843e 10a2 5abd
00000210: 436d 00be 2a04 8b3e f7e5 a13e a8e3 2c3e
00000220: 7e8b 84bc 7cce 8f3e b713 013d 0940 b73b
00000230: 2af6 58bd cde6 143d 7ec3 3d3e b304 46bc
00000240: db19 6ebe 5624 52be 63d6 1c3e e788 f5bd
00000250: 749f 3ebe 53dc bd3d 49ed 7bbe f529 34be
00000260: 7570 a93d 9395 01be 7114 973e 8153 6a3e
00000270: 3f19 393c b2ba 5c3e edde 55be 28a4 6f3d
00000280: 35b9 003f 3827 11be 61c7 e93d 805f 29bd
00000290: 6cc8 c73d 0e2b b63e d9da d9bd cdc7 4abd
000002a0: cb39 0a3d ff23 9b3d a8c0 213e 726d dbbe
000002b0: a498 98bd d528 7a3e 76ab bc3e 085e 2ebc
000002c0: 0d56 4d3d b8e8 963d 882b 22be 9bdb 2d3e
000002d0: 2ba8 a63c 58ee fa3e 6f4f 0bbe 27e7 233e
000002e0: f03a 573e 864c b3bc dac0 81be d402 0bbe
000002f0: 143f b6bd 609e acbe dbe1 07be fe57 a83e
00000300: 42de 4bbd de08 ca3d a765 973d 9ff1 97bd
00000310: f3ee 81be e9ca 26bd 31ba 853e 951f 21be
00000320: c0bf b03b 27a1 fc3c a26e 0c3e a22d f43d
00000330: 66da 7a3e 84c2 223e 417e dd3d 1f4b 033d
00000340: 165c 843e a383 09bd 74ba adbd c0b5 2fbe
00000350: 09de 2a3e 864f 6e3e d39f 49be ad4e 273e
00000360: a7f4 ff3c a66e 073e ee11 fb3e 6d07 2bbe
00000370: 5ada cc3d e004 513d e17e 15be 59a9 c63e
00000380: 7872 b6bb 9a16 6ebe fe15 513d a44e 493e
00000390: 16b3 ae3e dd6f 2abe 1419 0d3d d9be 0f3e
000003a0: 8e8e 34bd 31f3 0cbe 434d ba3c ba0d edbc
000003b0: 828f cabd 42ec 953d 920d 2b3e ca2a 46be
000003c0: cd5c 88bd ef33 c0bb bde4 94bc 78bd 253e
000003d0: 7680 60bd 1189 47be 89d7 243d 587b 0e3d
000003e0: f945 963d 4d70 8f3e f743 903e d94b 12be
000003f0: 06f1 4abe 654d 0ebe 91f6 48be cbd7 83bd

lstm.bias_ih_l0_reverse f4 [512]
-0.19227168 -0.18040413 -0.12451557 -0.21079032 -0.24069305 -0.24782762 -0.29463196 -0.19658907
-0.2487545 -0.30173248 -0.17535177 -0.11844545 -0.24657048 -0.010743862 -0.25071362 0.05262418
-0.23716094 -0.13387738 -0.1378776 -0.31783786 -0.257205 -0.33731812 -0.14004885 -0.10103365
-0.4317466 -0.2572932 -0.0510251 -0.25144982 -0.18753915 -0.29455912 -0.12067496 -0.17016578
-0.29016966 -0.13743053 -0.19594769 -0.2252561 0.07177023 -0.30409056 -0.47448477 -0.011516407
-0.28124437 -0.14090507 -0.048749477 -0.03141521 -0.19107977 -0.19237071 -0.30664113 -0.10019376
-0.3485839 -0.16630043 0.036821812 -0.26083517 -0.20867974 -0.2992747 -0.16630878 -0.09351197
-0.13639183 -0.34069136 -0.29195186 -0.10987701 -0.21962209 -0.14441478 0.035523538 -0.28230733
-0.12375602 -0.14856303 -0.34131777 -0.12734456 -0.08927239 -0.34044036 -0.07813957 -0.36379322
-0.24820434 0.004241901 -0.16538529 -0.20052682 -0.2815082 -0.16032939 -0.08379421 -0.09985929
0.040000748 -0.097482786 -0.32002398 -0.15617132 -0.24855344 0.05722887 -0.1481527 -0.23331898
0.0300517 -0.11701213 -0.28919113 -0.21272233 -0.3336291 -0.25369042 -0.036966532 -0.26729283
-0.13677831 -0.1365774 -0.19329813 -0.0023264962 -0.15391661 -0.052005447 -0.24779636 -0.049579337
-0.15890627 -0.22571552 -0.14170502 -0.15002784 -0.3124229 -0.27006796 -0.24038191 -0.087588854
-0.10569828 -0.28279245 -0.02738435 -0.08491013 -0.22029188 -0.097425826 -0.037939344 -0.15198876
-0.10408402 -0.08120672 -0.011888055 -0.24154262 -0.20588765 -0.20866701 -0.17461641 -0.14070581
-0.16272418 0.08380207 -0.079868354 -0.03688772 -0.030117773 0.12668389 0.007419968 0.09721339
0.107875824 0.02704261 -0.012720767 -0.17782791 0.07039446 0.0064953193 -0.115023986 0.065547146
-0.22003606 0.07219213 -0.12640952 -0.21522616 0.023993675 -0.112412415 0.19982803 0.122510836
-0.27087063 -0.10457361 0.056733828 -0.08413443 -0.12164016 -0.29799625 -0.2538221 -0.1286179
0.07765076 -0.096764974 -0.13252243 -0.1002223 -0.13778833 0.033230223 -0.19105981 0.01922657
-0.08788368 -0.05139202 -0.035842065 0.01841544 0.10766262 -0.17361467 -0.057920776 0.063178875
-0.13217731 -0.0755732 -0.006503393 0.041420374 -0.09599788 0.11425476 0.032704376 0.037822723
0.07174699 -0.2638447 0.022548974 0.00016944748 -0.043841295 0.18018553 0.11741762 0.033463664
-0.13555023 -0.13246684 0.13322918 0.14181817 -0.1655632 0.21238554 0.101828255 -0.18059513
-0.015905887 0.13657627 0.017508605 -0.092117034 -0.101524666 0.1894579 0.019947384 -0.057585213
0.2016716 -0.08577151 -0.15192108 0.030498382 -0.19993979 0.113581985 0.13482277 0.077358276
0.019470127 0.14510685 0.08958893 0.09104688 -0.2350677 -0.034094885 0.04425599 0.08360576
-0.18742591 0.12587847 -0.05493899 0.040316895 0.121649384 0.0550986 -0.06142131 0.06786653
-0.13158406 0.018633917 -0.02896866 0.042852342 -0.04691317 -0.055604856 -0.13745174 0.03613293
0.08518806 -0.16532074 -0.067922145 -0.108284734 0.11603535 0.020710638 0.1620429 -0.065771535
-0.16219372 0.11830714 -0.046974115 -0.22166647 0.1338609 -0.041323267 -0.0962673 -0.15359157
00000000: dee2 44be dcbb 38be 0502 ffbd 6bd9 57be
00000010: 3d78 76be 86c6 7dbe 00da 96be a54e 49be
00000020: 80b9 7ebe ae7c 9abe 6a8f 33be 8793 f2bd
00000030: f97c 7cbe 0607 30bc 895d 80be 748c 573d
00000040: 51da 72be 2717 09be c92f 0dbe a5bb a2be
00000050: 60b0 83be f6b4 acbe f768 0fbe bbea cebd
00000060: e40d ddbe efbb 83be b2ff 50bd 08be 80be
00000070: 430a 40be 74d0 96be 6f24 f7bd f03f 2ebe
00000080: 1e91 94be 97ba 0cbe 83a6 48be 89a9 66be
00000090: 45fc 923d c2b1 9bbe abef f2be 50af 3cbc
000000a0: 43ff 8fbe 6b49 10be 88ad 47bd 3cad 00bd
000000b0: 6aaa 43be d4fc 44be 1100 9dbe 6332 cdbd
000000c0: 9779 b2be a94a 2abe 78d2 163d 308c 85be
000000d0: 24b0 55be 893a 99be d94c 2abe 3483 bfbd
000000e0: 4daa 0bbe 196f aebe b77a 95be 3307 e1bd
000000f0: 9de4 60be 78e1 13be 2181 113d 968a 90be
00000100: cc73 fdbd e820 18be 34c1 aebe 9d66 02be
00000110: 71d4 b6bd 334e aebe a407 a0bd 1b43 babe
00000120: 4729 7ebe a5ff 8a3b c35a 29be e756 4dbe
00000130: d821 90be 632d 24be 4c9c abbd 0783 ccbd
00000140: d3d7 233d 0ea5 c7bd 2fda a3be 60eb 1fbe
00000150: cb84 7ebe d268 6a3d 57b5 17be 2ceb 6ebe
00000160: fc2e f63c 0ea4 efbd dc10 94be e2d3 59be
00000170: 6fd1 aabe b6e3 81be 386a 17bd 9bda 88be
00000180: 9d0f 0cbe f2da 0bbe f2ef 45be 2178 18bb
00000190: 519c 1dbe aa03 55bd 54be 7dbe b413 4bbd
000001a0: 53b8 22be f821 67be 1f1b 11be e6a0 19be
000001b0: e5f5 9fbe 5946 8abe ad26 76be c961 b3bd
000001c0: 5778 d8bd 2cca 90be 2555 e0bc 5de5 adbd
000001d0: 3294 61be 3187 c7bd 4966 1bbd f1a2 1bbe
000001e0: 012a d5bd b54f a6bd 1ec6 42bc f356 77be
000001f0: 36d4 52be ceac 55be a5ce 32be 2f15 10be
00000200: 2ba1 26be 6ba0 ab3d 0592 a3bd 9417 17bd
00000210: 8cb9 f6bc 6cb9 013e 3423 f33b d017 c73d
00000220: 00ee dc3d 7788 dd3c c46a 50bc 8518 36be
00000230: f82a 903d b0d6 d43b b291 ebbd 953d 863d
00000240: 2251 61be 78d9 933d 7f71 01be 3f64 5cbe
00000250: 628e c43c 7b38 e6bd b89f 4c3e f6e6 fa3d
00000260: 8eaf 8abe b02a d6bd bb61 683d ac4e acbd
00000270: 7a1e f9bd f792 98be f8f4 81be 69b4 03be
00000280: 5d07 9f3d b72c c6bd f6b3 07be 5941 cdbd
00000290: 6218 0dbe 6a1c 083d 2fa5 43be 0a81 9d3c
000002a0: 5cfc b3bd 7080 52bd 21cf 12bd fadb 963c
000002b0: 387e dc3d 0bc8 31be 563e 6dbd ed63 813d
000002c0: 7d59 07be 1fc6 9abd 6a1a d5bb 69a8 293d
000002d0: 899a c4bd 66fe e93d 06f5 053d 00ec 1a3d
000002e0: 16f0 923d a716 87be a0b8 b83c b6ad 3139
000002f0: ee92 33bd 8e82 383e a678 f03d 3211 093d
00000300: aecd 0abe 63a5 07be 3b6d 083e c838 113e
00000310: 6689 29be 987b 593e 558b d03d eeed 38be
00000320: 104d 82bc a6da 0b3e 356e 8f3c dba7 bcbd
00000330: 2aec cfbd 4001 423e b268 a33c 79de 6bbd
00000340: 0083 4e3e f9a8 afbd 3391 1bbe bed7 f93c
00000350: 04bd 4cbe ac9d e83d fb0e 0a3e 046e 9e3d
00000360: d17f 9f3c e496 143e 677a b73d c976 ba3d
00000370: 96b5 70be 14a7 0bbd c545 353d 7f39 ab3d
00000380: 94ec 3fbe 49e6 003e b507 61bd 5423 253d
00000390: 5023 f93d 12af 613d e994 7bbd 9bfd 8a3d
000003a0: f9bd 06be 28a6 983c af4f edbc f085 2f3d
000003b0: 0628 40bd ebc1 63bd 26c0 0cbe 2000 143d
000003c0: 1477 ae3d d749 29be c41a 8bbd 63c4 ddbd
000003d0: f1a3 ed3d 5ba9 a93c 93ee 253e 3ab3 86bd
000003e0: 1c16 26be 044b f23d ee67 40bd 89fc 62be
000003f0: d512 093e 9642 29bd ca27 c5bd 1c47 1dbe
