runs/lstm_centered/lstm_centered_python.pt (torch, 865823 bytes, 10 tensors)

emb.weight f4 [256, 64]
-0.30228645 0.14143789 0.024750447 0.18668908 0.19395454 0.2828668 -0.111918285 0.16706218
-0.028241118 0.23693416 -0.038331173 -0.02653168 -0.049151618 -0.0832474 -0.27109003 0.0933469
-0.19172032 -0.049681146 -0.054586373 0.2176674 0.07512405 -0.048874684 0.03965833 -0.19102351
0.052898344 -0.09385765 -0.006855391 0.118184745 0.051028945 0.03702908 0.16862927 0.03988658
-0.16299108 0.06554343 0.11751551 -0.18738937 0.054001708 -0.019560428 -0.049521096 0.14489448
-0.10472326 -0.12609193 -0.06848157 -0.019528955 0.013728897 -0.15699169 -0.042545088 -0.10600786
-0.06669815 0.0923948 0.100476496 -0.065026745 0.13866249 -0.2625619 0.15069227 0.19685405
0.21436387 -0.17197268 -0.21511099 -0.0984184 -0.039286807 0.0715035 0.05973258 -0.01182429
-0.06969735 0.08917212 0.000958037 -0.0015039406 -0.07479521 0.10688182 0.08919849 -0.131542
0.119716816 0.054763213 -0.058266606 0.008625451 -0.041330535 0.088766694 0.029613318 -0.037500262
-0.09295087 0.037073977 -0.04435807 -0.109315865 0.05320746 0.009450337 0.023301154 -0.100163005
-0.07177078 0.061972197 0.015126556 -0.065889865 -0.10794113 -0.06779337 0.019956145 0.03555502
-0.1317843 -0.10403802 0.05169614 0.06526659 -0.02063698 0.024016349 0.010160944 0.07144202
-0.028682524 -0.041919466 0.065254964 -0.089051925 -0.096427105 -0.071196996 0.077827185 0.021254886
-0.13171935 -0.10576176 0.058135055 0.044948325 0.10583955 0.13536403 0.11015404 0.10970237
-0.124360904 0.015991159 0.005691971 -0.06899948 0.07982303 -0.12783861 -0.050747033 0.00964439
0.1124023 0.09000528 -0.071123146 0.07249139 0.065028444 0.019778661 0.08712523 0.10510859
-0.08274242 -0.070164636 -0.059301347 0.099737294 0.068338275 0.102924176 -0.09804046 0.09981223
-0.1031689 -0.12980506 0.07512775 0.012473873 0.031973176 -0.09565571 -0.011976858 0.026171919
0.031055277 0.012801941 -0.12791409 -0.07880628 -0.017220065 -0.024691075 0.11079547 -0.018178968
0.07580989 -0.0040340195 -0.12325901 0.04845371 -0.028611142 -0.0855968 0.020609375 0.03495156
0.0862959 0.050290257 0.09430527 -0.0027600918 -0.0016345278 -0.011331251 -0.13380484 0.014287305
-0.05959445 0.03736971 -0.06494908 -0.08810151 0.091773674 -0.10627661 -0.048846923 0.038537666
-0.10489413 0.08166484 -0.0941263 -0.083152406 -0.10452524 -0.120771766 -0.0069908574 0.12553559
-0.05222133 0.054941952 0.11070001 0.07772219 0.026279572 0.03416358 0.13269486 -0.05077932
-0.11689626 -0.0014850871 0.013228732 0.07304621 -0.06041253 -0.11634701 0.12888937 0.026106674
-0.010860663 0.1168745 -0.11909484 0.10539817 0.090687975 0.08532765 0.038619578 -0.13557208
0.011125135 -0.10127747 -0.072710454 0.0039874814 0.10564317 0.12558697 -0.11424593 0.13467863
0.037434235 0.06489753 0.05157192 -0.010395626 -0.09452014 0.13610783 0.074225314 0.091122456
0.030192928 0.123080954 0.11681879 -0.08165378 -0.1058247 -0.135834 -0.007820772 0.01600389
0.040251344 0.0747 0.084585436 -0.047616284 -0.034330618 0.054770183 0.09989377 0.06871148
-0.036468983 -0.12718526 -0.057663422 0.07303625 0.07106496 0.017685886 -0.00082096935 -0.13211118
00000000: 4ac5 9abe 18d5 103e 73c1 ca3c 6c2b 3f3e
00000010: 059c 463e ebd3 903e 6a35 e5bd 5912 2b3e
00000020: eb59 e7bc de9e 723e 2601 1dbd f758 d9bc
00000030: 3553 49bd 9d7d aabd 50cc 8abe a92c bf3d
00000040: 5552 44be 757e 4bbd f695 5fbd 34e4 5e3e
00000050: a3da 993d d230 48bd c670 223d ab9b 43be
00000060: efab 583d 7138 c0bd 30a3 e0bb d80a f23d
00000070: ba03 513d ceab 173d 27ad 2c3e 1c60 233d
00000080: 22e7 26be a23b 863d f9ab f03d 00e3 3fbe
00000090: e530 5d3d 313d a0bc a2d6 4abd 385f 143e
000000a0: 2679 d6bd 3e1e 01be 1140 8cbd 30fb 9fbc
000000b0: 2bef 603c 6ec2 20be c243 2ebd a61a d9bd
000000c0: 0a99 88bd 7c39 bd3d 9fc6 cd3d be2c 85bd
000000d0: 8afd 0d3e 836e 86be 134f 1a3e 1c94 493e
000000e0: 3482 5b3e 9b19 30be 0e46 5cbe 968f c9bd
000000f0: 34eb 20bd 6d70 923d 26aa 743d abba 41bc
00000100: 7cbd 8ebd df9f b63d c624 7b3a df1f c5ba
00000110: 3b2e 99bd dbe4 da3d b3ad b63d f2b2 06be
00000120: 172e f53d 644f 603d f7a8 6ebd c351 0d3c
00000130: 354a 29bd 50cb b53d a197 f23c e099 19bd
00000140: 075d bebd e2da 173d cfb0 35bd ffe0 dfbd
00000150: 11f0 593d 96d5 1a3c 10e2 be3c 4322 cdbd
00000160: 8ffc 92bd 8fd6 7d3d 60d5 773c 44f1 86bd
00000170: 3d10 ddbd 40d7 8abd 127b a33c 24a2 113d
00000180: 77f2 06be e311 d5bd 55bf 533d 7daa 853d
00000190: e20e a9bc efbd c43c 177a 263c 3250 923d
000001a0: 9df7 eabc bfb3 2bbd 65a4 853d db60 b6bd
000001b0: 937b c5bd bbcf 91bd dc63 9f3d ba1e ae3c
000001c0: 70e1 06be 9f99 d8bd 061f 6e3d bc1b 383d
000001d0: 68c2 d83d de9c 0a3e 7198 e13d a3ab e03d
000001e0: eeb0 febd e4ff 823c b783 ba3b 994f 8dbd
000001f0: 427a a33d 20e8 02be 1fdc 4fbd 8103 1e3c
00000200: 2d33 e63d b054 b83d 03a9 91bd 5e76 943d
00000210: a22d 853d dc06 a23c b66e b23d 2c43 d73d
00000220: dc74 a9bd 7ab2 8fbd f8e5 72bd 1143 cc3d
00000230: f0f4 8b3d e9c9 d23d 70c9 c8bd 5b6a cc3d
00000240: 374a d3bd 9eeb 04be 94dc 993d 375f 4c3c
00000250: 4ef6 023d 24e7 c3bd 953a 44bc 7e66 d63c
00000260: a367 fe3c 3bbf 513c e9fb 02be 3065 a1bd
00000270: 1811 8dbc f044 cabc bce8 e23d 0fec 94bc
00000280: 3742 9b3d cf2f 84bb 386f fcbd 6677 463d
00000290: ea61 eabc 604d afbd fed4 a83c 5e29 0f3d
000002a0: e8bb b03d 28fd 4d3d 1f23 c13d a8e2 34bb
000002b0: a73d d6ba b6a6 39bc 2304 09be 4d15 6a3c
000002c0: 4f19 74bd fb10 193d 0604 85bd 916e b4bd
000002d0: d6f3 bb3d 8da7 d9bd b613 48bd acd9 1d3d
000002e0: bcd2 d6bd e53f a73d 4ac5 c0bd cf4b aabd
000002f0: 5411 d6bd 3057 f7bd 9013 e5bb 678c 003e
00000300: 09e6 55bd d00a 613d b0b6 e23d d02c 9f3d
00000310: 4248 d73c 1cef 0b3d 29e1 073e fafd 4fbd
00000320: 4e67 efbd 41a7 c2ba 53bd 583c 4099 953d
00000330: 2173 77bd 5747 eebd 93fb 033e aadd d53c
00000340: ecf0 31bc e65b ef3d ffe7 f3bd ffda d73d
00000350: 9eba b93d 43c0 ae3d 902f 1e3d 68d3 0abe
00000360: 3346 363c 906a cfbd 38e9 94bd 6ba9 823b
00000370: 725b d83d df99 003e c5f9 e9bd 32e9 093e
00000380: a454 193d ffe8 843d 143d 533d 6a52 2abc
00000390: c693 c1bd da5f 0b3e 7103 983d 699e ba3d
000003a0: 2957 f73c de11 fc3d b13e ef3d 193a a7bd
000003b0: 9fba d8bd 1118 0bbe b222 00bc 971a 833c
000003c0: 98de 243d 50fc 983d 213b ad3d 4b09 43bd
000003d0: 439e 0cbd b356 603d 1b95 cc3d 9bb8 8c3d
000003e0: 8060 15bd da3c 02be 7b30 6cbd 0894 953d
000003f0: 818a 913d fee1 903c 5236 57ba 2748 07be

lstm.weight_ih_l0 f4 [512, 64]
-0.023626259 -0.054335322 0.16871317 -0.5384283 0.05152047 -0.32820952 -0.32081175 -0.50566
0.039599776 0.4789198 0.0557309 0.17230181 0.49523115 -0.07607983 0.10226747 0.29920277
-0.5158875 0.09326261 -0.26639047 -0.38860923 -0.5009525 -0.31562793 -0.122820325 0.123343416
-0.1291483 0.061068583 -0.036173552 0.0006413857 0.30533978 -0.06414077 -0.30592456 -0.292199
0.04865116 -0.17362356 -0.24056505 0.12985332 -0.15396568 -0.10674739 -0.2471744 0.10793622
-0.003516723 0.094839655 0.16127753 0.29923704 0.26644394 0.37859857 0.35463738 0.15938486
0.600409 -0.19101146 0.2572742 -0.33482504 0.2821425 -0.3947505 -0.035369508 0.23755911
0.5673272 -0.014774679 -0.26476616 0.5282894 -0.31777036 0.5131172 0.18074553 0.09054027
-0.015853744 -0.12429969 0.029842777 -0.058627885 -0.08856075 -0.16089857 -0.036251687 -0.0073778727
0.118983895 0.09404973 -0.058258872 0.016809242 -0.06301961 0.021785956 0.09510602 0.10624309
0.0069583277 -0.14909694 -0.11821028 0.009455471 0.07979579 0.035467643 0.095630914 0.042551685
0.08606995 -0.051225584 -0.07752855 -0.1423689 0.014916916 -0.109334804 -0.16743785 -0.054804068
0.04982081 -0.027445879 -0.25000358 -0.00028247322 0.038429182 0.088215105 -0.15464318 -0.14890279
0.099606834 0.17015694 0.015469041 -0.07768259 0.050751787 -0.018978167 -0.03502048 0.084354475
0.17211941 -0.057310667 0.029151153 0.009048063 0.04629362 -0.012082862 -0.18509653 -0.32166058
0.02559342 -0.06405152 0.08210967 -0.047814406 -0.028955843 -0.022295747 -0.0019356102 0.10379468
0.1676474 -0.0822372 -0.049633984 0.029036777 0.020604461 -0.11646987 -0.13076784 0.033893164
0.02999734 0.08188244 0.28431842 0.21739064 -0.04568631 0.056363046 -0.016704228 -0.0990787
-0.13095888 0.016283497 0.030920785 0.04638843 0.058090318 0.013568369 -0.12037757 0.06321554
0.02115543 -0.14418264 -0.04789651 0.20710878 -0.09462747 -0.027764427 0.055710748 -0.13113584
-0.0661585 0.043816596 0.032463316 0.00014154168 -0.16777901 -0.050054826 0.07880815 0.22174937
0.10906636 -0.081869006 0.035024844 0.13952146 0.051284224 0.018607955 -0.0072598164 -0.030722482
-0.03530822 -0.033118792 0.041390013 -0.06586965 -0.06321926 0.11202035 -0.0017374351 0.13412918
-0.08578123 -0.1375508 0.083838925 -0.0009581255 0.06523356 0.02022705 0.048748173 -0.13419764
0.17381838 -0.36325863 -0.040098123 -0.03445081 0.07404071 0.10928273 0.10342998 0.07722609
0.13267687 0.1869665 -0.041445453 0.07763666 -0.020893408 0.05221852 0.015523585 -0.2640222
-0.10679031 -0.15955232 0.29330406 0.34239128 0.2999436 -0.27347547 -0.15155835 0.07644923
0.13846208 0.16041021 -0.010871165 0.3520107 0.104991384 -0.21947724 0.25847322 0.07792694
-0.042242397 -0.12576005 -0.008357459 -0.19960503 0.18429759 0.11578412 0.0061768014 0.11909219
-0.10408595 0.16137587 0.20434874 -0.031466357 -0.305202 0.039964087 -0.16007303 -0.18234313
-0.019224301 0.22631621 -0.18069203 0.20062186 -0.08642635 0.108259045 -0.31411397 -0.1423015
-0.48284212 0.1364016 -0.21840279 0.23265287 0.15842795 0.19675101 -0.32451642 -0.40824473
00000000: db8b c1bc b78e 5ebd 25c3 2c3e 70d6 09bf
00000010: 2107 533d 140b a8be 7041 a4be ef72 01bf
00000020: 6033 223d fa34 f53e 1646 643d e36f 303e
00000030: f08e fd3e becf 9bbd 9b71 d13d 1b31 993e
00000040: 3411 04bf 7800 bf3d 5564 88be caf7 c6be
00000050: 6c3e 00bf fc99 a1be 3989 fbbd 799b fc3d
00000060: 743f 04be 0d23 7a3d b82a 14bd aa22 283a
00000070: 7f55 9c3e 3c5c 83bd 25a2 9cbe 1b9b 95be
00000080: 7046 473d 60ca 31be af56 76be 45f8 043e
00000090: 2ea9 1dbe 609e dabd 491b 7dbe aa0d dd3d
000000a0: d278 66bb 4b3b c23d f025 253e 9935 993e
000000b0: 576b 883e acd7 c13e 0893 b53e c935 233e
000000c0: 67b4 193f 8298 43be 72b9 833e 306e abbe
000000d0: fb74 903e bd1c cabe 9edf 10bd b242 733e
000000e0: 5b3c 113f 7f11 72bc 6e8f 87be f93d 073f
000000f0: ccb2 a2be a65b 033f 5b15 393e 2d6d b93d
00000100: b6df 81bc d690 febd d778 f43c cb23 70bd
00000110: 575f b5bd 98c2 24be a67c 14bd 15c2 f1bb
00000120: d4ad f33d 259d c03d dba0 6ebd 89b3 893c
00000130: 6d10 81bd 7678 b23c f2c6 c23d fa95 d93d
00000140: af02 e43b deac 18be 3b18 f2bd 1feb 1a3c
00000150: fa6b a33d 8546 113d 24da c33d ad4a 2e3d
00000160: 7145 b03d ebd1 51bd 4ac7 9ebd 27c9 11be
00000170: 1566 743c edea dfbd d474 2bbe 3b7a 60bd
00000180: e810 4c3d 2ed6 e0bc 7800 80be ea18 94b9
00000190: eb67 1d3d 1faa b43d c85a 1ebe f979 18be
000001a0: abfe cb3d 9f3d 2e3e dc71 7d3c 0d18 9fbd
000001b0: 1be1 4f3d 1a78 9bbc a371 0fbd 0ac2 ac3d
000001c0: 1240 303e 97be 6abd 66ce ee3c 543e 143c
000001d0: 619e 3d3d 32f7 45bc f289 3dbe b2b0 a4be
000001e0: 4ba9 d13c 712d 83bd 1d29 a83d 0ad9 43bd
000001f0: ce34 edbc 92a5 b6bc 4db4 fdba 4e92 d43d
00000200: c3ab 2b3e fa6b a8bd 014d 4bbd 89de ed3c
00000210: b0ca a83c c187 eebd 01e8 05be 8fd3 0a3d
00000220: fbbc f53c fbb1 a73d 2f92 913e a79b 5e3e
00000230: 9121 3bbd f0dc 663d 4ed7 88bc c6e9 cabd
00000240: 161a 06be f864 853c 964d fd3c cb01 3e3d
00000250: 1df0 6d3d dd4d 5e3c 8488 f6bd 2677 813d
00000260: 274e ad3c 9da4 13be 222f 44bd 5314 543e
00000270: 0ccc c1bd 3972 e3bc f430 643d 7948 06be
00000280: 1c7e 87bd 0879 333d 41f8 043d ce6a 1439
00000290: 43ce 2bbe 4a06 4dbd 2b66 a13d 4412 633e
000002a0: 2f5e df3d f0aa a7bd 3676 0f3d b7de 0e3e
000002b0: 680f 523d b66f 983c c1e3 edbb b7ad fbbc
000002c0: 5a9f 10bd 92a7 07bd 9388 293d abe6 86bd
000002d0: 1979 81bd ed6a e53d a6ba e3ba 2959 093e
000002e0: 12ae afbd 1eda 0cbe beb3 ab3d b72a 7bba
000002f0: 2c99 853d 33b3 a53c 2aac 473d 1b6b 09be
00000300: 72fd 313e 09fd b9be ee3d 24bd 4b1c 0dbd
00000310: a8a2 973d a0cf df3d 19d3 d33d b628 9e3d
00000320: 72dc 073e 2574 3f3e b5c2 29bd f8ff 9e3d
00000330: a728 abbc 16e3 553d a256 7e3c eb2d 87be
00000340: e1b4 dabd af61 23be f32b 963e e94d af3e
00000350: 3592 993e fa04 8cbe 1d32 1bbe 6a91 9c3d
00000360: 01c9 0d3e 9342 243e f91c 32bc bf3a b43e
00000370: b905 d73d a4be 60be 9a56 843e 2998 9f3d
00000380: 5d06 2dbd 3ec7 00be b9ed 08bc 4365 4cbe
00000390: 82b8 3c3e 3a20 ed3d c466 ca3b 9be6 f33d
000003a0: 042b d5bd b73f 253e cc40 513e dee2 00bd
000003b0: 7043 9cbe 62b1 233d 2fea 23be 28b8 3abe
000003c0: 487c 9dbc 70bf 673e 5507 39be d16f 4d3e
000003d0: 4c00 b1bd ebb6 dd3d 8cd3 a0be 7cb7 11be
000003e0: 1537 f7be dcac 0b3e fba4 5fbe 8e3c 6e3e
000003f0: f03a 223e 1979 493e 0427 a6be 7405 d1be

lstm.weight_hh_l0 f4 [512, 128]
-0.05919066 -0.15206538 -0.19203356 0.047402505 -0.11183513 -0.31245157 -0.035149507 0.2553173
-0.12531018 0.075775295 0.2855869 0.04100066 -0.22366416 -0.3252862 0.11600629 -0.00059081713
0.18944797 -0.036217 -0.28943193 -0.14240879 -0.27430442 0.011759521 -0.10981973 0.038949862
-0.12430772 -0.046492085 0.055478398 -0.14777294 0.13743605 0.012761199 0.010444842 0.1613006
0.1397246 -0.033811696 -0.04744015 0.099476576 -0.0056780307 0.13561179 -0.14116064 0.0019394853
0.13374871 0.25995278 -2.6847498e-05 0.03946596 -0.15977907 -0.09883441 0.15658268 -0.1904455
0.030644925 0.10446585 0.14716242 -0.197275 -0.02171635 0.23949283 -0.1710916 -0.14629276
-0.06202604 -0.052551437 -0.03855918 -0.105906 -0.2371461 -0.15082264 -0.07513082 0.09005372
-0.01952485 -0.047891162 -0.024385579 -0.17313185 0.0046242364 0.10555284 -0.3515026 0.06622997
0.11659365 -0.048979793 0.05662426 -0.15871482 0.059035897 -0.23246631 0.023479955 0.12038531
0.11506804 -0.19545813 0.019288309 -0.10488134 0.04161482 0.09938745 0.16085888 -0.11346649
0.3106292 -0.1524504 -0.03291403 -0.20814139 -0.07170651 0.08802224 0.08921999 -0.28065562
-0.24076118 -0.18241999 -0.108869046 0.08027357 0.052949138 -0.16331442 0.03475424 0.13757679
0.051626902 -0.31707755 -0.13373655 -0.14337957 0.253054 0.010875189 0.10429833 -0.085652545
-0.21395424 0.17955644 -0.0778485 0.015365688 0.067622855 0.017446868 -0.13309552 0.060054503
0.23057887 -0.07192748 0.08492802 0.0011172412 -0.21304624 0.15657786 0.007542226 0.098223545
-0.20629267 0.014504962 -0.17049703 -0.18182413 0.18511991 0.048227858 -0.039006256 0.15648185
0.07844405 0.0685031 -0.16363475 -0.1938072 -0.032853857 -0.0018151525 0.2921108 0.0068276008
-0.14197768 0.20214215 -0.01814997 0.21576943 0.11943775 0.14738096 0.13099003 -0.16154857
-0.063854285 0.12756327 0.18091768 0.03876749 -0.20485191 -0.038118865 0.17185721 -0.1293613
-0.17441614 -0.04499489 0.19325294 -0.030623863 0.03297186 -0.08866111 0.09020476 -0.17042528
-0.056222964 0.016177338 -0.018054605 0.048697744 -0.2362557 -0.0015894816 -0.03672951 -0.08069042
-0.115379535 -0.038436573 -0.07284713 -0.029428948 -0.11778971 -0.022911716 -0.0050441623 0.11192411
-0.114199065 0.18040371 0.020322397 -0.14346598 -0.035303812 0.017646002 -0.024792705 0.12428391
0.06667998 0.049976807 -0.1889843 -0.08138111 -0.050026726 -0.2020224 0.09304147 -0.26349276
-0.006258754 0.029805817 -0.058038298 0.02043007 0.11457487 0.022005133 -0.020304698 -0.0026878605
-0.037465125 0.15561306 -0.06344636 -0.11246638 0.109084316 0.091439255 0.015505365 -0.016529964
-0.18930204 0.0013815982 0.17355987 0.25661615 0.10687624 -0.1005933 0.100678414 -0.07980407
0.11549275 0.059833527 0.065994225 -0.09239439 -0.058613427 0.23775965 0.2921589 -0.028084276
0.2574058 -0.11154535 -0.08440304 0.16912243 -0.17583664 0.04920807 0.11721836 -0.039299306
0.13201182 0.102823414 -0.00167949 0.09130022 -0.04195192 -0.2071025 -0.13390256 -0.14622614
-0.27509177 -0.010579284 -0.06955886 -0.054086473 -0.03533112 -0.14137049 -0.045653835 -0.25486684
00000000: e871 72bd 07b7 1bbe 72a4 44be 2129 423d
00000010: d109 e5bd a7f9 9fbe eef8 0fbd f3b8 823e
00000020: 5051 00be 1430 9b3d 7238 923e 4ff0 273d
00000030: 3808 65be ea8b a6be b594 ed3d 11e1 1aba
00000040: a6fe 413e 4758 14bd 6c30 94be 9cd3 11be
00000050: a171 8cbe 02ab 403c 2be9 e0bd e489 1f3d
00000060: 0c95 febd 7c6e 3ebd 513d 633d ca51 17be
00000070: 09bc 0c3e 5914 513c d820 2b3c fc2b 253e
00000080: f713 0f3e 227e 0abd 9a50 42bd 60ba cb3d
00000090: c60e babb d1dd 0a3e 6a8c 10be 5436 fe3a
000000a0: 6cf5 083e 8818 853e 9036 e1b7 0fa7 213d
000000b0: 209d 23be b269 cabd 3657 203e 2504 43be
000000c0: 110b fb3c 31f2 d53d bfb1 163e 7502 4abe
000000d0: 7de6 b1bc 9c3d 753e a332 2fbe c5cd 15be
000000e0: 040f 7ebd 2d40 57bd 3bf0 1dbd 3fe5 d8bd
000000f0: 6dd6 72be 4071 1abe 30de 99bd 166e b83d
00000100: 94f2 9fbc 8629 44bd 44c4 c7bc 7a49 31be
00000110: e886 973b 162c d83d 26f8 b3be 94a3 873d
00000120: a7c8 ee3d 099f 48bd d7ee 673d 2386 22be
00000130: a0cf 713d a60b 6ebe 0959 c03c 938c f63d
00000140: cba8 eb3d 2d26 48be 8402 9e3c 07cc d6bd
00000150: 4d74 2a3d a68b cb3d 31b8 243e 1e61 e8bd
00000160: ca0a 9f3e f51b 1cbe ddd0 06bd 0423 55be
00000170: ddda 92bd 0145 b43d f8b8 b63d 18b2 8fbe
00000180: 198a 76be 4ecc 3abe bcf6 debd 7866 a43d
00000190: 32e1 583d e53b 27be 765a 0e3d eee0 0c3e
000001a0: bb76 533d fd57 a2be 3cf2 08be 18d2 12be
000001b0: 4b90 813e d92d 323c 5d9a d53d 9a6a afbd
000001c0: d216 5bbe a5dd 373e 096f 9fbd 5ec0 7b3c
000001d0: da7d 8a3d bcec 8e3c 314a 08be b6fb 753d
000001e0: de1c 6c3e b74e 93bd beee ad3d 6570 923a
000001f0: cb28 5abe f255 203e c724 f73b 6d29 c93d
00000200: 633e 53be 38a6 6d3c c696 2ebe 1b30 3abe
00000210: 1390 3d3e 938a 453d 06c5 1fbd c73c 203e
00000220: 46a7 a03d 5a4b 8c3d de8f 27be 6575 46be
00000230: c491 06bd 69ea edba 8c8f 953e 11ba df3b
00000240: 9962 11be 5afe 4e3e 3faf 94bc a9f2 5c3e
00000250: c79b f43d 09eb 163e 4022 063e fd6c 25be
00000260: 09c6 82bd f29f 023e 7c42 393e a9ca 1e3d
00000270: b3c4 51be 8722 1cbd 56fb 2f3e 4a77 04be
00000280: 259a 32be 904c 38bd 19e4 453e e5de fabc
00000290: 800d 073d f593 b5bd 46bd b83d f783 2ebe
000002a0: 0d4a 66bd 5686 843c 40e7 93bc 4977 473d
000002b0: 04ed 71be 2756 d0ba af71 16bd 0541 a5bd
000002c0: 1b4c ecbd ab6f 1dbd e030 95bd fa14 f1bc
000002d0: bb3b f1bd 5ab1 bbbc 8049 a5bb 7838 e53d
000002e0: 33e1 e9bd c0bb 383e 287b a63c bfe8 12be
000002f0: bb9a 10bd 598e 903c 121a cbbc 9088 fe3d
00000300: 838f 883d 7bb4 4c3d 1a85 41be 24ab a6bd
00000310: d3e8 4cbd f6de 4ebe 878c be3d 86e8 86be
00000320: 3c16 cdbb 542b f43c 91b9 6dbd f65c a73c
00000330: 3ba6 ea3d 1c44 b43c 0a56 a6bc d126 30bb
00000340: 0875 19bd 0859 1f3e 2af0 81bd c654 e6bd
00000350: 9967 df3d 8144 bb3d 370a 7e3c d969 87bc
00000360: 65d8 41be be16 b53a aeb9 313e 3163 833e
00000370: eee1 da3d dc03 cebd 7c30 ce3d 5170 a3bd
00000380: 7787 ec3d 0014 753d fb27 873d 4539 bdbd
00000390: a214 70bd 4477 733e da95 953e ff10 e6bc
000003a0: b1ca 833e e371 e4bd 80db acbd 6e2e 2d3e
000003b0: 850e 34be 678e 493d 2e10 f03d 4ff8 20bd
000003c0: 1b2e 073e 1595 d23d 5522 dcba 9cfb ba3d
000003d0: c7d5 2bbd ae12 54be c11d 09be 4ebc 15be
000003e0: d4d8 8cbe bc54 2dbc e074 8ebd c789 5dbd
000003f0: 5db7 10bd 6dc3 10be 84ff 3abd e87d 82be

lstm.bias_ih_l0 f4 [512]
-0.028961584 0.10003283 -0.001695683 0.11212079 -0.13069998 -0.26262397 -0.026116349 -0.10949344
-0.1642318 -0.23615272 0.04747296 -0.012394653 0.011571922 -0.097461656 -0.14702158 -0.06490839
-0.19475698 -0.19404915 -0.092128254 -0.089534126 -0.06749436 -0.24053259 -0.003913897 -0.30505356
-0.13229813 -0.20512998 0.058348514 -0.042448875 -0.024731461 -0.08325281 -0.020624418 -0.16672023
-0.01992028 -0.092020676 -0.10684722 -0.03773695 -0.06427609 -0.11306187 -0.022831846 0.039407786
-0.17090654 -0.15420674 -0.05960957 -0.20130946 0.14686908 -0.00034562754 -0.07447013 -0.21048465
-0.1348159 -0.07860191 0.01591182 -0.13677743 -0.24035761 -0.12559986 -0.12514974 -0.058831837
-0.013110939 -0.09420487 -0.11120934 -0.11724869 0.03452452 -0.18581742 -0.22250448 -0.23988293
-0.107728235 0.1977932 -0.14613149 -0.16723195 -0.03570296 -0.102393515 -0.02170677 -0.13854177
-0.1247977 -0.113230325 -0.14719371 -0.04421721 -0.24311116 -0.06783939 -0.14179148 -0.13837959
-0.30640167 -0.05797989 -0.06452716 -0.12293789 -0.12135514 -0.025292609 -0.11328209 -0.033318367
0.06221244 -0.054691385 -0.109731294 -0.057326358 0.12866874 -0.03567938 -0.21958838 -0.26608747
-0.09564245 -0.20402333 0.10846806 -0.017956128 -0.13908152 -0.053569876 0.0011343465 -0.13541365
-0.020170003 -0.07090836 0.098739415 -0.12315375 -0.032972757 -0.069290176 0.012199063 -0.10635329
-0.01834297 -0.11437335 -0.093041 -0.11261087 -0.19975269 -0.06738972 -0.13322291 -0.07671496
-0.07881109 0.09024426 -0.2793913 -0.15462214 -0.07176667 -0.1503136 -0.12824063 -0.031231554
0.032173842 0.21558897 0.2569449 0.021116164 0.017977409 -0.27365953 0.01643046 -0.010258685
0.05492812 -0.032246012 0.10971252 0.038702793 0.3442023 0.122257955 -0.039795324 0.15263322
0.038913198 -0.077380024 0.017463975 -0.0012930421 -0.04768709 -0.15398888 0.104352765 -0.08611818
0.065702744 -0.031519566 0.04594449 0.08523917 0.17165229 0.124078706 -0.0067834742 -0.05144133
0.0444457 0.03346494 -0.030231759 0.003450576 0.0344405 0.01696249 0.22000393 0.18426786
0.026869308 0.03683498 0.035243217 0.1661972 0.05680957 0.027437493 0.11535507 -0.13229746
0.06861244 0.03269988 0.13246095 -0.0111904545 0.15924427 0.06377828 0.036632463 0.17037795
0.030729808 -0.0110894125 0.1209682 -0.015330793 0.27062884 0.072667085 -0.10349909 0.014090189
0.06927143 0.2594389 -0.14992648 0.16147918 0.14039527 0.15975331 0.20339675 -0.105407536
0.08246835 0.1151478 0.023892287 0.22676909 -0.04760476 0.17416857 -0.14294785 -0.024425445
0.11534166 0.025690714 0.021187162 0.09868677 0.014597615 0.07690255 0.112570144 0.090057604
0.066033415 0.07042557 0.12439244 0.02312691 0.2587459 0.24564023 -0.0022208882 0.15749107
0.029546497 0.21882403 0.22118683 0.15252058 -0.11465371 -0.22493505 0.09143409 -0.09214214
0.12729225 -0.14175148 0.1722148 -0.072286576 0.007683184 0.11637573 0.1739593 0.03417926
0.10716254 0.061863426 0.11850626 0.054856826 -0.22490191 0.016198121 0.09107627 0.13452902
0.14058234 0.14534943 0.096606314 0.11739829 0.01275256 0.012713096 0.0920797 0.16619118
00000000: d840 edbc 03de cc3d ae41 deba 969f e53d
00000010: 37d6 05be a676 86be f4f1 d5bc 193e e0bd
00000020: 622c 28be 05d2 71be 0273 423d f112 4bbc
00000030: 2998 3d3c fa99 c7bd d38c 16be b1ee 84bd
00000040: 606e 47be d2b4 46be bdad bcbd ab5d b7bd
00000050: 7c3a 8abd 2d4e 76be 2640 80bb fb2f 9cbe
00000060: 2979 07be 980d 52be dafe 6e3d dfde 2dbd
00000070: a299 cabc 7380 aabd 8af4 a8bc b5b8 2abe
00000080: db2f a3bc 5675 bcbd b7d2 dabd 0f92 1abd
00000090: 2fa3 83bd fb8c e7bd da09 bbbc 0f6a 213d
000000a0: 2002 2fbe 5fe8 1dbe 2a29 74bd 1124 4ebe
000000b0: d964 163e 5835 b5b9 cc83 98bd 4a89 57be
000000c0: 2e0d 0abe 0afa a0bd 8159 823c 620f 0cbe
000000d0: 4e20 76be 409d 00be 4127 00be a7f9 70bd
000000e0: 44cf 56bc 7cee c0bd b9c1 e3bd 1520 f0bd
000000f0: 9569 0d3d ec46 3ebe 37d8 63be dfa3 75be
00000100: 9fa0 dcbd 4d8a 4a3e 7ea3 15be da3e 2bbe
00000110: 443d 12bd b1b3 d1bd 65d2 b1bc e5dd 0dbe
00000120: f095 ffbd 4de5 e7bd f3b9 16be 1b1d 35bd
00000130: 22f2 78be 61ef 8abd c931 11be 61b3 0dbe
00000140: aee0 9cbe 527c 6dbd d126 84bd dcc6 fbbd
00000150: 0b89 f8bd 7232 cfbc 7100 e8bd d778 08bd
00000160: 79d2 7e3d 1304 60bd cdba e0bd 0bcf 6abd
00000170: bdc1 033e 8b24 12bd c7db 60be 9e3c 88be
00000180: 30e0 c3bd 7eeb 50be 8124 de3d bb18 93bc
00000190: 636b 0ebe 166c 5bbd 5aae 943a e0a9 0abe
000001a0: 903b a5bc 6738 91bd e437 ca3d 0938 fcbd
000001b0: 710e 07bd 02e8 8dbd 94de 473c c1cf d9bd
000001c0: ff43 96bc 933c eabd 488c bebd 87a0 e6bd
000001d0: f88b 4cbe 9f03 8abd 966b 08be bc1c 9dbd
000001e0: b567 a1bd fcd1 b83d 600c 8fbe 4455 1ebe
000001f0: 67fa 92bd cfeb 19be 8351 03be 51d9 ffbc
00000200: b8c8 033d 5bc3 5c3e 488e 833e cefb ac3c
00000210: 5c45 933c 1a1d 8cbe 2c99 863c 0b14 28bc
00000220: 4ffc 603d 6514 04bd f5b0 e03d d286 1e3d
00000230: 493b b03e 6162 fa3d 6c00 23bd e24b 1c3e
00000240: 7263 1f3d 6b79 9ebd 9c10 8f3c 4b7b a9ba
00000250: 8a53 43bd 43af 1dbe e7b6 d53d ba5e b0bd
00000260: 298f 863d a91a 01bd 4a30 3c3d e091 ae3d
00000270: 9ec5 2f3e fa1c fe3d e847 debb 25b4 52bd
00000280: b20c 363d 8812 093d 98a8 f7bc 0f23 623b
00000290: 7b11 0d3d ebf4 8a3c b648 613e b7b0 3c3e
000002a0: 061d dc3c 47e0 163d 315b 103d 992f 2a3e
000002b0: 27b1 683d 98c4 e03c 473f ec3d fc78 07be
000002c0: ae84 8c3d 4ff0 053d d8a3 073e 2b58 37bc
000002d0: ee10 233e 309e 823d ec0b 163d 8f77 2e3e
000002e0: 14bd fb3c 5eb0 35bc 2dbe f73d 022e 7bbc
000002f0: dd8f 8a3e 7bd2 943d 55f7 d3bd 89da 663c
00000300: 2ede 8d3d 2dd5 843e 5486 19be cc5a 253e
00000310: c7c3 0f3e 5f96 233e 3d47 503e e8df d7bd
00000320: 2be5 a83d 9cd2 eb3d c2b9 c33c 2836 683e
00000330: 35fd 42bd 3f59 323e ec60 12be df17 c8bc
00000340: 4038 ec3d 5575 d23c b390 ad3c 4a1c ca3d
00000350: d62a 6f3c 167f 9d3d 2d8b e63d 1f70 b83d
00000360: 873c 873d 483b 903d 77c1 fe3d a574 bd3c
00000370: 587a 843e 1d89 7b3e 528c 11bb 5745 213e
00000380: 7f0b f23c 6813 603e cd7e 623e 5b2e 1c3e
00000390: 90cf eabd 6055 66be cc41 bb3d 05b5 bcbd
000003a0: e658 023e 4d27 11be 1459 303e fc0a 94bd
000003b0: 38c3 fb3b 6656 ee3d 6322 323e 8dff 0b3d
000003c0: 0978 db3d 8164 7d3d 69b3 f23d 8db1 603d
000003d0: b04c 66be ecb1 843c 3286 ba3d fac1 093e
000003e0: d1f4 0f3e 7bd6 143e 88d9 c53d 846e f03d
000003f0: 1df0 503c 974a 503c 4894 bc3d 052e 2a3e

lstm.bias_hh_l0 f4 [512]
-0.028961584 0.10003283 -0.001695683 0.11212079 -0.13069998 -0.26262397 -0.026116349 -0.10949344
-0.1642318 -0.23615272 0.04747296 -0.012394653 0.011571922 -0.097461656 -0.14702158 -0.06490839
-0.19475698 -0.19404915 -0.092128254 -0.089534126 -0.06749436 -0.24053259 -0.003913897 -0.30505356
-0.13229813 -0.20512998 0.058348514 -0.042448875 -0.024731461 -0.08325281 -0.020624418 -0.16672023
-0.01992028 -0.092020676 -0.10684722 -0.03773695 -0.06427609 -0.11306187 -0.022831846 0.039407786
-0.17090654 -0.15420674 -0.05960957 -0.20130946 0.14686908 -0.00034562754 -0.07447013 -0.21048465
-0.1348159 -0.07860191 0.01591182 -0.13677743 -0.24035761 -0.12559986 -0.12514974 -0.058831837
-0.013110939 -0.09420487 -0.11120934 -0.11724869 0.03452452 -0.18581742 -0.22250448 -0.23988293
-0.107728235 0.1977932 -0.14613149 -0.16723195 -0.03570296 -0.102393515 -0.02170677 -0.13854177
-0.1247977 -0.113230325 -0.14719371 -0.04421721 -0.24311116 -0.06783939 -0.14179148 -0.13837959
-0.30640167 -0.05797989 -0.06452716 -0.12293789 -0.12135514 -0.025292609 -0.11328209 -0.033318367
0.06221244 -0.054691385 -0.109731294 -0.057326358 0.12866874 -0.03567938 -0.21958838 -0.26608747
-0.09564245 -0.20402333 0.10846806 -0.017956128 -0.13908152 -0.053569876 0.0011343465 -0.13541365
-0.020170003 -0.07090836 0.098739415 -0.12315375 -0.032972757 -0.069290176 0.012199063 -0.10635329
-0.01834297 -0.11437335 -0.093041 -0.11261087 -0.19975269 -0.06738972 -0.13322291 -0.07671496
-0.07881109 0.09024426 -0.2793913 -0.15462214 -0.07176667 -0.1503136 -0.12824063 -0.031231554
0.032173842 0.21558897 0.2569449 0.021116164 0.017977409 -0.27365953 0.01643046 -0.010258685
0.05492812 -0.032246012 0.10971252 0.038702793 0.3442023 0.122257955 -0.039795324 0.15263322
0.038913198 -0.077380024 0.017463975 -0.0012930421 -0.04768709 -0.15398888 0.104352765 -0.08611818
0.065702744 -0.031519566 0.04594449 0.08523917 0.17165229 0.124078706 -0.0067834742 -0.05144133
0.0444457 0.03346494 -0.030231759 0.003450576 0.0344405 0.01696249 0.22000393 0.18426786
0.026869308 0.03683498 0.035243217 0.1661972 0.05680957 0.027437493 0.11535507 -0.13229746
0.06861244 0.03269988 0.13246095 -0.0111904545 0.15924427 0.06377828 0.036632463 0.17037795
0.030729808 -0.0110894125 0.1209682 -0.015330793 0.27062884 0.072667085 -0.10349909 0.014090189
0.06927143 0.2594389 -0.14992648 0.16147918 0.14039527 0.15975331 0.20339675 -0.105407536
0.08246835 0.1151478 0.023892287 0.22676909 -0.04760476 0.17416857 -0.14294785 -0.024425445
0.11534166 0.025690714 0.021187162 0.09868677 0.014597615 0.07690255 0.112570144 0.090057604
0.066033415 0.07042557 0.12439244 0.02312691 0.2587459 0.24564023 -0.0022208882 0.15749107
0.029546497 0.21882403 0.22118683 0.15252058 -0.11465371 -0.22493505 0.09143409 -0.09214214
0.12729225 -0.14175148 0.1722148 -0.072286576 0.007683184 0.11637573 0.1739593 0.03417926
0.10716254 0.061863426 0.11850626 0.054856826 -0.22490191 0.016198121 0.09107627 0.13452902
0.14058234 0.14534943 0.096606314 0.11739829 0.01275256 0.012713096 0.0920797 0.16619118
00000000: d840 edbc 03de cc3d ae41 deba 969f e53d
00000010: 37d6 05be a676 86be f4f1 d5bc 193e e0bd
00000020: 622c 28be 05d2 71be 0273 423d f112 4bbc
00000030: 2998 3d3c fa99 c7bd d38c 16be b1ee 84bd
00000040: 606e 47be d2b4 46be bdad bcbd ab5d b7bd
00000050: 7c3a 8abd 2d4e 76be 2640 80bb fb2f 9cbe
00000060: 2979 07be 980d 52be dafe 6e3d dfde 2dbd
00000070: a299 cabc 7380 aabd 8af4 a8bc b5b8 2abe
00000080: db2f a3bc 5675 bcbd b7d2 dabd 0f92 1abd
00000090: 2fa3 83bd fb8c e7bd da09 bbbc 0f6a 213d
000000a0: 2002 2fbe 5fe8 1dbe 2a29 74bd 1124 4ebe
000000b0: d964 163e 5835 b5b9 cc83 98bd 4a89 57be
000000c0: 2e0d 0abe 0afa a0bd 8159 823c 620f 0cbe
000000d0: 4e20 76be 409d 00be 4127 00be a7f9 70bd
000000e0: 44cf 56bc 7cee c0bd b9c1 e3bd 1520 f0bd
000000f0: 9569 0d3d ec46 3ebe 37d8 63be dfa3 75be
00000100: 9fa0 dcbd 4d8a 4a3e 7ea3 15be da3e 2bbe
00000110: 443d 12bd b1b3 d1bd 65d2 b1bc e5dd 0dbe
00000120: f095 ffbd 4de5 e7bd f3b9 16be 1b1d 35bd
00000130: 22f2 78be 61ef 8abd c931 11be 61b3 0dbe
00000140: aee0 9cbe 527c 6dbd d126 84bd dcc6 fbbd
00000150: 0b89 f8bd 7232 cfbc 7100 e8bd d778 08bd
00000160: 79d2 7e3d 1304 60bd cdba e0bd 0bcf 6abd
00000170: bdc1 033e 8b24 12bd c7db 60be 9e3c 88be
00000180: 30e0 c3bd 7eeb 50be 8124 de3d bb18 93bc
00000190: 636b 0ebe 166c 5bbd 5aae 943a e0a9 0abe
000001a0: 903b a5bc 6738 91bd e437 ca3d 0938 fcbd
000001b0: 710e 07bd 02e8 8dbd 94de 473c c1cf d9bd
000001c0: ff43 96bc 933c eabd 488c bebd 87a0 e6bd
000001d0: f88b 4cbe 9f03 8abd 966b 08be bc1c 9dbd
000001e0: b567 a1bd fcd1 b83d 600c 8fbe 4455 1ebe
000001f0: 67fa 92bd cfeb 19be 8351 03be 51d9 ffbc
00000200: b8c8 033d 5bc3 5c3e 488e 833e cefb ac3c
00000210: 5c45 933c 1a1d 8cbe 2c99 863c 0b14 28bc
00000220: 4ffc 603d 6514 04bd f5b0 e03d d286 1e3d
00000230: 493b b03e 6162 fa3d 6c00 23bd e24b 1c3e
00000240: 7263 1f3d 6b79 9ebd 9c10 8f3c 4b7b a9ba
00000250: 8a53 43bd 43af 1dbe e7b6 d53d ba5e b0bd
00000260: 298f 863d a91a 01bd 4a30 3c3d e091 ae3d
00000270: 9ec5 2f3e fa1c fe3d e847 debb 25b4 52bd
00000280: b20c 363d 8812 093d 98a8 f7bc 0f23 623b
00000290: 7b11 0d3d ebf4 8a3c b648 613e b7b0 3c3e
000002a0: 061d dc3c 47e0 163d 315b 103d 992f 2a3e
000002b0: 27b1 683d 98c4 e03c 473f ec3d fc78 07be
000002c0: ae84 8c3d 4ff0 053d d8a3 073e 2b58 37bc
000002d0: ee10 233e 309e 823d ec0b 163d 8f77 2e3e
000002e0: 14bd fb3c 5eb0 35bc 2dbe f73d 022e 7bbc
000002f0: dd8f 8a3e 7bd2 943d 55f7 d3bd 89da 663c
00000300: 2ede 8d3d 2dd5 843e 5486 19be cc5a 253e
00000310: c7c3 0f3e 5f96 233e 3d47 503e e8df d7bd
00000320: 2be5 a83d 9cd2 eb3d c2b9 c33c 2836 683e
00000330: 35fd 42bd 3f59 323e ec60 12be df17 c8bc
00000340: 4038 ec3d 5575 d23c b390 ad3c 4a1c ca3d
00000350: d62a 6f3c 167f 9d3d 2d8b e63d 1f70 b83d
00000360: 873c 873d 483b 903d 77c1 fe3d a574 bd3c
00000370: 587a 843e 1d89 7b3e 528c 11bb 5745 213e
00000380: 7f0b f23c 6813 603e cd7e 623e 5b2e 1c3e
00000390: 90cf eabd 6055 66be cc41 bb3d 05b5 bcbd
000003a0: e658 023e 4d27 11be 1459 303e fc0a 94bd
000003b0: 38c3 fb3b 6656 ee3d 6322 323e 8dff 0b3d
000003c0: 0978 db3d 8164 7d3d 69b3 f23d 8db1 603d
000003d0: b04c 66be ecb1 843c 3286 ba3d fac1 093e
000003e0: d1f4 0f3e 7bd6 143e 88d9 c53d 846e f03d
000003f0: 1df0 503c 974a 503c 4894 bc3d 052e 2a3e

lstm.weight_ih_l0_reverse f4 [512, 64]
-0.10515444 -0.0060698274 0.061947484 -0.040103428 -0.046954006 -0.062435456 -0.061445136 -0.1199452
0.03490111 0.035848144 -0.009112897 -0.02967314 0.1799067 -0.20483488 -0.038110398 0.16119914
-0.072317995 -0.13955332 0.00089553033 -0.06930491 -0.21854827 -0.14950451 0.039026555 -0.105533294
0.101913266 -0.10382248 -0.057094127 0.01313418 -0.059066284 0.1305297 -0.02136944 -0.14498104
-0.095524386 0.085836396 -0.15376046 0.0677069 -0.029083313 0.012991009 -0.18143319 -0.056226365
-0.008497871 0.009598931 0.059756473 -0.08896401 0.13698556 -0.08698092 -0.01134459 -0.12220891
0.10291704 -0.16973403 0.08797422 -0.04609511 0.003523821 -0.017628474 0.013605493 0.0741938
0.109289505 0.044658303 -0.12111621 0.035124317 0.17414282 0.08081633 0.008987239 0.04299996
0.06495913 -0.0014930697 0.074548125 0.19162667 0.019878566 0.055318993 -0.09816815 0.08370955
-0.09458582 -0.11012209 -0.09018902 -0.091602154 -0.02060884 -0.0116105145 -0.013572624 -0.04740943
0.04166229 -0.033128276 0.13690154 0.12329275 0.009400169 0.035873443 -0.028671538 0.025483046
-0.06508952 -0.053293534 -0.12203495 0.015486808 0.19299838 -0.07786316 0.07968413 -0.0022746634
0.039545756 -0.15888532 -0.09115868 -0.06094694 -0.13760784 -0.045320757 0.08843624 -0.08685011
-0.08155872 0.03849448 -0.030951064 -0.104479544 0.0672432 0.0030077137 -0.05880243 -0.009987628
-0.016805407 -0.06662613 -0.03686186 0.090591684 -0.012996681 0.017623125 -0.172766 -0.078239016
-0.011873293 -0.022871526 -0.18592143 0.050469033 0.20017107 -0.12438055 0.09829775 0.00012910539
-0.029764429 0.045617998 0.07970556 0.08086462 0.1414804 -0.062856436 -0.119316645 -0.096512124
-0.2083893 0.15579203 -0.2745281 -0.09733547 0.3917438 -0.31288004 -0.15168309 -0.12341821
0.011274816 -0.08473993 -0.18832035 0.14372033 0.13768591 -0.10763688 0.11007484 0.114583366
0.14948022 -0.06244421 -0.06342995 0.115582466 0.17488316 -0.15606804 -0.024837626 0.07277802
0.11964927 -0.18748347 -0.14117019 -0.056368634 0.062225472 0.029619845 0.13603912 -0.1945185
-0.19561814 0.22012608 -0.13212505 -0.18703273 0.013976171 -0.09942455 0.091849156 -0.22570977
-0.04576878 0.034462575 -0.067578785 -0.025686486 -0.06116319 0.04131806 -0.16537896 -0.18999758
-0.13550659 0.040718902 -0.22116151 0.22665887 -0.067590915 0.071623296 0.06518554 0.10063533
-0.13116316 -0.15124348 0.13592866 0.14436631 0.1440634 0.16287102 -0.0560047 0.20569474
0.2490236 0.116778284 -0.042582534 -0.16853814 -0.10218315 -0.14227328 -0.24181163 0.09932005
-0.018560305 -0.27423722 0.020551765 0.23200002 0.14578947 -0.18284117 0.05088062 -0.28509557
0.1712125 -0.08377988 0.06220276 -0.08995557 0.013176506 0.036662698 0.052829575 -0.15602532
-0.16379455 0.27720976 0.023019314 -0.24171382 0.13218199 0.12646167 -0.22331132 0.028918177
0.16119961 -0.035347182 0.071503125 -0.3600178 -0.025869114 -0.08817745 -0.18583827 -0.34016892
-0.19419235 -0.05771465 0.0047877296 0.19007863 0.104517415 0.05595263 0.018398648 0.043175172
0.061476 -0.09961809 -0.089153945 0.16860056 0.105138384 0.051009186 0.10294306 -0.015319911
00000000: 365b d7bd 67e5 c6bb a5bc 7d3d 7e43 24bd
00000010: d852 40bd 52bc 7fbd e5ad 7bbd d4a5 f5bd
00000020: 77f4 0e3d 81d5 123d 434e 15bc 1615 f3bc
00000030: 7639 383e 3cc0 51be a619 1cbd 6311 253e
00000040: 751b 94bd 11e7 0ebe 06c2 6a3a bcef 8dbd
00000050: 1ecb 5fbe b617 19be 4fda 1f3d d721 d8bd
00000060: e7b7 d03d e1a0 d4bd 88db 69bd be30 573c
00000070: 7def 71bd 94a9 053e f70e afbc e975 14be
00000080: 4aa2 c3bd feca af3d 6273 1dbe eaa9 8a3d
00000090: 2140 eebc 3ed8 543c 9fc9 39be 9e4d 66bd
000000a0: a83a 0bbc d644 1d3c 34c3 743d c332 b6bd
000000b0: f145 0c3e 0d23 b2bd a9de 39bc aa48 fabd
000000c0: 2bc6 d23d c2ce 2dbe d42b b43d 3ace 3cbd
000000d0: e8ef 663b 9769 90bc 93e9 5e3c ebf2 973d
000000e0: 2dd3 df3d a0eb 363d c70b f8bd 84de 0f3d
000000f0: 7f52 323e 0883 a53d 363f 133c ba20 303d
00000100: 4b09 853d 1bb3 c3ba b0ac 983d c839 443e
00000110: 60d8 a23c 2b96 623d 620c c9bd ea6f ab3d
00000120: 36b6 c1bd b187 e1bd 05b5 b8bd e999 bbbd
00000130: dfd3 a8bc 073a 3ebc b65f 5ebc 6430 42bd
00000140: 14a6 2a3d 84b1 07bd eb2f 0c3e e980 fc3d
00000150: 2b03 1a3c 08f0 123d 93e0 eabc d2c1 d03c
00000160: a74d 85bd 524a 5abd 76ed f9bd 61bc 7d3c
00000170: 5ea1 453e b876 9fbd 6f31 a33d 8512 15bb
00000180: bbfa 213d d5b2 22be 67b1 babd 80a3 79bd
00000190: 12e9 0cbe 42a2 39bd 0f1e b53d 78de b1bd
000001a0: 4208 a7bd 63ac 1d3d 168d fdbc 5ff9 d5bd
000001b0: ceb6 893d 101d 453b d1da 70bd 26a3 23bc
000001c0: 7eab 89bc 4873 88bd 76fc 16bd 2288 b93d
000001d0: 08f0 54bc 5f5e 903c 92e9 30be c73b a0bd
000001e0: 3388 42bc 115d bbbc 3062 3ebe 9eb8 4e3d
000001f0: a5f9 4c3e 3bbb febd 5550 c93d 7760 0739
00000200: 88d4 f3bc f0d9 3a3d ab3c a33d 5a9c a53d
00000210: 3de0 103e e0ba 80bd 495c f4bd 26a8 c5bd
00000220: 0164 55be f287 1f3e f28e 8cbe d257 c7bd
00000230: a592 c83e d031 a0be d052 1bbe b0c2 fcbd
00000240: 01ba 383c 218c adbd 0dd7 40be 6c2b 133e
00000250: 89fd 0c3e b970 dcbd eb6e e13d afaa ea3d
00000260: 5811 193e 80c5 7fbd 90e7 81bd 80b6 ec3d
00000270: 9214 333e 4dd0 1fbe 4778 cbbc a40c 953d
00000280: ad0a f53d abfb 3fbe eb8e 10be cce2 66bd
00000290: 23e0 7e3d 51a5 f23c d74d 0b3e dc2f 47be
000002a0: 1f50 48be bb68 613e ca4b 07be 8285 3fbe
000002b0: 4ffc 643c 199f cbbd 691b bc3d 7620 67be
000002c0: 0b78 3bbd a128 0d3d bf66 8abd 776c d2bc
000002d0: 4186 7abd 203d 293d 1a59 29be ba8e 42be
000002e0: 3dc2 0abe ddc8 263d 2a78 62be 4319 683e
000002f0: 1b6d 8abd 3caf 923d ff7f 853d e519 ce3d
00000300: a34f 06be 92df 1abe e230 0b3e c3d4 133e
00000310: 5b85 133e a9c7 263e 2f65 65bd a4a1 523e
00000320: 0b00 7f3e 7429 ef3d 066b 2ebd 4395 2cbe
00000330: 6645 d1bd 16b0 11be 789d 77be 4f68 cb3d
00000340: c80b 98bc d268 8cbe 2d5c a83c 6a91 6d3e
00000350: d649 153e b73a 3bbe 3268 503d 0cf8 91be
00000360: 5452 2f3e c994 abbd 52c8 7e3d a03a b8bd
00000370: 46e2 573c a02b 163d d363 583d 1ac5 1fbe
00000380: c2b9 27be 70ee 8d3e 0093 bc3c d483 77be
00000390: b75a 073e 2b7f 013e b9ab 64be d0e5 ec3c
000003a0: 8311 253e 35c8 10bd 3b70 923d 4154 b8be
000003b0: 77eb d3bc 6196 b4bd 634c 3ebe 9f2a aebe
000003c0: 5cda 46be 3266 6cbd 63e2 9c3b f9a3 423e
000003d0: 3a0d d63d 962e 653d c3b8 963c 73d8 303d
000003e0: 42ce 7b3d 9204 ccbd 5896 b6bd a0a5 2c3e
000003f0: cb52 d73d 02ef 503d d0d3 d23d 5d00 7bbc

lstm.weight_hh_l0_reverse f4 [512, 128]
-0.125026 -0.14102234 0.019323992 -0.04003957 -0.19252047 -0.11272982 0.0029798306 -0.034778915
-0.03259804 0.09991013 0.04222151 0.018598482 -0.0022733624 0.032968882 0.18643107 -0.15881354
0.06710726 0.076521024 0.22225527 -0.030362565 0.054300986 -0.14863648 0.05763453 -0.118772194
-0.085576996 0.011985287 0.09835455 0.020846382 -0.13423246 0.06802708 -0.0359583 -0.029479438
0.028919183 0.09035587 -0.041044354 0.14779839 -0.018851992 0.1153495 0.025122065 -0.16848795
-0.073079765 0.02763251 -0.052012987 -0.055387363 -0.0826991 -0.13597132 0.059518505 0.07108756
0.111419626 0.07052113 0.113758795 -0.01902101 0.2096094 -0.12329724 0.095025286 0.050975963
0.085879825 0.23306663 -0.12167887 -0.11519721 0.12276633 0.1163235 0.005640542 -0.008867127
0.047233585 -0.10747948 -0.02931075 0.013227134 -0.09863036 0.13419303 0.071456306 -0.008434509
-0.095459886 -0.033814043 0.16070029 0.06285643 -0.048010383 -0.22263041 0.05371265 0.10071788
0.022746274 0.0720223 -0.10113 -0.13099746 0.041977786 0.05412939 0.03776039 -0.08707867
-0.10781218 -0.029980065 -0.20321046 -0.14120443 -0.14457177 -0.14456287 -0.16474786 -0.0026278663
0.10585061 -0.007408683 -0.07972458 -0.0032296472 0.05023002 -0.059560973 -0.03905418 -0.06917892
-0.10048867 0.00798129 0.1167577 0.18489239 0.10903652 0.18293989 -0.040355258 -0.0598241
-0.04322404 0.067665614 -0.11083412 -0.026187431 -0.08794077 -0.16742492 -0.023010882 0.095822245
-0.056325443 -0.054906357 -0.023346422 0.033734694 -0.16411863 0.10015954 -0.121709466 0.048923902
0.22496405 -0.03695749 0.12743957 -0.2136146 -0.018028563 0.039302055 -0.08136244 -0.045888826
0.039942067 -0.1256705 -0.014257323 0.09696776 0.004984467 -0.14076069 -0.012920494 -0.11206701
-0.041978687 0.034236487 0.14782877 0.0992243 -0.07068104 0.00402935 0.18511401 -0.086841755
-0.18406135 -0.041569192 -0.10119144 -0.03112166 -0.14054857 -0.03370488 -0.16809937 -0.24718423
-0.10918727 -0.07585303 -0.18131788 -0.16045351 -0.13496287 -0.012931177 -0.025647685 -0.29049987
-0.034147814 -0.16633222 -0.017440652 -0.08625683 -0.047482003 -0.08423857 0.1872815 -0.15893485
0.21401204 0.036494114 -0.053508885 -0.1123819 0.041897763 0.04551343 0.107632115 -0.19617562
-0.24163516 0.017504584 -0.17192818 -0.0113374945 -0.13797665 -0.18907166 0.120928034 0.14313355
-0.24912666 0.014660183 0.062223505 -0.25069627 -0.044551954 0.1371179 -0.0073611075 -0.08259977
-0.065718494 0.042668566 0.05522403 -0.17139699 -0.13450044 0.09220157 0.030755496 -0.045735873
0.02449278 0.14161105 0.049892697 0.08931776 0.14366983 -0.03934563 0.10502506 -0.057004087
-0.12140529 -0.25842664 -0.08588139 -0.0029458543 -0.005913608 0.018900251 -0.052691687 -0.021863839
-0.10401004 -0.06573828 -0.2242613 -0.029081218 0.000105884625 -0.069759116 -0.12920809 -0.006914249
0.10810152 0.09294202 0.18420939 -0.047678076 0.063439965 -0.0149264205 -0.029083269 -0.17494047
-0.19290853 0.057660308 0.060164638 -0.075786464 -0.106197864 -0.21337567 0.17938897 0.10929353
-0.073971614 -0.009650849 -0.07963051 0.12407848 0.08118157 0.09586159 -0.034073036 -0.15763754
00000000: d106 00be 2968 10be 594d 9e3c 8800 24bd
00000010: 1624 45be e4de e6bd 4349 433b 5674 0ebd
00000020: 8685 05bd af9d cc3d 76f0 2c3d d85b 983c
00000030: b1fc 14bb 610a 073d c9e7 3e3e 04a0 22be
00000040: 886f 893d 0eb7 9c3d e396 633e eaba f8bc
00000050: b66a 5e3d 2934 18be 2f12 6c3d d63e f3bd
00000060: fe42 afbd f05d 443c 1c6e c93d 08c6 aa3c
00000070: 3c74 09be c851 8b3d 0349 13bd dd7e f1bc
00000080: ece7 ec3c 800c b93d 201e 28bd 7658 173e
00000090: 7e6f 9abc 5c3c ec3d cacc cd3c 1b88 2cbe
000000a0: d8aa 95bd 935d e23c 920b 55bd dcdd 62bd
000000b0: 255e a9bd 113c 0bbe adc9 733d 5b96 913d
000000c0: f92f e43d 626d 903d 5ffa e83d f3d1 9bbc
000000d0: d9a3 563e 4383 fcbd 9e9c c23d 2ccc 503d
000000e0: c3e1 af3d 05a9 6e3e c532 f9bd 84ec ebbd
000000f0: ea6c fb3d 043b ee3d 4cd4 b83b 6d47 11bc
00000100: 0178 413d 341e dcbd 191d f0bc 9fb6 583c
00000110: b7fe c9bd e669 093e af57 923d e530 0abc
00000120: 7980 c3bd 9880 0abd 9e8e 243e dfba 803d
00000130: 89a6 44bd 3af9 63be cc01 5c3d 2d45 ce3d
00000140: 6556 ba3c 6d80 933d 3f1d cfbd 3324 06be
00000150: e6f0 2b3d c7b6 5d3d a4aa 1a3d 4d56 b2bd
00000160: a2cc dcbd c198 f5bc 6716 50be e597 10be
00000170: 9f0a 14be 4a08 14be aab3 28be 4838 2cbb
00000180: 34c8 d83d 8ac4 f2bb a446 a3bd 7da8 53bb
00000190: febd 4d3d 35f6 73bd 47f7 1fbd adad 8dbd
000001a0: 01cd cdbd f5c3 023c a91e ef3d 6e54 3d3e
000001b0: 8a4e df3d 9854 3b3e 8e4b 25bd 1e0a 75bd
000001c0: b10b 31bd 4594 8a3d 00fd e2bd 0687 d6bc
000001d0: 4a1a b4bd 7071 2bbe 5181 bcbc 743e c43d
000001e0: 82b5 66bd 7de5 60bd ff40 bfbc 642d 0a3d
000001f0: b70e 28be 7220 cd3d d042 f9bd 6e64 483d
00000200: fa5c 663e bd60 17bd 857f 023e c9bd 5abe
00000210: a3b0 93bc 31fb 203d 5aa1 a6bd ecf5 3bbd
00000220: 4b9a 233d c4af 00be 8c97 69bc 0897 c63d
00000230: bd54 a33b 9223 10be 7bb0 53bc 6383 e5bd
00000240: d8f1 2bbd 8f3b 0c3d 6d60 173e 1c36 cb3d
00000250: 39c1 90bd a308 843b 878e 3d3e 17da b1bd
00000260: 947a 3cbe 7544 2abd 753d cfbd daf2 febc
00000270: f7eb 0fbe 210e 0abd 3e22 2cbe dd1d 7dbe
00000280: 939d dfbd d558 9bbd 65ab 39be ed4d 24be
00000290: b533 0abe 4add 53bc 181b d2bc 66bc 94be
000002a0: 94de 0bbd fe52 2abe b3df 8ebc 6ca7 b0bd
000002b0: 7d7c 42bd 4585 acbd b9c6 3f3e d1bf 22be
000002c0: f925 5b3e da7a 153d 222c 5bbd 7b28 e6bd
000002d0: fd9c 2b3d 4a6c 3a3d 3a6e dc3d 43e2 48be
000002e0: 356f 77be c665 8f3c f10d 30be e6c0 39bc
000002f0: c049 0dbe 009c 41be 1ea9 f73d 9a91 123e
00000300: 0f1b 7fbe 4431 703c 13de 7e3d 435b 80be
00000310: 1c7c 36bd a368 0c3e 7235 f1bb 112a a9bd
00000320: 6b97 86bd 3cc5 2e3d 9832 623d b182 2fbe
00000330: 7cba 09be 2dd4 bc3d f3f2 fb3c 8a55 3bbd
00000340: 15a5 c83c 7d02 113e 495c 4c3d 3bec b63d
00000350: 2f1e 133e e228 21bd 6117 d73d 1e7d 69bd
00000360: 56a3 f8bd 7f50 84be 95e2 afbd 3c0f 41bb
00000370: f0c6 c1bb b3d4 9a3c 3dd3 57bd cb1b b3bc
00000380: 3703 d5bd cba1 86bd c1a4 65be bc3b eebc
00000390: 600e de38 dedd 8ebd 204f 04be ed90 e2bb
000003a0: 5464 dd3d 6358 be3d 63a1 3c3e 164a 43bd
000003b0: d0ec 813d f28d 74bc 0940 eebc 9823 33be
000003c0: d089 45be 372d 6c3d 326f 763d ef35 9bbd
000003d0: 447e d9bd 277f 5abe beb1 373e 49d5 df3d
000003e0: 6e7e 97bd 981e 1ebc 5215 a3bd dc1c fe3d
000003f0: 8642 a63d 1553 c43d 2b90 0bbd bc6b 21be

lstm.bias_ih_l0_reverse f4 [512]
-0.09811076 -0.05908228 0.0045712963 0.004532309 -0.07375931 -0.08731561 -0.099053755 -0.046254992
-0.10201506 -0.080548 -0.017422887 0.012754634 0.011899997 -0.052358933 -0.016227718 0.024892502
-0.08704837 -0.0028839007 -0.06240411 -0.09524788 -0.054833412 -0.039251007 -0.09232759 -0.058528632
-0.050273813 0.1261313 -0.13875347 -0.14755236 -0.022503037 0.060866483 -0.09471235 -0.09373762
0.06427208 -0.09275756 -0.18233359 -0.035947397 -0.053386487 -0.22336078 -0.09723464 -0.001662076
-0.0890503 -0.096245565 -0.08018261 -0.10704378 -0.18985526 -0.13113092 -0.0668792 -0.09180902
-0.1820463 -0.1523564 -0.029574355 -0.062313378 -0.006457319 -0.12498046 -0.13898456 -0.08116941
-0.16891408 0.01396796 -0.027069133 0.036218278 -0.16547212 -0.08724199 -0.06893136 0.05480795
0.032100204 -0.017066354 0.016943008 0.008220406 -0.04641688 -0.18034804 -0.046657383 -0.09575746
-0.08292285 -0.013045658 -0.20646922 -0.09161951 0.035361707 0.011171531 0.00073380827 0.022678735
-0.12592195 0.027281243 -0.20124753 -0.04081697 -0.09604554 0.028297722 -0.16701968 0.025517672
-0.057211503 -0.15621184 -0.055271458 -0.047798444 -0.05070778 -0.18336979 -0.01913532 0.038031723
-0.13868792 -0.1631007 -0.12361182 -0.081212744 -0.08133299 -0.10143185 -0.1606533 -0.026466457
-0.16043758 -0.15156086 -0.058096126 -0.07191682 -0.116131335 -0.23016064 -0.13438618 -0.011958792
-0.10383492 -0.11074616 -0.14175884 -0.005364496 -0.08248979 -0.12252156 -0.047916405 -0.1488455
-0.014496929 -0.06229822 -0.0881581 0.058227856 -0.13842869 0.034159992 -0.09358591 -0.16740681
0.12090084 -0.07737053 0.037644316 0.1174332 -0.03033003 -0.06767743 -0.036296174 0.08648751
-0.032474715 -0.06866845 -0.05353799 0.07558397 0.09584595 -0.053512506 0.037918933 0.01963176
-0.16747953 0.041947752 0.17401172 -0.037133176 -0.007828584 -0.013900473 -0.054575156 -0.04045991
0.1041018 0.14563425 -0.06575582 0.0663725 -0.048699826 0.042640764 0.052916586 0.09433554
0.13539736 -0.0681942 0.012202562 -0.075388566 -0.06552966 -0.08104038 -0.041129477 0.062482446
-0.039792772 0.11984598 -0.045263927 0.06515967 -0.1651149 -0.04566315 0.17931332 0.13896202
-0.024051819 0.14841345 -0.15614672 0.053584684 0.057867102 -0.13353448 0.042079 -0.055446554
0.020794988 -0.034395393 0.22092333 0.08399303 0.06913736 -0.0501508 0.009376919 0.16862004
0.18893257 -0.026297648 -0.074465014 0.18760334 -0.053913817 -0.103090696 -0.02515304 -0.06344751
0.18563159 0.03527801 -0.069240004 0.11529472 0.09790439 0.0023290382 0.004595629 -0.10670976
-0.06551525 0.11888027 0.04154059 0.020163435 -0.10923337 -0.020746458 0.011122232 -0.05504506
0.050258387 0.00803378 -0.016340919 0.052999392 0.039832473 -0.01221245 0.017285464 0.0042420663
0.12808813 0.050624605 0.062537216 -0.06545504 0.10378858 -0.050930705 0.05847965 -0.1714333
-0.09655784 0.047531646 0.050146844 -0.10049244 -0.09560954 0.05250001 0.13628381 0.018689334
0.004693799 0.0046750503 -0.05472126 0.07768333 -0.10281245 -0.055110976 0.07883826 0.10129428
0.020565484 -0.069046184 0.058738176 0.19067822 0.051610418 0.063542105 -0.036973774 -0.042659413
00000000: 4bee c8bd 4300 72bd d0ca 953b c383 943b
00000010: 1f0f 97bd 87d2 b2bd b2dc cabd e075 3dbd
00000020: 46ed d0bd 5af6 a4bd 71ba 8ebc d0f8 503c
00000030: 34f8 423c 5276 56bd feef 84bc 5ceb cb3c
00000040: 6a46 b2bd d3ff 3cbb 749b 7fbd 5211 c3bd
00000050: 0099 60bd aac5 20bd 3f16 bdbd b8bb 6fbd
00000060: eaeb 4dbd 9028 013e 6415 0ebe f717 17be
00000070: 4a58 b8bc 224f 793d 8cf8 c1bd 82f9 bfbd
00000080: 15a1 833d adf7 bdbd a8b5 3abe 943d 13bd
00000090: caab 5abd b0b8 64be f422 c7bd 04da d9ba
000000a0: 0160 b6bd 651c c5bd c836 a4bd c539 dbbd
000000b0: 6b69 42be 2f47 06be f6f7 88bd 5e06 bcbd
000000c0: 586a 3abe 5103 1cbe eb45 f2bc 503c 7fbd
000000d0: eb97 d3bb c1f5 ffbd f851 0ebe 263c a6bd
000000e0: d0f7 2cbe dfd9 643c 16c0 ddbc 9e59 143d
000000f0: 8671 29be eeab b2bd e32b 8dbd 4d7e 603d
00000100: 817b 033d bdce 8bbc 10cc 8a3c e2ae 063c
00000110: a01f 3ebd 28ad 38be d01b 3fbd 7d1c c4bd
00000120: 75d3 a9bd 75bd 55bc ab6c 53be 02a3 bbbd
00000130: 70d7 103d cc08 373c 0a5d 403a c1c8 b93c
00000140: aff1 00be ea7c df3c d513 4ebe b22f 27bd
00000150: 86b3 c4bd a0d0 e73c 3507 2bbe 700a d13c
00000160: 9c56 6abd fff5 1fbe 5364 62bd 4dc8 43bd
00000170: f6b2 4fbd 4ac5 3bbe adc1 9cbc 27c7 1b3d
00000180: 3504 0ebe df03 27be 3228 fdbd de52 a6bd
00000190: e991 a6bd 80bb cfbd 4c82 24be 2fd0 d8bc
000001a0: c049 24be c532 1bbe 34f6 6dbd 2049 93bd
000001b0: 44d6 edbd 3baf 6bbe 889c 09be cfee 43bc
000001c0: 67a7 d4bd e2ce e2bd 3b29 11be a7c8 afbb
000001d0: 68f0 a8bd 95ec fabd fe43 44bd f46a 18be
000001e0: 8784 6dbc 6b2c 7fbd 3c8c b4bd 5580 6e3d
000001f0: 40c0 0dbe 59eb 0b3d f8a9 bfbd b16c 2bbe
00000200: dc9a f73d 7174 9ebd ed30 1a3d d180 f03d
00000210: af76 f8bc 779a 8abd 4cab 14bd 5d20 b13d
00000220: 3504 05bd 0ba2 8cbd a74a 5bbd c5cb 9a3d
00000230: e24a c43d ee2f 5bbd e250 1b3d c9d2 a03c
00000240: c17f 2bbe 68d1 2b3d 2130 323e f518 18bd
00000250: 7643 00bc cfbe 63bc 338a 5fbd 4ab9 25bd
00000260: 5333 d53d 2521 153e fdaa 86bd 4eee 873d
00000270: 7879 47bd 15a8 2e3d 10bf 583d fe32 c13d
00000280: 9ba5 0a3e 67a9 8bbd 41ed 473c 5265 9abd
00000290: 6a34 86bd 80f8 a5bd 6277 28bd 98ed 7f3d
000002a0: bffd 22bd cf71 f53d ab66 39bd 6f72 853d
000002b0: e113 29be 4809 3bbd e99d 373e 0f4c 0e3e
000002c0: 5208 c5bc b2f9 173e ede4 1fbe 9d7b 5b3d
000002d0: 0e06 6d3d 43bd 08be 085b 2c3d ed1b 63bd
000002e0: 405a aa3c 2fe2 0cbd ba39 623e 8a04 ac3d
000002f0: e397 8d3d ed6a 4dbd a6a1 193c bbaa 2c3e
00000300: 8a77 413e 2a6e d7bc 1d81 98bd 171b 403e
00000310: bcd4 5cbd 3721 d3bd c00d cebc c5f0 81bd
00000320: 3516 3e3e ad7f 103d b4cd 8dbd a31f ec3d
00000330: 1982 c83d c7a2 183b ee96 963b a68a dabd
00000340: dc2c 86bd 8077 f33d 7726 2a3d ca2d a53c
00000350: bfb5 dfbd 7af4 a9bc 063a 363c ee76 61bd
00000360: bddb 4d3d 1ea0 033c 64dd 85bc e415 593d
00000370: 6027 233d ba16 48bc 3f9a 8d3c 0801 8b3b
00000380: 8929 033e bf5b 4f3d 8313 803d 4b0d 86bd
00000390: 1b8f d43d b79c 50bd 5c88 6f3d 368c 2fbe
000003a0: 1ec0 c5bd 8bb0 423d c766 4d3d fbce cdbd
000003b0: efce c3bd 400a 573d fc8d 0b3e 601a 993c
000003c0: 71ce 993b 2a31 993b 6623 60bd 7018 9f3d
000003d0: 558f d2bd 0cbc 61bd f475 a13d 6073 cf3d
000003e0: f278 a83c 1668 8dbd 7197 703d 2741 433e
000003f0: 7265 533d 5d22 823d d071 17bd a3bb 2ebd
