runs/lstm_centered/lstm_centered_java.pt (torch, 865789 bytes, 10 tensors)

emb.weight f4 [256, 64]
00000000: 9ebc 393e be88 913c b60c 3abe 77d4 ccbd
00000010: 0000 823c db6b 8abe 55e3 60be 8fd2 35be
00000020: 6481 da3d a6c8 2b3e 4e6b 0ebd 39fa 733d
00000030: cd35 a4bd 71fe e9bd 0438 533d f109 753e
00000040: 97aa e3bd ad9f f7bd 7f72 8cbc 4bed cebd
00000050: c2b7 e73d 9e45 7e3e 39db aa3e 171e 803e
00000060: eb07 a93e 65ef 803e 39ce 59be f957 4d3d
00000070: 22f7 d1bd 3bff ad3d 8495 b6be 0515 153e
00000080: fc47 893e 4cb9 59bd 3fb2 ac3e 6753 6a3d
00000090: cc8d 293e d31c 093e 585f 43bc f961 833d
000000a0: af47 813e 9b8f 33bd a413 be3d 8639 d43d
000000b0: f7d8 60bc f944 0abe fb97 993e 81e6 ae3d
000000c0: f951 9ebe ad2a df3b 5be2 0fbe 7ab2 bebe
000000d0: 6606 c8bd 2c43 5e3e d6f6 5ebd f0fe 083e
000000e0: 1c8e 9dbd 8a36 4abe c39d 063e e08b debd
000000f0: 56ea a7bd 06c1 f3bd 6dcf d93e f981 733e
00000100: afcd 0abe 6d27 febd 1d55 613d ea97 7d3c
00000110: adb2 bf3d 9148 89bd ff59 003d 298a f9bd
00000120: 73f6 16bd 406a ecbb 5a64 90bd 9e01 eb3d
00000130: e851 0cbd 27dd 6ebd 5dc9 e9bd f028 f73d
00000140: 1e2c 803d 30a0 a2bd 5c60 89bd 472b bfbd
00000150: 3a50 e03c f3a4 58bd 4a90 ba3d a763 d73d
00000160: ecb2 8fbd a2af cbbc a42f febd 3042 263d
00000170: 0faf d7bd aa2a c8bd 64b3 353d c28e e6bd
00000180: b0c5 09be 9c83 86bd 983d 833d d028 d63d
00000190: 755d 9c3d 7837 ccbd d3f4 aebd a32b ebbd
000001a0: 741b 933c 8403 6cbd 0313 8fbd f5da 4f3d
000001b0: 38ab e63d 945c ccbd e73e a93d 3fae 9abd
000001c0: 7726 8ebd ca1b 553d 619b d0bd 54e9 a63d
000001d0: d56e 49bd d668 0a3e f473 a5bd 340f a13d
000001e0: fe13 eb3c 153e ed3c 8b7b 8ebd 1ab3 d03d
000001f0: 999f a03d 9eb4 02be 8854 d93c 0022 ea3d
00000200: 49d9 f1bd 68aa b53d 236e 07be 6def e2bc
00000210: 8a8a 943d ee7b 013d 03db 923d 2b55 7cbc
00000220: 7c60 e7bd 28f2 4abc 45dc edbd 3c1a 8cbd
00000230: a1da b23c 8363 3bbd f4c6 aebd 38b1 fbbd
00000240: 0c7d 073d d429 8b3c 2ae9 fabd b8cb 1b3d
00000250: 26af fe3c 8c43 b8bd 739e 0c3c 799b 903a
00000260: 071f 053e ef5e 0bbe 3521 9cbd 6baf 723d
00000270: f43a b4bd b8e6 abbd 12b8 803d cbc0 f03d
00000280: 5896 8bbd 347c eb3d c1c9 0abd 34ff 0fbd
00000290: cff2 203d 7f2a 09bd 6462 273c 31db bebd
000002a0: 8a6e 023b 4082 1ebd 3a0d 483c 3474 dc3c
000002b0: 9b8e c7bd 3858 ef3d 20d2 8ebd 37e9 103d
000002c0: 0496 0bbe d0de a93d 5843 c23d 94a4 4d3d
000002d0: 228f 553d defd a6bd 498d e63c 8c9a f3bd
000002e0: 4cc8 b0bc e449 d2bd 4398 0b3e 14c9 b2bd
000002f0: 0e7a 4ebd 6baa 143d f0af fbbd 8c2c 1ebd
00000300: 3b58 cebd 84f0 783d 0d17 203d c6a4 08be
00000310: 2852 fb3d 30fa a63d f2c0 823d 29cb f9bb
00000320: db4e 6d3c 1a2a 093e 32c5 95bd c840 9f3d
00000330: a76e 613d cfae c53d 1833 05be cb14 3bbd
00000340: 5a64 fbbd f074 d43d bb16 c13b 5504 023d
00000350: 168f b13b 1144 b33c 609e a23d e042 08be
00000360: 3a25 c0bd 91a0 e93b 1c73 b2bd 3506 853c
00000370: 7ead ec3d 75c8 bfbd a18d 5bbd 85c3 aebc
00000380: 35a0 393d d128 313d 734f f33d 4b50 d83d
00000390: edc2 e23d 8539 6c3d 566b 84bc 90a4 a33a
000003a0: ff5c 883d e4b3 e3bc 8613 1ebd 3593 bebd
000003b0: 94ba 84bd 9f68 383d b4e4 cdbd c969 d5bc
000003c0: 078a 013e d95d 6bbd 7931 a83d 0e4e cebd
000003d0: 0e40 21bd b251 503d 2fc3 3a3d 58af 7b3b
000003e0: a42c c1bc 0e90 b1bd d325 fb3d 4e69 a7bc
000003f0: 0e6b 813b fda9 bebd a527 85bd 5a3a 473d
0.18138358 0.017765399 -0.18168911 -0.10001462 0.01586914 -0.27035412 -0.2196172 -0.17756103
0.106692106 0.1677576 -0.034770302 0.059564803 -0.08018074 -0.11425484 0.051567093 0.23929574
-0.11116522 -0.120910026 -0.01714444 -0.10103854 0.11314346 0.24831244 0.3337038 0.25022957
0.33013853 0.25182644 -0.21270074 0.050132725 -0.10252215 0.08495947 -0.35660946 0.145588
0.26812732 -0.05315523 0.3372974 0.057208445 0.16557997 0.13389902 -0.011924587 0.06415171
0.25250003 -0.043838125 0.0928109 0.10362534 -0.013723603 -0.13502873 0.29998764 0.08540059
-0.30921915 0.0068105073 -0.14051192 -0.37245542 -0.097668454 0.21705312 -0.05443462 0.13378501
-0.07693121 -0.19747368 0.13146119 -0.10866523 -0.08198993 -0.11902051 0.42541066 0.2378005
-0.13555025 -0.124098636 0.05501281 0.015478114 0.093602516 -0.06703294 0.031335827 -0.12184555
-0.036856126 -0.0072148144 -0.070503905 0.11474918 -0.0342578 -0.058316376 -0.1141536 0.12068355
0.06258415 -0.079407096 -0.06707832 -0.093344264 0.027382005 -0.052891683 0.09109552 0.10517054
-0.070165485 -0.024864022 -0.124114305 0.040590465 -0.10531437 -0.097737625 0.044360533 -0.11257698
-0.13454318 -0.06568071 0.064082325 0.10457003 0.07635013 -0.09971517 -0.0854279 -0.114829324
0.017957427 -0.05762054 -0.06986048 0.050745923 0.11263126 -0.099785954 0.08263951 -0.07552766
-0.0694093 0.052028455 -0.10185886 0.081499726 -0.049177963 0.13516554 -0.08078757 0.07864228
0.028696056 0.028960267 -0.06957158 0.10190411 0.07842941 -0.12764212 0.026529565 0.11432266
-0.11809022 0.08870393 -0.13225608 -0.027702058 0.07252987 0.03161233 0.071706794 -0.015401165
-0.112977 -0.012386836 -0.11614279 -0.06840941 0.021832766 -0.0457492 -0.08534041 -0.12289661
0.03307824 0.016987719 -0.12251504 0.03803608 0.031089377 -0.089972585 0.008582699 0.0011032663
0.13000117 -0.13610433 -0.07623521 0.059249323 -0.08800307 -0.083936155 0.062851086 0.11755522
-0.06815785 0.11498299 -0.033883814 -0.03515549 0.03929406 -0.033487793 0.010216329 -0.09319151
0.0019902312 -0.038698435 0.012210185 0.026910879 -0.09743997 0.11686748 -0.06973672 0.03537866
-0.13631445 0.08294451 0.09485501 0.050205782 0.052138455 -0.0815389 0.028143542 -0.11894712
-0.021579884 -0.10268 0.13632302 -0.08729759 -0.05040937 0.036295336 -0.12289417 -0.038616702
-0.100754224 0.06077625 0.039084483 -0.13344106 0.122715294 0.08153188 0.06384458 -0.0076230955
0.014484133 0.13394967 -0.07313003 0.07776028 0.055037167 0.09652483 -0.13007772 -0.045674127
-0.12275 0.103738666 0.0058926023 0.031742413 0.0054186685 0.021883043 0.07940364 -0.13306761
-0.093821004 0.0071297367 -0.087133616 0.016238311 0.115565285 -0.09364406 -0.053601865 -0.021333465
0.0453188 0.043251816 0.11880388 0.1056219 0.110723354 0.057672042 -0.016164463 0.0012484957
0.066583626 -0.02779574 -0.038592838 -0.09305421 -0.064808995 0.04502165 -0.10053387 -0.026051419
0.1265031 -0.057462547 0.08212561 -0.100734815 -0.039367728 0.05085916 0.045596298 0.0038404074
-0.023580857 -0.086700544 0.12263074 -0.020435955 0.0039495295 -0.093097664 -0.06501702 0.048639633

lstm.weight_ih_l0 f4 [512, 64]
00000000: e517 073e f6d7 dcbd 67e0 8bbd 56b2 95bd
00000010: 83d5 5cbd 156b f43d e533 56bd 44fc 3b3d
00000020: f005 e93c d538 563d bdef db3d 173e 6b3d
00000030: 2642 93bd 5e17 173d 2629 5dbd fcac 853d
00000040: 8dc7 d53d 7826 e0bd edbc a9bc 5a2d 15be
00000050: c104 ea3d 8130 65bd 9f20 db3c 0bcc ee3d
00000060: 8d82 b83d d760 973d b225 e0bd 5635 0cbe
00000070: 5786 2dbd a0f7 363d 0366 2e3d 9c76 eaba
00000080: 14e2 c5bd 4a77 04be 97d7 f1bd 1f74 df3d
00000090: d428 133e e6e8 993d 7941 f13d e20d 98bd
000000a0: 74ef 94bc cbd2 cc3d f9cc 963d d8d9 933d
000000b0: 53f5 d53d a443 a73d 5ea2 d3bd 6a34 3fbd
000000c0: 16e7 353e 91b4 6abd 7bf5 e33d cd08 63bc
000000d0: 5c3c 3b39 bbf9 b6bc e476 ffbd 082f 8a3d
000000e0: cf68 023d 6b82 953d f561 ad3c fb7f 8bbd
000000f0: 5927 823d 496d f93c 89cd 653d aafd 70bc
00000100: 8033 b9bb 9e9a 093e aabd 6f3d aecf 943d
00000110: db7b 133d 10b7 05bd 9525 fabd 3081 0a3d
00000120: 4bd8 c6bd 9751 ae3d 4ee0 ba3d 8e2b ac3c
00000130: ddbc 77be 4f3e 33be 2998 74be e3e4 80bd
00000140: f0ee 033e 9cd3 033a fff6 243d 7ed9 98bd
00000150: d909 1f3e 5029 863e 4cc6 273e 295e f73d
00000160: d045 8a3d 5e2d 643e 7930 10be ebae b13d
00000170: b512 c83d 80e2 0e3e b73c 7c3c 4614 68bd
00000180: 5dd2 8a3b b9cb 8abe 9024 49bd a99d 833e
00000190: bf7f 423e 5615 e7bd 4d98 84be 9c21 1ebd
000001a0: 3420 d33d 016c a2bb 49c5 2dbe b8de f73d
000001b0: 1725 f6bb 727b d6bd 7e2d 0c3e 5ddd 98bc
000001c0: 656b 0abe 9e0f 293d afcd 9cbd 8ab1 a9bc
000001d0: e877 843a 29ce be3d 1f7b a7be 3a01 9dbd
000001e0: d4b6 bb3d 4930 17be b003 3f3d f3b5 f53d
000001f0: d83e 31be 32ea 3cbb 582d 48bd cd6e 183e
00000200: 37f3 bd3d 0351 31bd 49c7 3dbd c66b 13bd
00000210: e673 35bd 7f2b 2e3d dc3a e5bc 1e7f 16be
00000220: ae25 b43d f9da 5b3e 7033 413e 5c97 47bc
00000230: 64f4 36bd 5148 3bbd 8a53 17bd c3cb 2a3e
00000240: 6d9b 79bc cf59 babd 1ace 5d3e fe05 3cbe
00000250: 0796 c93d c37d 5a3b 0a8a 213e c721 72bd
00000260: 91f5 6c3e 34ff b6bc 872a 49be 1f51 003d
00000270: 23d7 d8bd 30b3 88be 9663 01be ed1a 46bd
00000280: 2983 5f3d eb31 153c 0eae bdbd fc0f 1d3d
00000290: 55fc 563e fee4 9e3d 93ef 523e 9d0f 293e
000002a0: b9c2 0f3e eb48 323e 614b 3b3e 0b76 3b3e
000002b0: 9ab6 193d 69d9 d7bd adf6 b73d 6355 3e3e
000002c0: 38ca 2e3d b298 44bb 5332 72bd 99c5 793d
000002d0: 45ad 843d b334 34be 4db2 50be 2450 873e
000002e0: e682 973d bd49 653e 0524 f93d d087 07be
000002f0: 6727 e3bc 1679 38bd 8e94 1b3e 58e0 efbc
00000300: dff2 69be 64e4 7d3e aadc a93d 47d8 a53e
00000310: ca04 cd3e 3132 96be a3d3 bdbd b048 1d3e
00000320: c865 7dbd 0524 1d3d e217 73bc 4180 16be
00000330: 9f36 51bd 8e95 2ebe 88ca a2be d2b4 57bc
00000340: a896 283e 0a23 f2bd a53a e03d 8043 843e
00000350: 82eb 633e 4d94 1c3e d944 0f3e f1f8 593d
00000360: 321d 4a3e b474 823d 8839 3fbe 6cc8 4c3d
00000370: ae2b 393e 48e7 813e 5e7b a33d ff22 07be
00000380: 3132 773d 188b a4be 0387 09bd 9b61 7e3e
00000390: 7362 d63e 9902 27bc 1b19 e6be 61a9 07be
000003a0: 4389 193e 4c49 b3bc 5c52 adbd 7baa ed3d
000003b0: 669c 22be 7e53 c2be 380b e73e 7887 94be
000003c0: 56ce c0be 7967 af3a 8d44 ddbe 611b 33be
000003d0: 590d 77be 84c6 f23e b5c3 a8be 1f68 b03d
000003e0: 9065 573e 0232 d2bd eb06 dbbd 6aa4 673e
000003f0: 58c6 503c 4a57 debd 397b c3be 99d4 963d
0.13192709 -0.10783379 -0.06829911 -0.073094055 -0.05391456 0.11934487 -0.052295584 0.045894876
0.028445214 0.052300293 0.10739086 0.05743226 -0.07190351 0.03688752 -0.05399432 0.06527135
0.10438452 -0.10944837 -0.02071997 -0.14568081 0.11426688 -0.05595446 0.026748953 0.11660012
0.090092756 0.073915176 -0.1094469 -0.13692221 -0.042364445 0.044669747 0.042577755 -0.0017888132
-0.096622616 -0.1293613 -0.118086986 0.1091082 0.14371043 0.07515125 0.11780066 -0.07424523
-0.018180586 0.10001143 0.07363314 0.07219285 0.104471825 0.08167198 -0.103337035 -0.046680845
0.17763934 -0.057301108 0.11130806 -0.013857079 0.00017856195 -0.022335878 -0.124738485 0.06747252
0.031838235 0.07300266 0.021164874 -0.0681152 0.06355161 0.030447619 0.056104217 -0.014708916
-0.005651891 0.13437888 0.058530487 0.07266174 0.03600679 -0.032645285 -0.122141995 0.03381461
-0.09709223 0.08511656 0.09124814 0.021016862 -0.2419314 -0.17504238 -0.2388617 -0.06293657
0.12884116 0.00050287857 0.040274616 -0.07463358 0.155311 0.26203394 0.16384238 0.120785065
0.06751597 0.22282931 -0.14080991 0.08675941 0.09769193 0.1395359 0.015395335 -0.05665996
0.004236503 -0.27108553 -0.049107134 0.25706223 0.18994044 -0.112833664 -0.25897446 -0.03860627
0.10308877 -0.0049567227 -0.1696979 0.12103027 -0.0075117457 -0.10472764 0.13689229 -0.018660242
-0.1351753 0.04127466 -0.076564185 -0.02071454 0.0010106536 0.09316666 -0.3271112 -0.076662496
0.09165731 -0.14764513 0.046634376 0.11997595 -0.17309129 -0.0028826115 -0.04887137 0.14886017
0.09274905 -0.04329015 -0.04633263 -0.035991453 -0.044299982 0.04252195 -0.027982168 -0.14696929
0.08796249 0.2147025 0.18867278 -0.012182083 -0.044666663 -0.045723263 -0.036944903 0.16679291
-0.01523481 -0.09099161 0.21660653 -0.18361661 0.098430686 0.003333912 0.15775314 -0.059114244
0.23140551 -0.022338487 -0.19645129 0.031327363 -0.10587909 -0.2669921 -0.12635645 -0.048365522
0.054568443 0.00910614 -0.09261714 0.038345322 0.20994695 0.077585205 0.20599203 0.16509862
0.14039125 0.17410628 0.18290474 0.18306749 0.037527658 -0.105395146 0.089825965 0.1858726
0.04267332 -0.002999824 -0.059130024 0.06097946 0.06478361 -0.17598228 -0.20380516 0.2642833
0.07398014 0.2239141 0.12165073 -0.13235402 -0.02772875 -0.04503735 0.15193388 -0.02928178
-0.22846554 0.24794155 0.082940415 0.3239157 0.40042716 -0.29335168 -0.09268882 0.1535976
-0.061864644 0.03836443 -0.014837237 -0.14697362 -0.05107748 -0.17049238 -0.31795144 -0.0131656695
0.16463721 -0.118230894 0.109486856 0.25832748 0.22257808 0.15290947 0.13991107 0.053215925
0.197377 0.063699156 -0.1867429 0.049995825 0.18083069 0.25371766 0.07982515 -0.13196944
0.0603506 -0.3213737 -0.033576023 0.24841921 0.41871986 -0.01019349 -0.4494103 -0.13248207
0.14993767 -0.021885537 -0.084629744 0.11604782 -0.15879974 -0.37954324 0.45125747 -0.29009604
-0.37657422 0.0013382278 -0.43216363 -0.17490913 -0.24126185 0.4741708 -0.32961813 0.086136095
0.21034837 -0.102634445 -0.10694679 0.22621313 0.012742601 -0.10856493 -0.3817995 0.073647685

lstm.weight_hh_l0 f4 [512, 128]
00000000: 9f63 b93d 5fc1 fb3b e3e0 f3bd 1774 93bc
00000010: 90e3 333e ff9c 9f3b c35e e53d 8c19 38be
00000020: 6c97 bd3a 8047 2d3e 694b 4c3d bf12 bebd
00000030: 5ff0 a23c cdc9 833d c47f dbbd c936 97bc
00000040: 2f4c ce3d 8ccf e43d d8e7 5c3d fb9e e53d
00000050: 4835 86bb c388 9b3d 9caa 6a3c 1ffa 99bd
00000060: ee9c 3c3e 6652 4c3c b553 88bd 0244 c73d
00000070: a0dd 9f3d 487f 1ebe 8a8d 163e c1f9 a63d
00000080: c609 8dbe 70e9 cd39 57e7 1e3e 21a8 a53d
00000090: 7529 23be 28fc 7f3d a628 cd3b 7a6c 27be
000000a0: 09b4 5e3c 9cb7 943c 21f9 d33d c29e 703d
000000b0: e393 aa3d 0885 ea3d 0965 06bd 4aea c3bd
000000c0: 3fc3 db3c f536 38bd 0dfa 1e3e de87 7dbd
000000d0: 0ca9 a5be 5a34 9f3b 6ea6 4abd 9115 3bbd
000000e0: c2c9 c33d 0052 9e3d 6f0c 45bd 673d 993d
000000f0: becd 35bc 7e2f bfbb e7c1 d53a 9bc9 6b3d
00000100: 373c 8fbd bdb9 0d3e 841e c3bc 6939 b53d
00000110: 114c 05be 265c 46b9 0708 a6bc 323a e83d
00000120: 4e2e c8bd e8ca 3bbd de9a 073d 613b 5a3d
00000130: d627 ddbb 6eb7 05be fd82 50bd ec34 3dbd
00000140: fbab 1d3d 1c29 163d 0e66 04bd 2d4a 0abe
00000150: db8a 9fbc aa23 5eb9 5b0b a23c 4fa9 74bd
00000160: dad1 c73c dd85 abbd bc32 25bd 7a6b cc3d
00000170: e604 c9bd 8dbf 203e 475a 0a3e 4b9e 8dbd
00000180: 6837 083c c8bf 313e 0ece f9bd 261b a53c
00000190: 3872 ca3b 2755 213e ba88 413d e372 92bc
000001a0: b2f3 53bd 4f06 303d 4fe8 1f3e abcd ba3b
000001b0: 6219 253e 1a35 1cbe 46ea a1bd f2e8 bb3c
000001c0: 9481 ccbd 93e4 21bd 7bd0 b8bd 1588 d63c
000001d0: c98e eabd 7726 07bb 6242 4f3d e7bf 053e
000001e0: 6368 243d 63b0 63be e4e3 3dbe c094 0cbe
000001f0: b142 c2bd 127b 3b3d 06d3 f23d 5fec 0cbe
00000200: 56dc 5e3e 70bf 02bd 5867 743b 0195 383d
00000210: 198c 91be 0374 8a3e a7f6 b2be d836 a03c
00000220: 86d8 36be 3151 a8bd dff1 433e e748 523d
00000230: 5da1 073e 1570 b23c dcee 87be 9e73 883e
00000240: ff03 a0bd 6b81 eebd 31e8 55be dc08 6ebe
00000250: 76a9 84bd c981 bd3e 7708 0f3e 7234 293e
00000260: a790 d33b da2c 673e f23e 013d 2946 db3d
00000270: d09c 83be 2a9a 823c 2c9a 2ebe e53f 683e
00000280: 8a9c 6b3d c2dd 1bbc c6e1 023c e2fc e63b
00000290: a60a 243e e199 663e bbd2 24be 2818 ac3d
000002a0: c1ce a33e 1099 14be 758d 973d 4ed5 8d3e
000002b0: 2954 17bd 1b16 82be 0cb6 323e e17a 603e
000002c0: f7fb 443e 8929 903e 1c14 33be 18f6 8c3e
000002d0: 261e 90be 9475 52be 0a2b c23d 9f34 49be
000002e0: c345 44bc 7637 573d 4ca8 c5be 28dc 8abe
000002f0: 4e57 943d 7ace d03d 80e3 89bc 322a 253e
00000300: 051c b93e c845 393d f877 473e 1d4e a6bc
00000310: bbc0 4bbe 7538 9abd e461 1abe 3d0b 5f3e
00000320: 6ad0 793e 78b2 b33d 8909 9f3d 7230 f03d
00000330: 4665 82be 24b2 a03e 427f aebe af69 b43d
00000340: a48e 32be 1fdc e5bd 1740 17be 2a12 a43e
00000350: ffad 92be e223 723e 007d ee3d d117 a43e
00000360: 4087 863d 6c5c 203e 6ef6 803e 9d5e c73d
00000370: 11f6 64bd 7e6a 13be 764c 763c f506 473d
00000380: 1811 893e 4dd6 93be a5ae ad3e 8a03 6e3e
00000390: a11c debd 4849 023e 0761 643e 2448 6b3e
000003a0: 82fc 30be 2839 77be c1bc 21bc 1a63 32be
000003b0: bdfc 78bd ab4e 66be ca91 253a 9365 273e
000003c0: d51a 743d 80e8 663e 09c1 4abe 5137 303e
000003d0: 3b67 a33e 4bd3 cf3d 92a8 813e 2a35 adbe
000003e0: 749b 233e 34e5 34be b444 163d ff0a 853d
000003f0: 47b6 803d ed9b 733e 65ce a93d d6e8 923d
0.09052204 0.0076829637 -0.11908128 -0.017999692 0.17567277 0.0048710103 0.11199715 -0.17978495
0.0014464683 0.16921806 0.049876604 -0.09280919 0.019890008 0.06434975 -0.10717729 -0.01845874
0.100731246 0.11172399 0.05393204 0.11211964 -0.004095707 0.075944446 0.014322903 -0.0751841
0.18419239 0.012470817 -0.06656591 0.09729768 0.078059435 -0.15478241 0.1470243 0.081531055
-0.2754652 0.00039274571 0.15517937 0.08088709 -0.15933783 0.062496334 0.006260949 -0.16349974
0.013592728 0.018153958 0.10350252 0.058745153 0.083289884 0.11451155 -0.0328112 -0.095661715
0.026826499 -0.044974286 0.15525074 -0.06189715 -0.32355535 0.0048585357 -0.049475126 -0.045674864
0.095599666 0.07730484 -0.04810756 0.07482415 -0.011096416 -0.005834519 0.0016308398 0.057565313
-0.06993907 0.13840385 -0.023818262 0.08848841 -0.13017298 -0.0001891708 -0.0202675 0.11339225
-0.09774457 -0.045847803 0.033106677 0.053279284 -0.0067491336 -0.13058254 -0.05090617 -0.04619305
0.03849409 0.0366603 -0.03232389 -0.13504858 -0.019475391 -0.00021184856 0.019780805 -0.059731778
0.024392057 -0.08375142 -0.040331587 0.09981437 -0.098153874 0.15698071 0.13511 -0.069149576
0.008313991 0.17358315 -0.12197505 0.020154547 0.0061781667 0.1575514 0.047249533 -0.017877048
-0.051746078 0.042974766 0.15615962 0.005700787 0.16122964 -0.15254632 -0.07906012 0.022938225
-0.099856526 -0.039524626 -0.090241395 0.026187936 -0.11453015 -0.0020622292 0.050600417 0.13061486
0.040138613 -0.22235255 -0.18543965 -0.13728619 -0.094853766 0.045771666 0.11856656 -0.13762043
0.21763739 -0.03192085 0.0037293043 0.045063976 -0.284272 0.27041635 -0.34953806 0.019557402
-0.17856035 -0.08218611 0.19135235 0.051339056 0.13245149 0.02178196 -0.26549423 0.2665071
-0.07813262 -0.11645778 -0.20889355 -0.23245567 -0.064776346 0.3701308 0.13968073 0.16523913
0.006456453 0.22575703 0.03155417 0.10706741 -0.25705576 0.015942652 -0.17051 0.22680624
0.057522334 -0.00951332 0.007988399 0.007049189 0.16019687 0.22519638 -0.16096012 0.08403045
0.31993678 -0.14511514 0.07400028 0.277018 -0.036945496 -0.2540749 0.17452258 0.21921875
0.19236742 0.2815669 -0.1748814 0.27531505 -0.28148 -0.20552665 0.09480865 -0.1964898
-0.011979523 0.052543126 -0.38604963 -0.2712109 0.072432145 0.10195632 -0.016832113 0.16129377
0.3615419 0.045232564 0.19479358 -0.02030092 -0.1989774 -0.075302996 -0.15076405 0.21781631
0.2439591 0.087742746 0.077654906 0.1172799 -0.2546789 0.3138591 -0.34081465 0.0880922
-0.17437226 -0.112236254 -0.14770542 0.32045108 -0.28648373 0.236465 0.116449356 0.3204942
0.06568766 0.15660256 0.2518801 0.09734843 -0.05589873 -0.14396092 0.015032878 0.04859062
0.26770854 -0.28874436 0.33922306 0.23243538 -0.10845304 0.12723267 0.22302638 0.22976738
-0.17283824 -0.24142897 -0.009871663 -0.17420617 -0.060787905 -0.22490947 0.0006315975 0.16347341
0.0595959 0.22549629 -0.198002 0.17208602 0.31914696 0.10147723 0.2532392 -0.33829623
0.1597727 -0.17665559 0.036686614 0.06496238 0.06284767 0.2378995 0.0829132 0.07173316

lstm.bias_ih_l0 f4 [512]
00000000: 5834 b9bc c483 aebc 1e1b 8f3c 3d78 233d
00000010: 11ac 503b 84b9 45bd a357 2f3b d3bb b13c
00000020: 83b8 14b9 2cf5 7b3d 68d3 9fbd 0d8f 06be
00000030: 23e6 7ebe cf31 c9bc a859 8fbd 1473 75bc
00000040: 2ed3 d4bd 2992 0abe 30b3 88bd d4b8 8bbd
00000050: 26b2 90bd b8b3 70bd bc92 1cbe 1862 163d
00000060: a03b a1bd 621b c3bd 0d6f 92bd 1c37 67bd
00000070: 0a99 49bd fcb3 1fbe e6c0 96bd 327c 08be
00000080: 6b4d b33d e538 9f3c ccc1 8abd fcaf 03be
00000090: 63f8 82bd e9ff 22bd 377f b3bd 095e b9bd
000000a0: 253c 66bd ca00 23be e585 02be 2117 53be
000000b0: fc64 e6bc 7aec 59bc 7ea9 103c c975 70bd
000000c0: e663 cb3c cec7 6bbb 7726 1dbd e969 e2bd
000000d0: acf5 413d 1db9 14bd 7ea3 17be 45f7 893c
000000e0: 5985 8a3d 53ab 9ebd 38d0 0a3b 2283 febd
000000f0: bba9 603d 3157 b6bd a2f5 0cbe e83f 1c3d
00000100: ab72 9fbd 8a70 113d e4c5 9fbd 76e9 30bd
00000110: bc35 43be a3c9 84bd d033 93bd 088e 49bc
00000120: 1aa6 47bd 49b2 1abe abe0 5c3c 3325 afbc
00000130: b009 483c 719b 343d 28e6 89bd c58e 8ebc
00000140: 5521 05be 0e9b 88bd f487 dabd cd1c 87bd
00000150: fc22 21bd c710 663d 966c 24bd 8acf 6d3d
00000160: e402 6f3e 9c24 b2bd 8a05 dabc 4330 0b3d
00000170: c4fa bf3d 2126 2ebe d0c3 47be 0454 0cbe
00000180: c3ba fdbd 0ece 85bd 43bf 6fbd b1b6 10bd
00000190: b353 0ebe 6645 023e cd2a 423c 9540 8cbd
000001a0: 3e11 56bc 3bd9 54bd c387 b2bd ad89 acbd
000001b0: 4f9e bbbd dd09 733d 3163 133d 7683 d4bd
000001c0: e0bc 18bd e084 82bd 934e cebd b15a 2fbd
000001d0: 8cab 07be fcbc b53d 4bff 49bd 6c1f babc
000001e0: 72a1 05be 2b24 9abd 5dca 893c fc74 52bc
000001f0: 885a 8dbd 2aeb 0c3e f223 67bd 03ea 2dbc
00000200: b998 093b 888a c8bc 65d6 3bbd 54e2 4f3d
00000210: 7cac e83d 7e7c eebc 6c60 2f3d a7e9 8d3d
00000220: e3a1 933d de25 dc3d f259 4b3c 0eef 64bd
00000230: 8bb5 1abe 4daf cfbd a2d0 f6bc 3810 463d
00000240: 40fb 2bbd 2ddf cbbd f23d 2fbd 3c0e 26ba
00000250: cbd1 b7bd eaba c9bc 84d3 21bd 38c4 cc3d
00000260: e8ce ffbd 3677 0bbc d13f 1bbe fff7 19bc
00000270: 9f91 24bc 8ffa 96bd 83a5 1ebc 4ca3 56bb
00000280: 39a0 1e3e 2868 013b 4f52 9fbc bcfd d3bd
00000290: be7c b3bc 491e 3ebc 051e b8bc 7a47 48bd
000002a0: 0950 03bd 7dc9 3cbd 49fa 6cbd 4610 20be
000002b0: 1b7a d2bc 2d60 173c d4a7 5039 0bc5 27bd
000002c0: 621a 8d3d 3728 4a3d 89df d43c b8a9 9fbd
000002d0: 30ce 153d 90f1 5dbc a7c2 b3bd facf b43d
000002e0: 7abb 1b3e 75df ccbd 17d5 6b3d 81ed 7fbd
000002f0: fa5d 91bc 6a15 e8bc b017 a2bd 0d2d ce3d
00000300: b0fe 1ebd c87c d03d f070 72bb 121a 51bd
00000310: 8b67 80bd 192b acbc 0dbc 51bc 987f 88bd
00000320: 94dd b13c f02c ecbd 7934 21bd fd73 acbc
00000330: 355e 923d 42c2 973d 2a83 b6bc 4b45 2fbc
00000340: 7c80 98bd e537 7a3d 12e5 de3c 9896 1cbb
00000350: 0d05 273c 924f be3d 69ba 0a3e fb97 e93d
00000360: aae5 903e b996 05bd 9940 443b 89b3 653d
00000370: a0c9 9f3d 8877 13bd 9678 0ebe 6f0e 4cbd
00000380: 3903 fabc eea5 f4bc e2ba e9bb e845 2b3d
00000390: f31e 85bd 642b 253e 5769 073e 770b c43b
000003a0: 98ee 683c 45fa 5abb 822f abbd 5604 2fbd
000003b0: 2017 1dbd 0568 9a3d 0c7b 2b3d 1b86 a1bd
000003c0: 3d25 bbbd e8f2 683b ec0e 15be 9eac 6dbd
000003d0: 2b14 b7bd 6bb1 77bc f2c6 a6bd 4d15 263d
000003e0: ce9b 0abd c2e1 6abc f767 343d 780b 84bb
000003f0: e90d 743c b97a a93d 834c a6bc a70b 8a3c
-0.022607967 -0.021303065 0.017468985 0.03990959 0.003184084 -0.048272625 0.0026755116 0.021696007
-0.00014183116 0.06151311 -0.078039944 -0.13140507 -0.24892478 -0.024559883 -0.069995224 -0.01498105
-0.10391842 -0.13532318 -0.06674802 -0.068223625 -0.07065229 -0.058765143 -0.1529035 0.036714643
-0.07872701 -0.09526707 -0.071500875 -0.05644904 -0.049218215 -0.15596002 -0.07361011 -0.13328627
0.08755001 0.01943631 -0.06775245 -0.12860101 -0.06395032 -0.039794836 -0.08764499 -0.09051139
-0.056209702 -0.1591827 -0.12746389 -0.20614292 -0.028124325 -0.013301009 0.008829473 -0.05870608
0.024827909 -0.0035977247 -0.03836676 -0.11055357 0.04735343 -0.03630935 -0.14808461 0.01684154
0.06763715 -0.07747521 0.0021181237 -0.12427355 0.054849368 -0.08903349 -0.13765576 0.038146883
-0.07785543 0.035507716 -0.078014165 -0.043191396 -0.19063467 -0.06483772 -0.07187617 -0.012301929
-0.04874239 -0.15107073 0.013481299 -0.021380043 0.012209341 0.044093553 -0.06733352 -0.017402062
-0.13000996 -0.06670199 -0.10670462 -0.0659729 -0.039340004 0.056168344 -0.040142618 0.058059253
0.23340946 -0.08698389 -0.02661397 0.033981573 0.093740016 -0.17006733 -0.1950829 -0.13703924
-0.123891376 -0.065334424 -0.05853201 -0.035330478 -0.13899116 0.12721786 0.011851025 -0.068482555
-0.013065634 -0.05196498 -0.08717301 -0.08424697 -0.09161054 0.05933558 0.03598327 -0.10376637
-0.0372895 -0.06373 -0.100735806 -0.0428111 -0.13249034 0.088739365 -0.049315732 -0.022720061
-0.13049868 -0.0752643 0.016820127 -0.012845274 -0.06902033 0.13761583 -0.056430764 -0.010614875
0.002099557 -0.02448012 -0.04585876 0.050752953 0.11361024 -0.029112097 0.042816564 0.06929331
0.07208612 0.1074941 0.012411581 -0.055892043 -0.15108316 -0.10140858 -0.03012878 0.04835531
-0.041987658 -0.09954677 -0.042783685 -0.00063345185 -0.08975562 -0.02462526 -0.039508358 0.09998363
-0.12490636 -0.008512309 -0.15161063 -0.009397506 -0.010044484 -0.07372009 -0.009683016 -0.003275114
0.15490808 0.001974592 -0.019448427 -0.1035113 -0.021910068 -0.0116039 -0.022475252 -0.04889629
-0.03205875 -0.04609059 -0.057855878 -0.15631208 -0.02569299 0.009239239 0.00019898947 -0.0409594
0.06889798 0.049354758 0.025985496 -0.07796043 0.03657359 -0.0135463625 -0.08777361 0.08828731
0.15208235 -0.100035585 0.057576265 -0.06248236 -0.017745007 -0.028330524 -0.07914674 0.100671865
-0.038817108 0.1018005 -0.0036993586 -0.051050253 -0.06269749 -0.021016644 -0.012801182 -0.066649616
0.021712102 -0.11532009 -0.039356682 -0.021051401 0.07146875 0.074100986 -0.02227934 -0.010697673
-0.074463814 0.06108846 0.027208839 -0.0023893472 0.010194075 0.092925206 0.13547672 0.11405941
0.2830022 -0.032614443 0.002994573 0.05607942 0.07802129 -0.036002666 -0.13913187 -0.049818452
-0.030519115 -0.029864278 -0.007132874 0.041814715 -0.06500044 0.16129833 0.13223778 0.005982812
0.014217041 -0.0033413332 -0.08358671 -0.042728744 -0.03835213 0.075393714 0.041865394 -0.07886907
-0.09137962 0.0035545174 -0.14556473 -0.05802595 -0.089393936 -0.015117983 -0.081434146 0.040547658
-0.033839993 -0.014336051 0.04404446 -0.0040296875 0.014895895 0.082753606 -0.020300156 0.01685126

lstm.bias_hh_l0 f4 [512]
00000000: 5834 b9bc c483 aebc 1e1b 8f3c 3d78 233d
00000010: 11ac 503b 84b9 45bd a357 2f3b d3bb b13c
00000020: 83b8 14b9 2cf5 7b3d 68d3 9fbd 0d8f 06be
00000030: 23e6 7ebe cf31 c9bc a859 8fbd 1473 75bc
00000040: 2ed3 d4bd 2992 0abe 30b3 88bd d4b8 8bbd
00000050: 26b2 90bd b8b3 70bd bc92 1cbe 1862 163d
00000060: a03b a1bd 621b c3bd 0d6f 92bd 1c37 67bd
00000070: 0a99 49bd fcb3 1fbe e6c0 96bd 327c 08be
00000080: 6b4d b33d e538 9f3c ccc1 8abd fcaf 03be
00000090: 63f8 82bd e9ff 22bd 377f b3bd 095e b9bd
000000a0: 253c 66bd ca00 23be e585 02be 2117 53be
000000b0: fc64 e6bc 7aec 59bc 7ea9 103c c975 70bd
000000c0: e663 cb3c cec7 6bbb 7726 1dbd e969 e2bd
000000d0: acf5 413d 1db9 14bd 7ea3 17be 45f7 893c
000000e0: 5985 8a3d 53ab 9ebd 38d0 0a3b 2283 febd
000000f0: bba9 603d 3157 b6bd a2f5 0cbe e83f 1c3d
00000100: ab72 9fbd 8a70 113d e4c5 9fbd 76e9 30bd
00000110: bc35 43be a3c9 84bd d033 93bd 088e 49bc
00000120: 1aa6 47bd 49b2 1abe abe0 5c3c 3325 afbc
00000130: b009 483c 719b 343d 28e6 89bd c58e 8ebc
00000140: 5521 05be 0e9b 88bd f487 dabd cd1c 87bd
00000150: fc22 21bd c710 663d 966c 24bd 8acf 6d3d
00000160: e402 6f3e 9c24 b2bd 8a05 dabc 4330 0b3d
00000170: c4fa bf3d 2126 2ebe d0c3 47be 0454 0cbe
00000180: c3ba fdbd 0ece 85bd 43bf 6fbd b1b6 10bd
00000190: b353 0ebe 6645 023e cd2a 423c 9540 8cbd
000001a0: 3e11 56bc 3bd9 54bd c387 b2bd ad89 acbd
000001b0: 4f9e bbbd dd09 733d 3163 133d 7683 d4bd
000001c0: e0bc 18bd e084 82bd 934e cebd b15a 2fbd
000001d0: 8cab 07be fcbc b53d 4bff 49bd 6c1f babc
000001e0: 72a1 05be 2b24 9abd 5dca 893c fc74 52bc
000001f0: 885a 8dbd 2aeb 0c3e f223 67bd 03ea 2dbc
00000200: b998 093b 888a c8bc 65d6 3bbd 54e2 4f3d
00000210: 7cac e83d 7e7c eebc 6c60 2f3d a7e9 8d3d
00000220: e3a1 933d de25 dc3d f259 4b3c 0eef 64bd
00000230: 8bb5 1abe 4daf cfbd a2d0 f6bc 3810 463d
00000240: 40fb 2bbd 2ddf cbbd f23d 2fbd 3c0e 26ba
00000250: cbd1 b7bd eaba c9bc 84d3 21bd 38c4 cc3d
00000260: e8ce ffbd 3677 0bbc d13f 1bbe fff7 19bc
00000270: 9f91 24bc 8ffa 96bd 83a5 1ebc 4ca3 56bb
00000280: 39a0 1e3e 2868 013b 4f52 9fbc bcfd d3bd
00000290: be7c b3bc 491e 3ebc 051e b8bc 7a47 48bd
000002a0: 0950 03bd 7dc9 3cbd 49fa 6cbd 4610 20be
000002b0: 1b7a d2bc 2d60 173c d4a7 5039 0bc5 27bd
000002c0: 621a 8d3d 3728 4a3d 89df d43c b8a9 9fbd
000002d0: 30ce 153d 90f1 5dbc a7c2 b3bd facf b43d
000002e0: 7abb 1b3e 75df ccbd 17d5 6b3d 81ed 7fbd
000002f0: fa5d 91bc 6a15 e8bc b017 a2bd 0d2d ce3d
00000300: b0fe 1ebd c87c d03d f070 72bb 121a 51bd
00000310: 8b67 80bd 192b acbc 0dbc 51bc 987f 88bd
00000320: 94dd b13c f02c ecbd 7934 21bd fd73 acbc
00000330: 355e 923d 42c2 973d 2a83 b6bc 4b45 2fbc
00000340: 7c80 98bd e537 7a3d 12e5 de3c 9896 1cbb
00000350: 0d05 273c 924f be3d 69ba 0a3e fb97 e93d
00000360: aae5 903e b996 05bd 9940 443b 89b3 653d
00000370: a0c9 9f3d 8877 13bd 9678 0ebe 6f0e 4cbd
00000380: 3903 fabc eea5 f4bc e2ba e9bb e845 2b3d
00000390: f31e 85bd 642b 253e 5769 073e 770b c43b
000003a0: 98ee 683c 45fa 5abb 822f abbd 5604 2fbd
000003b0: 2017 1dbd 0568 9a3d 0c7b 2b3d 1b86 a1bd
000003c0: 3d25 bbbd e8f2 683b ec0e 15be 9eac 6dbd
000003d0: 2b14 b7bd 6bb1 77bc f2c6 a6bd 4d15 263d
000003e0: ce9b 0abd c2e1 6abc f767 343d 780b 84bb
000003f0: e90d 743c b97a a93d 834c a6bc a70b 8a3c
-0.022607967 -0.021303065 0.017468985 0.03990959 0.003184084 -0.048272625 0.0026755116 0.021696007
-0.00014183116 0.06151311 -0.078039944 -0.13140507 -0.24892478 -0.024559883 -0.069995224 -0.01498105
-0.10391842 -0.13532318 -0.06674802 -0.068223625 -0.07065229 -0.058765143 -0.1529035 0.036714643
-0.07872701 -0.09526707 -0.071500875 -0.05644904 -0.049218215 -0.15596002 -0.07361011 -0.13328627
0.08755001 0.01943631 -0.06775245 -0.12860101 -0.06395032 -0.039794836 -0.08764499 -0.09051139
-0.056209702 -0.1591827 -0.12746389 -0.20614292 -0.028124325 -0.013301009 0.008829473 -0.05870608
0.024827909 -0.0035977247 -0.03836676 -0.11055357 0.04735343 -0.03630935 -0.14808461 0.01684154
0.06763715 -0.07747521 0.0021181237 -0.12427355 0.054849368 -0.08903349 -0.13765576 0.038146883
-0.07785543 0.035507716 -0.078014165 -0.043191396 -0.19063467 -0.06483772 -0.07187617 -0.012301929
-0.04874239 -0.15107073 0.013481299 -0.021380043 0.012209341 0.044093553 -0.06733352 -0.017402062
-0.13000996 -0.06670199 -0.10670462 -0.0659729 -0.039340004 0.056168344 -0.040142618 0.058059253
0.23340946 -0.08698389 -0.02661397 0.033981573 0.093740016 -0.17006733 -0.1950829 -0.13703924
-0.123891376 -0.065334424 -0.05853201 -0.035330478 -0.13899116 0.12721786 0.011851025 -0.068482555
-0.013065634 -0.05196498 -0.08717301 -0.08424697 -0.09161054 0.05933558 0.03598327 -0.10376637
-0.0372895 -0.06373 -0.100735806 -0.0428111 -0.13249034 0.088739365 -0.049315732 -0.022720061
-0.13049868 -0.0752643 0.016820127 -0.012845274 -0.06902033 0.13761583 -0.056430764 -0.010614875
0.002099557 -0.02448012 -0.04585876 0.050752953 0.11361024 -0.029112097 0.042816564 0.06929331
0.07208612 0.1074941 0.012411581 -0.055892043 -0.15108316 -0.10140858 -0.03012878 0.04835531
-0.041987658 -0.09954677 -0.042783685 -0.00063345185 -0.08975562 -0.02462526 -0.039508358 0.09998363
-0.12490636 -0.008512309 -0.15161063 -0.009397506 -0.010044484 -0.07372009 -0.009683016 -0.003275114
0.15490808 0.001974592 -0.019448427 -0.1035113 -0.021910068 -0.0116039 -0.022475252 -0.04889629
-0.03205875 -0.04609059 -0.057855878 -0.15631208 -0.02569299 0.009239239 0.00019898947 -0.0409594
0.06889798 0.049354758 0.025985496 -0.07796043 0.03657359 -0.0135463625 -0.08777361 0.08828731
0.15208235 -0.100035585 0.057576265 -0.06248236 -0.017745007 -0.028330524 -0.07914674 0.100671865
-0.038817108 0.1018005 -0.0036993586 -0.051050253 -0.06269749 -0.021016644 -0.012801182 -0.066649616
0.021712102 -0.11532009 -0.039356682 -0.021051401 0.07146875 0.074100986 -0.02227934 -0.010697673
-0.074463814 0.06108846 0.027208839 -0.0023893472 0.010194075 0.092925206 0.13547672 0.11405941
0.2830022 -0.032614443 0.002994573 0.05607942 0.07802129 -0.036002666 -0.13913187 -0.049818452
-0.030519115 -0.029864278 -0.007132874 0.041814715 -0.06500044 0.16129833 0.13223778 0.005982812
0.014217041 -0.0033413332 -0.08358671 -0.042728744 -0.03835213 0.075393714 0.041865394 -0.07886907
-0.09137962 0.0035545174 -0.14556473 -0.05802595 -0.089393936 -0.015117983 -0.081434146 0.040547658
-0.033839993 -0.014336051 0.04404446 -0.0040296875 0.014895895 0.082753606 -0.020300156 0.01685126

lstm.weight_ih_l0_reverse f4 [512, 64]
00000000: 3c19 193d 3b9c 163e 57a0 9c3e f6b5 47be
00000010: 43e2 913d ea6a 953d e502 903e 38a5 6f3e
00000020: 3533 7fbe 18d6 93be 7f5c 75be 04dc 5ebe
00000030: 003d c13a f32d 8fbe 2dc9 18bd ea0b 90be
00000040: 0db5 cc3e 211d f03d 2197 b6be df0c 1c3e
00000050: 2cb2 79bd 0b87 b4be 979b 2bbe 8a25 24bd
00000060: 4771 9abe f0ac c4be 0988 db3e af83 39be
00000070: 7d2d 56be 8f37 513e 5a92 08bd eaa1 743e
00000080: 51a6 c0bd 9703 15bd b0aa 98be 2d87 3c3e
00000090: 3f3d ac3d 9637 6f3e 7f60 ccbe 6575 b9be
000000a0: 9b59 f9be 8395 593d a7af 03be cad6 0dbf
000000b0: 19bf 513e bedf b93c c709 64be d9ee f5bc
000000c0: 5593 efbd 117a 2b3d 9dea e6bd 6aa1 4bbd
000000d0: 8401 f7bd cd77 e83c 5d88 84be e968 50be
000000e0: 7540 493d 92c2 cabd 9767 08bf 9b48 803e
000000f0: cef1 7abe 5942 4fbe 2728 28be 5656 a7bc
00000100: 045f 4bbe 32d7 3a3d b49e b03c 7a4f 203e
00000110: c4c0 ae3e a5a4 9cbd 302d 2a3d 9b19 efbd
00000120: 9957 473d 30af cbbd 7dd5 39bd 3ac9 c0bd
00000130: fc0b 0f3d 7e9b ccbd 00ce 36be fb6d 09be
00000140: 0f7b b83d 2c6d 0c3e 4472 323e b9fe 4ebd
00000150: ce3d 5e3e 435e 07bd 78cb 3bbe 859b 6fbc
00000160: c1af d13c 82fe e53d e743 d5bc 420f 36be
00000170: b8f7 b1bd 6daa 233c 830a b0bc 7c6a c1bd
00000180: b70c 61bc 4b7b 08bd 303b 933c 6367 37bd
00000190: 157b 2f3e 8e57 3bbd c1b6 e7bd 5dd7 eebd
000001a0: 2e65 223e 8086 a6bd 68d7 f9bd c250 593e
000001b0: 4e47 46be dda7 7cbd b1c8 84b9 cd0c 19bd
000001c0: 2e40 7a3d 8f4e 383e bcf3 2bbc 4311 73bd
000001d0: 7f66 29bc ceca bb3e 7bad 12be 0af2 10bd
000001e0: 6ce6 083e d39b 15bb 4990 c2bd 902e 9f3d
000001f0: 541f 8b3b 012e 16be c806 12bd ff67 f7bd
00000200: 6321 0cbe dace 103e dbcb f43d 51bf 4c3e
00000210: 7efd 253e 6819 91be 111d 263e 8d9c adbd
00000220: bde4 18be 0646 8f3d 6582 afbd ca52 22be
00000230: 58b8 813d 8d9e 43be 6aed cdbd 664d 163e
00000240: 752b 14bd 0dde 553e 746d 5c3e 7dfb c3bb
00000250: dc8f 873e f3b1 37be 36f9 ba3d cb4f 453c
00000260: bf9f 2abc 4f4f bbbd 8850 453d 207d 5e3e
00000270: 6ff7 91be 8fca 553d 3eab 253e c1b0 9f3e
00000280: d42c cfbd 9235 09bd d70d 35bc 4d67 853c
00000290: 2371 b33d a51b 5c3d 13c7 f63c d917 50be
000002a0: cdbb 17bd c902 963d 3661 47be d5ee a03e
000002b0: 0cdf 37bd 2fba 91be 1f33 c63d 76e9 0e3e
000002c0: 0dc0 8f3d e7fb 803e 21eb 0ebe 028e 483c
000002d0: a359 fbbc 9757 c33d cbb4 23be 59c4 cc3d
000002e0: 0c80 c33e 9168 23be 9c94 3dbe c816 a83d
000002f0: f57f 9ebe 8ea2 84bd 6aff a2bd c761 56be
00000300: d579 ccbd 686d 013e b49e c7bc 0da5 b33d
00000310: db77 723e a40a aebd a3e0 4c3e 2e6b 773b
00000320: 9c24 7b3d 6932 a9bd 0910 c5bd 2aba 79be
00000330: 08c8 1b3e db1e 3abe 41ea 413e 47f1 54bd
00000340: e7de 823d c260 6a3e 7400 5a3d 6bfe 003e
00000350: d34c 48be 558e 80bd e2ab 2ebe 8048 4ebe
00000360: 2f3d 243e f568 88be 2f9f 63bd a3c9 b73c
00000370: 28b2 60be fb7e 9abd 70a7 0fbd 67c4 043e
00000380: 4237 37be e04d 36be 0d74 043d 6a2d 2c3c
00000390: d6e5 07be 7c56 a53c c124 07be e536 26be
000003a0: 5a92 a73d 7bac 17be 38f4 7dbd a2e8 ba3d
000003b0: 9e63 34bc 9552 c4bc c711 a8be 2e0e 353e
000003c0: b13c 4bbd c07e 4e3e 1c2b adbb 5856 ab3d
000003d0: f657 823e 8f27 6f3d e211 1a3e a94c 0dbd
000003e0: 47bf 043e 3123 93bd 9e0a 32bc a8c4 293e
000003f0: a270 08be 870d 88bd 4087 303e b7d6 d7bd
0.03737758 0.14708035 0.3059108 -0.19503006 0.07123234 0.07295783 0.28127208 0.2340287
-0.24921878 -0.28874278 -0.23961066 -0.21763617 0.0014742911 -0.27964744 -0.03730123 -0.2813409
0.3998188 0.11724306 -0.35662177 0.15239285 -0.060960934 -0.3525928 -0.16758572 -0.040074863
-0.3016455 -0.3841319 0.42877224 -0.1811664 -0.2091579 0.2043135 -0.033342697 0.2388989
-0.09406722 -0.036380377 -0.29817724 0.1841094 0.08410119 0.23361048 -0.3991737 -0.36222377
-0.48701176 0.0531211 -0.12859975 -0.5540587 0.20483054 0.022689696 -0.22269355 -0.030021118
-0.11698023 0.04186446 -0.11275218 -0.049714483 -0.12060836 0.028377438 -0.25885287 -0.2035252
0.049133737 -0.099003926 -0.53283066 0.25055394 -0.24506304 -0.20240153 -0.16421567 -0.02042691
-0.19860464 0.045615382 0.02156005 0.15655318 0.34131444 -0.07648591 0.041547 -0.11674806
0.048667524 -0.09945524 -0.045369614 -0.09413381 0.03492354 -0.09990595 -0.1785202 -0.1342086
0.090078466 0.13713521 0.17426401 -0.05053589 0.21703264 -0.03304888 -0.18339336 -0.014624481
0.025596501 0.11230184 -0.026033355 -0.17779258 -0.08689827 0.009989363 -0.021489387 -0.094441384
-0.013735942 -0.033320706 0.017972559 -0.04477633 0.17136796 -0.045737796 -0.113141544 -0.11662171
0.1585891 -0.081311226 -0.121992886 0.21222213 -0.19363138 -0.061683524 -0.0002532653 -0.037365723
0.061096363 0.17998718 -0.0104951225 -0.059342634 -0.010339378 0.36678165 -0.1432399 -0.035387076
0.13369149 -0.0022828474 -0.095001765 0.07772553 0.004245678 -0.14665987 -0.035651 -0.120803826
-0.13684611 0.14141408 0.11952945 0.19994856 0.16209981 -0.28339696 0.16222025 -0.08477125
-0.14931007 0.06995778 -0.08569793 -0.15851894 0.06333989 -0.19103451 -0.10055049 0.14677963
-0.036174256 0.20885487 0.21526128 -0.0059809075 0.26476943 -0.17938976 0.091295645 0.01204295
-0.010414063 -0.09145986 0.048172504 0.21727419 -0.2850909 0.052195128 0.16178605 0.3118954
-0.10115972 -0.033498354 -0.011050663 0.01628461 0.087618135 0.0537373 0.030124223 -0.20321597
-0.037044335 0.0732475 -0.19470677 0.31432214 -0.04489045 -0.2846236 0.09677719 0.13956246
0.07019053 0.25192186 -0.13956882 0.012240889 -0.03068239 0.09538191 -0.15986936 0.09998388
0.3818363 -0.15957858 -0.18513721 0.0820747 -0.30956998 -0.06476317 -0.079588726 -0.20935737
-0.09984175 0.12639391 -0.024367668 0.08771715 0.23678534 -0.08498123 0.20007567 0.0037753093
0.06131421 -0.08261568 -0.09622199 -0.24387422 0.15213025 -0.18175833 0.18937017 -0.051987913
0.063901715 0.22888473 0.05322309 0.12597053 -0.19560556 -0.06277148 -0.17057756 -0.20144844
0.16038965 -0.26642576 -0.05557173 0.022435015 -0.21942961 -0.07543751 -0.03507179 0.12965547
-0.17892173 -0.17803144 0.032337237 0.010508874 -0.13271269 0.02018284 -0.13197614 -0.16231878
0.08182211 -0.1481189 -0.062000483 0.091264024 -0.011010079 -0.02396516 -0.32826063 0.1768119
-0.049618427 0.20165539 -0.00528468 0.08366078 0.25457734 0.058387335 0.15045884 -0.034496937
0.12963592 -0.071844466 -0.010866789 0.16578925 -0.13324216 -0.06643205 0.17239094 -0.105390005

lstm.weight_hh_l0_reverse f4 [512, 128]
00000000: 66a1 233e cfcb b7bc 987a 9dbd 104a bc3c
00000010: 4de9 673e 69ac 303e 6cb3 4f3d 36ff 663e
00000020: 6f69 05bd c113 d83d 6658 b9bd 31a5 e13d
00000030: 3352 3e3d 5683 24be afc0 13bd cf89 a03a
00000040: c74c 9ebd d281 a73d 6935 9abe 3b27 94bb
00000050: 0cbc cf3d fe95 103c 1449 84be 2f61 f13d
00000060: ffdc d2bd 8916 68bd 4a95 13be 8256 d1bd
00000070: 2f7f c1bd 28dd 06be 69bd 13be c1a9 7c3e
00000080: 515c 303d 15f6 42bd fdb1 79be 18d7 afbe
00000090: 264d 893e 334a 293d 6116 12be 7101 fd3d
000000a0: d747 0c3e 8ee8 24be 46c1 603e 5040 69be
000000b0: 1d8f c13d 1a39 2a3e 99d6 333d c5e0 073e
000000c0: e5be 8a3b 3fd9 b93d b128 2d3d 1c73 043c
000000d0: f598 10be 512a 223d 267f 45bd a669 093e
000000e0: 222d ea3b 428e 6cbe 7cca 033e fc0a 3abe
000000f0: 3f7e 3c3e b038 38bd bf8d 803d 7225 5abd
00000100: ecc0 f23c 35fe 3cbe 7519 153e 305b 2abe
00000110: bbba 4cbd 4974 de3c 5624 33be 0b2e 133e
00000120: dda6 ed3e ca0c e83d 1562 3abe 1ca1 9b3d
00000130: 7002 9e3d 7ee7 7b3d f13c 70be e15d 53be
00000140: d38c febc 7571 523e 1492 f7bc 3b33 d3bd
00000150: a585 18bd e868 873d 0ae9 56be 3a49 88be
00000160: 3d9d 05be c078 9f3d 50df 383d f988 893e
00000170: 1275 813e ab0a 893c ad54 6d3e 06ee 5d3d
00000180: 3425 ff3d 51ca 413e 66c5 e3bd 284d b83d
00000190: b7ba 8e3b 3023 6cbd a03d e73d bbdb 073c
000001a0: 71d5 973d 3145 38be 4990 a83c ce13 9fbc
000001b0: 5ba5 2dbe 5d02 a33d 5dd7 eb3d 0181 b0bd
000001c0: 7e83 c4bd c23b 2b3e 4817 d23d be0e 2d3d
000001d0: a041 0e3e 8037 35be e811 63be bf9d 0abd
000001e0: 6dce 84be b734 30be 9692 58be fbaf 00bc
000001f0: 92a7 88bd 909e 293e 24f7 443d f2be 813a
00000200: 7459 ef3c dd3d 4fba 1074 1d3d ebb1 ebbc
00000210: c890 a03d 0007 52be 8f40 4b3e 9a1c 363d
00000220: 220c c23d 63a3 70bd 04a5 c4bd 62f7 7b3d
00000230: 1c37 94bc db5f adbd 79c0 78bd 38e5 043e
00000240: f5f6 aabc ef60 653d f3df e0bd 4141 c8bd
00000250: c499 9bbd 2722 193a 9617 c8bc b2cb 76bc
00000260: 2514 74bd 51da 113c 1717 eb3c b1d8 c13d
00000270: 1fda abbd d336 843d 2f37 b7be 0972 3fbe
00000280: 3bbb b33d 075b 7cbd b10d 80bd 88c1 b1be
00000290: e8c3 eaba 0fef 14be 889c c03d 473a 09be
000002a0: bb29 343e fb5a 8dbd ef1d 463e 2695 273d
000002b0: 3592 cc3d bcec f53c 9e63 b83d b3f6 73bd
000002c0: 70e8 09bd f537 22bd 3a66 44bd 28df 4a3d
000002d0: a781 573d a91e d23d a2aa eabb af1e 193e
000002e0: d5b8 913c c66a 1fbd a31f 55bd 4932 afbd
000002f0: 0d86 ee3d 8815 233c 991c 00bd 3894 b9bc
00000300: f65d 633e ef76 5bbe 1a4f 85bd 8419 d5bd
00000310: 2b9f 073e 5f9f 573d 3198 97bd c72a 2e3e
00000320: 25d7 353d b1cc f33d 1d5f 69be aaa5 b33d
00000330: 5a4e 28be 4e45 a53d 876b e3bb 6707 19be
00000340: 2ad7 46be 2de7 ddbd 84c9 e1bd cc12 afbd
00000350: 23b5 703d 1da5 343d 72c6 b23d 8bc0 a9bd
00000360: 1d7d adbd a58e 53bd bdaa 3f3d bcb9 4c3e
00000370: 236d 913e 7d18 d6bc 05b3 87bc f4bb f63d
00000380: 1f3f b2bd 3db7 a53d 1ce1 25be b5d1 de3c
00000390: 83fa 00be bc24 95bd 36ac 37be ad8d 1b3e
000003a0: 71c9 243e a856 043d 463b dbbd 18d5 3bbc
000003b0: db21 3dbe becc 16be b687 863d 4abe 96be
000003c0: 5fb4 9ebd f7b8 f03d d9e9 553c 28cf 5e3d
000003d0: b014 afbd 10c3 233c 048a 23be c2c7 143d
000003e0: 3b2a 13bd 4f27 843b c9fc f2bc 5c4d 29bd
000003f0: a1d2 f0bd 43db 15bd f5fa 43be c412 a5bd
0.15979537 -0.02243605 -0.076893985 0.022984535 0.22647591 0.1725327 0.05070822 0.22558293
-0.032571252 0.10550643 -0.09050064 0.11017836 0.04646511 -0.16065726 -0.03607243 0.0012248101
-0.07729488 0.08179058 -0.30118874 -0.004521278 0.10143289 0.008824823 -0.25837004 0.117861144
-0.10296058 -0.056662116 -0.14412418 -0.10221578 -0.094480865 -0.13170302 -0.14427723 0.24674131
0.04305679 -0.047597963 -0.24384303 -0.3434379 0.26816672 0.041330528 -0.1426635 0.123537906
0.1369928 -0.16104338 0.21948728 -0.2277844 0.09451125 0.16623345 0.04390583 0.13269337
0.004234182 0.090746395 0.042275134 0.008084085 -0.14120848 0.039591137 -0.04821696 0.13419208
0.0071464935 -0.23101142 0.1287021 -0.18168253 0.18407534 -0.044975936 0.06277036 -0.053258367
0.029633008 -0.18456347 0.14560492 -0.16636348 -0.049982768 0.027155058 -0.1749433 0.14373033
0.4641637 0.11330564 -0.18201478 0.075990885 0.07715309 0.061500065 -0.23460747 -0.2064128
-0.03107301 0.20551093 -0.030221023 -0.10312506 -0.03723683 0.06611806 -0.20987335 -0.26618367
-0.13048263 0.07786703 0.045134842 0.26862314 0.2528463 0.01672872 0.23176832 0.054182075
0.12458268 0.18924834 -0.11121635 0.089990914 0.0043557542 -0.057650745 0.11291051 0.008292134
0.074137576 -0.17995144 0.020576613 -0.019418623 -0.1695761 0.07959435 0.11515687 -0.086183555
-0.09595393 0.16722015 0.10258347 0.042250387 0.13892221 -0.17696953 -0.221748 -0.033841845
-0.2593874 -0.17207609 -0.21149668 -0.007854457 -0.066725865 0.16564393 0.048087254 0.0009898825
0.02921746 -0.00079056417 0.038440764 -0.028771361 0.07840115 -0.20510483 0.19848846 0.04446087
0.094749704 -0.058749568 -0.09601787 0.06151522 -0.018092684 -0.084655486 -0.06073043 0.12978065
-0.020869711 0.056000646 -0.10980215 -0.09778071 -0.07597688 0.0005841576 -0.02442531 -0.015063213
-0.059589524 0.008902148 0.028697534 0.09465159 -0.08391213 0.064557694 -0.3578429 -0.18695845
0.08775946 -0.061610248 -0.062526114 -0.34717965 -0.0017911168 -0.14544319 0.09404856 -0.13401137
0.17594044 -0.06902119 0.19347356 0.040913723 0.09988824 0.03002011 0.090033755 -0.059561443
-0.033668935 -0.039604146 -0.047949053 0.049529225 0.05261388 0.10259754 -0.0071614543 0.14953111
0.01778833 -0.038920186 -0.052032124 -0.08554513 0.11646662 0.009953864 -0.031277273 -0.022653684
0.22203812 -0.21432088 -0.06509228 -0.10405257 0.13244312 0.052642222 -0.07402075 0.17008506
0.04439463 0.11904276 -0.22790189 0.08771832 -0.16436139 0.080698594 -0.0069403085 -0.1494423
-0.19418016 -0.10835109 -0.11024764 -0.08548507 0.058766495 0.044102777 0.08729257 -0.08288678
-0.08471129 -0.05164971 0.046793688 0.19992727 0.28403577 -0.026134724 -0.016564855 0.12047568
-0.08703446 0.080915906 -0.16199154 0.027199605 -0.12595563 -0.07282397 -0.17936787 0.15190764
0.16092469 0.032309204 -0.10704665 -0.01146438 -0.18469946 -0.1472654 0.065688536 -0.29442054
-0.07749247 0.11754029 0.013056242 0.05439678 -0.08548868 0.009995237 -0.15970618 0.036323316
-0.035928946 0.0040330063 -0.029661553 -0.04133354 -0.11758924 -0.036586057 -0.19138701 -0.0806022

lstm.bias_ih_l0_reverse f4 [512]
00000000: 6d78 9cbe 808b 4fbd 5589 85be cbc3 62bd
00000010: adcc 563e 5327 88be 2757 32be ffe0 33be
00000020: 8b65 14be 0178 803d ef4c 25be f7ae 03be
00000030: 6719 29be ecbe ccbd 90f8 18be 385e 4cbe
00000040: 4365 d7bd a5c6 38be 748d 10be 3324 86be
00000050: 643d 51be 3630 8cbe 7387 10be 68a7 34be
00000060: e0ee 20be caab 9ebe 17f6 60be 4a34 dbbd
00000070: 8e18 b0be a92a 9bbe 569c 74bd 9324 34be
00000080: 449f a3be 2dda 103b 5401 88be a1cc 4cbd
00000090: 3f62 703c 37a1 32be 684f b7bd 2b19 4cbd
000000a0: 8030 5ebd 2267 4ebe 015b d03d 4098 f93d
000000b0: 90f9 38be 0fa4 c6bc 7f2b 02be f463 28be
000000c0: 58fa 85be a623 4cbd fb35 e9bd c07f edbd
000000d0: 5506 22be 25db 90be 5fab 39be 2d54 22be
000000e0: b584 a4bd f780 d3bc 0724 3fbc 2907 e3bd
000000f0: 4613 47be 9a3c 12be 611d 07bc bd0d 28be
00000100: 391d 59bd 6b9b 8f3d 487d b5ba 0e6e f7bd
00000110: 0b25 64bd a8e9 a3be 5949 76be 6e52 2fbe
00000120: f24f 8d3d 7598 7abe 875c 4dbe c1a5 1ebe
00000130: 22b0 f93c c993 14be 2194 c4bd d1b7 6bbd
00000140: 1c6e 0d3d e91e 8ebc 9256 7abe ed8d f0bd
00000150: 079e e9bd aaa9 3ebe 69a7 5cbd 7416 babd
00000160: b3d6 49be a411 17be ac78 0fbe 6ec0 90bd
00000170: d802 03bd 7d1c 73be 78e7 bcbd 8cbe 66be
00000180: 4353 1b3d 7c6d 39be a773 8cbe ac6e 93bb
00000190: 001e a3bd 1638 31be fbd1 8fbd 92e9 3dbe
000001a0: b9b0 173e 6a87 eabd 3e0f 69be 88f5 69be
000001b0: 0944 54be 204e 9ebd ffcc 013d e49c 94be
000001c0: ab57 aebd f5d3 4fbc 236f f4bd de5d bfbc
000001d0: 241d 183d dae9 8bbd fd1a 0dbe 78d9 42be
000001e0: bc42 77be 683f 66be 883b 47bd 4454 13be
000001f0: 5e44 ab3d f4bb 29be f2b1 57bd 3f1f 03be
00000200: bffd d4bd 5bc2 15bd c3d9 b8bd 4cef 753b
00000210: 519a 453e 5fdd 0abe 6987 f0bd f5b2 67bc
00000220: eaf9 5ebd 2c83 15bd a07f 83bd b4e7 963d
00000230: b198 16bd 33e1 76bd 426b 133d b33c d7bd
00000240: 6cfc 40bd 57e8 9dbd db88 15be a384 bebd
00000250: 5279 b7bd c928 54bd 9ff6 ed3c 973c aebc
00000260: 3016 15bb eec4 64bd df83 03be b5da 97bd
00000270: c784 a3be 6396 4ebe 621e 9a3c 64f6 04be
00000280: 9d2d 34be d411 aa3c 9009 82be fbc9 803d
00000290: a6cd 0f3b 3058 3ebe 1b74 8e3b c538 543d
000002a0: 637e 14bd 82a4 253c a2de 013e afbf ba3d
000002b0: 7780 8fbd c0c3 bf3b cd7b 8ebc 469a 69bd
000002c0: 3344 8fbd 3c2d de3b f19a efbc b16a b1bd
000002d0: b426 9dbd b64c b9bc 4779 87be e09c 49bd
000002e0: 2a2f 47bc 961d 8ebb ba51 883b 609c b7bd
000002f0: 6f63 21bd 8261 5b3d 927c 40bd 2992 0d3c
00000300: 5a7c 363b d077 4cbc 0d05 493c cabc 643d
00000310: 37dc 5f3e 8ee8 3dbe 83e3 9bbd f5fc 91bc
00000320: 5cba df3d 31d5 6ebe cd21 01be 9552 14bc
00000330: c21e 2e3d 9ddb c13c f81b f5bb 3d3d 4a3d
00000340: 5958 913d 165c 50bd f64c 30be 32c8 46bc
00000350: 6f93 5b3d e701 a3bd e87d 8a3b 4d99 b53d
00000360: e9bb 19bd e5e1 c1bc fd06 9dbd 41f2 703d
00000370: a4f2 f83d ac9e 92bd 7d2b d43d 5695 89bc
00000380: df32 bd3d 0c82 9eba b92c d6bd c9af a23e
00000390: b904 603c ac1a 173d 1a62 903c c73b f4bd
000003a0: 2823 093e 7c40 95bc e2b4 83bd 2f3f 4ebd
000003b0: 4c46 35be 579c b03d 5ec6 23bd 9ee7 813d
000003c0: 0da8 debc da66 c7bc 6a9c 13bd 8f11 b5bb
000003d0: 0523 413d b3ed a3bd ef76 d1bd 69a3 9fbd
000003e0: dfc8 28be 3eb0 c9bd da51 68bb dc1e 6ebc
000003f0: 3d7a 7a3d 7a45 a2bd 162f f7bc 3abc adbd
-0.30560628 -0.050670147 -0.2608134 -0.055362504 0.20976515 -0.26592502 -0.17416058 -0.17566298
-0.1449186 0.06272889 -0.16142629 -0.12859713 -0.16513596 -0.09997353 -0.14938569 -0.19957817
-0.10517361 -0.18044527 -0.1411646 -0.26199493 -0.20433575 -0.27380532 -0.1411417 -0.17641985
-0.15716124 -0.3099044 -0.21968876 -0.10703333 -0.34393734 -0.30305985 -0.059719406 -0.17592077
-0.31957448 0.00221027 -0.26563513 -0.049999837 0.014671861 -0.17444311 -0.089506924 -0.04982869
-0.054245472 -0.2015653 0.101736076 0.121872425 -0.1806395 -0.024248151 -0.12711905 -0.16444379
-0.2616756 -0.049838684 -0.11387249 -0.11596632 -0.15822728 -0.28292194 -0.18131779 -0.15852423
-0.08033124 -0.025818331 -0.011666304 -0.1108535 -0.19440946 -0.1428093 -0.008246751 -0.1641149
-0.053006385 0.070120655 -0.0013846541 -0.12081538 -0.05569939 -0.32014203 -0.24051417 -0.17121288
0.06900014 -0.2447222 -0.20054828 -0.15492918 0.030479494 -0.145095 -0.09598566 -0.057548348
0.034528837 -0.017348723 -0.24447086 -0.1174582 -0.114070944 -0.18619409 -0.053870592 -0.09086314
-0.19710808 -0.14752823 -0.14010876 -0.07067953 -0.031985134 -0.23741336 -0.09223837 -0.22533625
0.0379212 -0.18108171 -0.27431986 -0.004499277 -0.079647064 -0.17306551 -0.070224725 -0.18546131
0.14813508 -0.114516094 -0.2275972 -0.22847569 -0.20729078 -0.07729745 0.03168964 -0.29025948
-0.08512815 -0.012684812 -0.1193526 -0.023360189 0.037137166 -0.06831713 -0.13779826 -0.1902827
-0.24146551 -0.22485125 -0.048640758 -0.14387614 0.083626494 -0.16575605 -0.052659936 -0.12804888
-0.10399961 -0.036562305 -0.0902591 0.0037526665 0.19297148 -0.13561009 -0.117445774 -0.014141788
-0.054437555 -0.03650205 -0.06420827 0.073684126 -0.03676671 -0.06027336 0.03599096 -0.10509624
-0.04711573 -0.07710331 -0.14602987 -0.09302642 -0.08958687 -0.05179671 0.029048262 -0.021269126
-0.002274882 -0.05585187 -0.12843274 -0.07414762 -0.3193724 -0.20174555 0.018813316 -0.12984616
-0.17595525 0.020760454 -0.2539792 0.06288525 0.0021942644 -0.18588328 0.004347337 0.051811952
-0.036253344 0.0101100225 0.12682584 0.09118592 -0.070069246 0.0058521926 -0.017393017 -0.057031892
-0.0699543 0.0067802947 -0.029248687 -0.08662928 -0.07673398 -0.022619586 -0.26459715 -0.049221873
-0.012157241 -0.004337023 0.004160133 -0.08965373 -0.039401468 0.053559788 -0.0469938 0.008640804
0.0027845115 -0.012479737 0.012269271 0.055844106 0.21861349 -0.18545744 -0.07611754 -0.017820815
0.10924217 -0.23323514 -0.1261055 -0.009052892 0.0425098 0.02366429 -0.007480141 0.049374808
0.07096929 -0.05086907 -0.17216858 -0.012132691 0.0536074 -0.07959347 0.004226435 0.088671304
-0.03753272 -0.023667285 -0.076673485 0.05882478 0.12155655 -0.071591705 0.10359857 -0.016794842
0.092382185 -0.00120932 -0.10457749 0.31774738 0.013673001 0.03689067 0.017624903 -0.11925464
0.13392317 -0.018219225 -0.06430985 -0.050353225 -0.17702597 0.086235695 -0.0399841 0.063430056
-0.027179742 -0.024341036 -0.03603784 -0.005525775 0.047152538 -0.08004322 -0.10227763 -0.0779484
-0.16482876 -0.09848069 -0.0035449178 -0.014533725 0.06115173 -0.07923408 -0.03017382 -0.08483167
