runs/lstm_centered/lstm_centered_javascript.pt (torch, 865955 bytes, 10 tensors)

emb.weight f4 [256, 64]
0.011656243 0.06044388 0.023408458 -0.1717373 0.13428889 0.14104751 0.18317878 0.047960244
0.14229257 0.070472956 -0.15150028 -0.010873672 -0.04293853 -0.0018722196 -0.11260896 -0.02613798
-0.027987903 -0.25557676 0.008584538 -0.13292551 -0.16844164 0.05667915 -0.0502724 0.06719736
-0.13010646 -0.07083825 -0.20002879 -0.0026393426 -0.038319856 -0.03903021 -0.033333343 0.08395449
-0.16227962 0.073077545 -0.044847123 -0.079895355 -0.15285338 0.14039505 -0.22065245 -0.17775343
0.023979675 0.18107744 0.09426426 0.11583855 -0.034363747 0.13756706 0.10006426 -0.039764635
-0.014292733 0.00010555231 -0.027237298 -0.017042669 0.1922692 0.22160994 -0.07681941 -0.0016802178
0.0010221336 -0.021573583 0.06812383 0.01479583 0.07354467 0.017396368 -0.047567844 -0.045836885
-0.048241556 0.07937136 -0.002154624 0.102659725 -0.11710946 0.017168386 0.034167383 -0.03733584
-0.027728291 0.08091938 0.040881656 -0.06940042 -0.106489144 -0.010581762 0.01315513 -0.03598336
-0.022028647 0.10018857 0.09695216 0.060876425 -0.07403735 0.03103107 -0.10787912 0.049166568
0.070843644 -0.11373809 0.05103333 0.05720271 0.03579698 -0.10909921 0.029137963 -0.07330699
0.11737563 0.016229121 0.09039851 0.13663147 0.12346297 0.05845842 0.11258951 0.08356372
-0.057670735 -0.09283409 -0.07831377 -0.014191045 -0.016651195 0.080165386 -0.061864905 -0.012369876
0.00763302 -0.042431824 -0.081505634 0.011544385 0.077855706 0.016937083 0.0847139 -0.124242954
-0.02180748 -0.057569254 0.13332762 0.12248606 -0.11040829 0.05614515 -0.027383622 -0.06698107
-0.068837576 -0.06251949 -0.07625794 -0.08080074 0.104628064 -0.018186314 -0.018870672 -0.07905639
-0.035959188 0.13238773 0.048503447 -0.05008871 -0.10243107 0.087626144 0.09355857 -0.056061313
0.0059958803 -0.089670636 0.019579353 -0.008215178 0.11709335 -0.035787236 0.051634356 -0.13565765
-0.077799 -0.08675761 0.06520748 0.084236 -0.07735108 0.06265812 0.08127637 -0.085347556
0.13407357 -0.031785667 -0.07456375 0.124292985 -0.011393638 -0.005574443 -0.13163601 -0.02905308
0.13543881 0.096599296 -0.031060958 0.005283625 0.010296739 0.08645962 0.013386596 -0.07658675
0.053705014 0.018034702 0.12323699 -0.00692114 0.044244017 -0.12996215 0.04561969 -0.034761965
-0.12608013 -0.10952987 -0.09928719 0.078263134 -0.11824885 0.08515811 -0.042501137 -0.101107575
-0.034395617 -0.12926047 0.06852727 -0.059917815 0.03690183 0.060225204 0.026585734 0.08313471
0.04944635 0.005170161 -0.05907649 0.080969766 0.027521996 0.13399106 0.04713677 0.098251
0.041654717 0.08844058 -0.069620565 -0.11853978 0.0060883523 -0.053754818 -0.12668656 -0.071195364
0.029577242 0.10740843 0.12058383 0.09478487 -0.03772099 0.08523429 0.07405669 0.030337423
0.07784568 -0.032388523 0.011291177 -0.03859124 0.12572482 -0.12702374 0.05919673 -0.052053984
0.10488284 0.11382388 -0.00012382935 -0.10161396 -0.08320999 0.07274027 0.06556307 -0.008605879
0.0713908 -0.018565767 0.07750681 0.13474977 -0.10230294 0.12779145 -0.011437516 0.019685276
0.06728137 -0.009957668 -0.0064841625 0.09058249 0.08933801 -0.017314367 0.009086962 -0.006193916
00000000: d4f9 3e3c 0094 773d 18c3 bf3c e7db 2fbe
00000010: 0783 093e c26e 103e 3893 3b3e f671 443d
00000020: 25b5 113e 2054 903d e422 1bbe 7c27 32bc
00000030: 50e0 2fbd 4465 f5ba 879f e6bd 511f d6bc
00000040: e346 e5bc f5da 82be 29a6 0c3c a01d 08be
00000050: f77b 2cbe 6528 683d 6fea 4dbd c59e 893d
00000060: a13a 05be a513 91bd 59d4 4cbe d2f8 2cbb
00000070: 48f5 1cbd 24de 1fbd 8b88 08bd 55f0 ab3d
00000080: a12c 26be aea9 953d 9eb1 37bd 2da0 a3bd
00000090: 9985 1cbe b8c3 0f3e b7f2 61be ff04 36be
000000a0: 0671 c43c 5d6c 393e 9f0d c13d c33c ed3d
000000b0: 00c1 0cbd 61de 0c3e 7eee cc3d 3ee0 22bd
000000c0: 112c 6abc f75b dd38 c120 dfbc 119d 8bbc
000000d0: 38e2 443e b7ed 623e 7f53 9dbd c13a dcba
000000e0: 1df9 853a 15bb b0bc 8284 8b3d 356a 723c
000000f0: 979e 963d d482 8e3c 80d6 42bd 75bf 3bbd
00000100: f098 45bd 748d a23d 9834 0dbb 433f d23d
00000110: 16d7 efbd b7a4 8c3c 19f3 0b3d 77ed 18bd
00000120: 7126 e3bc 0fb9 a53d 8673 273d cf21 8ebd
00000130: fb16 dabd 205f 2dbc 9d88 573c 4a63 13bd
00000140: 6c75 b4bc aa2f cd3d db8e c63d 8f59 793d
00000150: e5a0 97bd df34 fe3c baef dcbd e262 493d
00000160: 7916 913d 84ef e8bd 5308 513d 644d 6a3d
00000170: db9f 123d 686f dfbd bdb2 ee3c fa21 96bd
00000180: a262 f03d eff2 843c db22 b93d 1fe9 0b3e
00000190: 27da fc3d 1972 6f3d 5495 e63d 7523 ab3d
000001a0: 2638 6cbd cd1f bebd f862 a0bd 8f81 68bc
000001b0: 1668 88bc c02d a43d 0e66 7dbd 05ab 4abc
000001c0: 6a1e fa3b fecc 2dbd 6dec a6bd a924 3d3c
000001d0: d072 9f3d a3bf 8a3c 7b7e ad3d 1773 febd
000001e0: 9aa5 b2bc bdcd 6bbd 0987 083e f9d9 fa3d
000001f0: be1d e2bd 75f8 653d 9e53 e0bc 5f2d 89bd
00000200: b7fa 8cbd 380a 80bd 1f2d 9cbd dc7a a5bd
00000210: 3d47 d63d 77fb 94bc ab96 9abc 51e8 a1bd
00000220: f149 13bd a690 073e 8dab 463d d229 4dbd
00000230: 61c7 d1bd 5675 b33d a39b bf3d 8ca0 65bd
00000240: 1779 c43b 3da5 b7bd e164 a03c f498 06bc
00000250: a3ce ef3d a395 12bd 8c7e 533d d7e9 0abe
00000260: 1555 9fbd f9ad b1bd 808b 853d ed83 ac3d
00000270: 3e6a 9ebd e752 803d 3a74 a63d b3ca aebd
00000280: 954a 093e b031 02bd e1b4 98bd 528d fe3d
00000290: 62ac 3abc d1a9 b6bb 97cb 06be ba00 eebc
000002a0: 79b0 0a3e dad5 c53d 8d73 febc 4222 ad3b
000002b0: a7b3 283c be11 b13d 7453 5b3c 84d9 9cbd
000002c0: caf9 5b3d 83bd 933c ad63 fc3d bbca e2bb
000002d0: 3739 353d cc14 05be b6db 3a3d 9062 0ebd
000002e0: 261b 01be 3251 e0bd 1557 cbbd 6c48 a03d
000002f0: 742c f2bd 6067 ae3d ac15 2ebd 7d11 cfbd
00000300: 6be2 0cbd db5c 04be 0658 8c3d 626c 75bd
00000310: 6026 173d b4ae 763d 53ca d93c 8842 aa3d
00000320: 4288 4a3d 746a a93b 31fa 71bd 7ad3 a53d
00000330: cf75 e13c f434 093e 7c12 413d d237 c93d
00000340: 239e 2a3d 5620 b53d 3a95 8ebd fcc4 f2bd
00000350: cd80 c73b 032e 5cbd 1fba 01be e0ce 91bd
00000360: f94b f23c f3f8 db3d a8f4 f63d 921e c23d
00000370: 5381 1abd 518f ae3d 09ab 973d 3086 f83c
00000380: 8e6d 9f3d d4a9 04bd a1fe 383c d911 1ebd
00000390: 02be 003e 8312 02be 4578 723d 8f36 55bd
000003a0: d0cc d63d 7f1c e93d 30d8 01b9 fb1a d0bd
000003b0: 006a aabd daf8 943d ee45 863d acff 0cbc
000003c0: 5735 923d 3c17 98bc e4bb 9e3d d8fb 093e
000003d0: 3484 d1bd c3db 023e 6b64 3bbc 0443 a13c
000003e0: d1ca 893d 7d25 23bc 1979 d4bb 5083 b93d
000003f0: d9f6 b63d dcd6 8dbc 7be1 143c 55f6 cabb

lstm.weight_ih_l0 f4 [512, 64]
0.05034277 -0.07588694 -0.15806657 0.13396843 0.227848 -0.14958455 -0.11369385 -0.24815908
-0.113014646 0.045351025 -0.034053594 -0.043468237 0.41869253 0.10284374 -0.11540792 0.16373746
-0.07473518 -0.12366553 -0.19225994 0.09083327 0.30074877 0.053596295 0.018052086 0.10766946
-0.17018948 0.01006149 0.15405145 -0.059494495 -0.2176212 0.050138988 0.15870164 0.1292505
0.04771496 -0.23560587 0.023590822 -0.24554834 -0.1725993 -0.117781214 0.10219985 -0.0032523072
-0.18485232 0.06576503 0.032314043 0.0016948374 0.18315838 0.15654443 -0.15039694 -0.04983015
0.15321344 -0.060536828 0.07251808 0.06388698 0.05754731 -0.16747372 -0.057137806 -0.08769667
0.11034007 0.24447154 0.16753839 -0.03257394 0.076350406 -0.00071928906 -0.12678668 0.16151845
-0.040243424 -0.21383832 -0.16817454 -0.054191697 0.109556824 0.0007443935 -0.03103422 0.002644499
-0.05403939 -0.10252318 0.08638132 0.08468982 0.14327589 -0.042733382 -0.008667012 0.024523012
0.076815665 -0.02805085 -0.17004558 -0.036870953 0.08589352 0.076578245 0.0317277 0.14820653
-0.027578386 0.18756796 0.11526825 0.0005693248 -0.013489442 0.07683706 0.066321075 -0.081491075
0.056256894 -0.16897094 0.07375432 0.0067207497 -0.19862796 -0.054069363 0.016029062 -0.06781546
-0.055415314 -0.07579012 0.12872165 -0.070904166 0.031672526 0.010886639 0.005298012 -0.032213625
0.05994298 0.020476328 0.092924684 -0.08301096 0.037817158 -0.19102511 -0.11076274 -0.18273196
0.23580937 0.17054932 0.12379619 -0.05280806 -0.11905164 -0.03157621 -0.011065089 0.20350853
0.056551803 -0.013110042 -0.16568844 -0.18144365 0.024326088 0.225129 -0.1354099 0.027951922
0.03791187 0.05788375 -0.047867708 0.115536965 -0.12831469 0.11323814 0.05705451 0.028276946
-0.0261057 -0.01718684 -0.052553937 -0.0038255544 -0.13152456 -0.14621827 -0.08849434 0.040696777
-0.0792225 -0.054271545 0.04232839 0.00025409737 0.04477366 0.05760682 -0.12016126 0.12837839
0.061171815 -0.09017349 -0.033576686 -0.0046784305 0.055889368 0.026426991 0.046363693 -0.12589568
-0.021318274 -0.10708699 -0.15297487 -0.24084634 -0.005500961 -0.1909341 -0.06692631 -0.12912604
-0.01636038 0.17419103 -0.00014190089 -0.08041549 -0.040818255 0.018088477 -0.09619761 -0.21884523
0.04360635 0.007573958 0.07303422 -0.13696782 0.05875604 -0.03903735 -0.025214054 0.16688508
-0.21363612 -0.02695916 0.09664778 -0.06694442 0.06863261 -0.019891549 -0.0664606 0.19439304
-0.038015075 -0.10407718 -0.10993998 -0.035450183 -0.015428498 -0.026365548 -0.05223636 0.13552552
0.07490365 -0.04355095 0.044205364 0.05930107 -0.013188587 -0.03139416 0.007564117 0.015159078
0.12878278 -0.044017527 -0.13710319 -0.10699765 0.056728322 -0.1696233 0.063139156 -0.074945435
0.015014397 0.10442997 0.0023704988 -0.14905463 0.02570801 0.02804164 -0.14504877 -0.02477271
0.03693028 -0.08475226 -0.011222154 -0.028782975 -0.12357263 -0.1843191 0.06731811 0.13335988
-0.05348658 -0.037051685 0.048148714 0.12720546 0.08808001 0.074273586 0.0045097205 -0.066381514
0.012584511 -0.015259511 -0.08531844 -0.09141925 -0.035680935 -0.06979876 -0.091506824 0.037515413
00000000: 3834 4e3d 9d6a 9bbd 34dc 21be 052f 093e
00000010: fc50 693e b12c 19be 52d8 e8bd 6a1d 7ebe
00000020: 3974 e7bd ffc1 393d c87b 0bbd c00b 32bd
00000030: de5e d63e bd9f d23d fd5a ecbd cbaa 273e
00000040: c20e 99bd 5a44 fdbd cadf 44be cb06 ba3d
00000050: befb 993e ca87 5b3d f8e1 933c ce81 dc3d
00000060: 2746 2ebe f3d8 243c aabf 1d3e 80b0 73bd
00000070: 18d8 5ebe 8a5e 4d3d af82 223e 3e5a 043e
00000080: c370 433d aa42 71be 8a41 c13c 0671 7bbe
00000090: dfbd 30be 4737 f1bd 284e d13d a924 55bb
000000a0: ed49 3dbe d1af 863d bb5b 043d 4e25 de3a
000000b0: df8d 3b3e 2f4d 203e a801 1abe b31a 4cbd
000000c0: fce3 1c3e 77f5 77bd 5c84 943d 2dd7 823d
000000d0: bab6 6b3d 3b7e 2bbe 5509 6abd 509a b3bd
000000e0: faf9 e13d bf56 7a3e 2f8f 2b3e 406c 05bd
000000f0: 9a5d 9c3d ac8e 3cba 5ed4 01be 1865 253e
00000100: 4ad6 24bd 6ff8 5abe f235 2cbe 1df8 5dbd
00000110: 545f e03d 6723 433a 7a3b febc 554f 2d3b
00000120: 6858 5dbd acf7 d1bd b1e8 b03d db71 ad3d
00000130: eab6 123e 3309 2fbd 1500 0ebc 7ce4 c83c
00000140: 8851 9d3d e5ca e5bc 6e20 2ebe ff05 17bd
00000150: f1e8 af3d 0ed5 9c3d e8f4 013d 74c3 173e
00000160: 11ec e1bc d111 403e c311 ec3d be3e 153a
00000170: d202 5dbc c05c 9d3d 58d3 873d cbe4 a6bd
00000180: a16d 663d b806 2dbe 810c 973d bc39 dc3b
00000190: 2165 4bbe d677 5dbd 614f 833c d5e2 8abd
000001a0: 2bfb 62bd da37 9bbd 9ccf 033e 3436 91bd
000001b0: 0dbb 013d e05d 323c f29a ad3b 6ff2 03bd
000001c0: c586 753d f9bd a73c 4c4f be3d a601 aabd
000001d0: 2ae6 1a3d 169c 43be 93d7 e2bd 161e 3bbe
000001e0: 0378 713e 7ba4 2e3e db88 fd3d 444d 58bd
000001f0: 59d1 f3bd 0e56 01bd 594a 35bc 8a64 503e
00000200: dda2 673d 80cb 56bc 3baa 29be 5dcc 39be
00000210: 8147 c73c 3788 663e e5a8 0abe 6efb e43c
00000220: 7a49 1b3d 8317 6d3d ee10 44bd a59e ec3d
00000230: ed64 03be 66e9 e73d fdb1 693d 0ea5 e73c
00000240: 9fdb d5bc 6acb 8cbc cc42 57bd 27b6 7abb
00000250: 60ae 06be 3eba 15be 853c b5bd aab1 263d
00000260: 683f a2bd d74b 5ebd 8960 2d3d 5f38 8539
00000270: 9664 373d 21f5 6b3d 1b17 f6bd a075 033e
00000280: 4c8f 7a3d e1ac b8bd b587 09bd 854d 99bb
00000290: 40ec 643d 6b7d d83c dbe7 3d3d ccea 00be
000002a0: a9a3 aebc 6c50 dbbd 72a5 1cbe 6ca0 76be
000002b0: 6841 b4bb 3b84 43be a910 89bd 9e39 04be
000002c0: 3406 86bc 225f 323e 3bcb 14b9 e0b0 a4bd
000002d0: 0b31 27bd 492e 943c 4103 c5bd f718 60be
000002e0: 929c 323d f72e f83b f792 953d 4b41 0cbe
000002f0: 2caa 703d a1e5 1fbd b48d cebc ece3 2a3e
00000300: 6dc3 5abe 75d9 dcbc 45ef c53d 281a 89bd
00000310: 418f 8c3d 9af3 a2bc 7f1c 88bd f80e 473e
00000320: b2b5 1bbd 6b26 d5bd 3628 e1bd 3634 11bd
00000330: d0c7 7cbc 90fc d7bc cbf5 55bd 34c7 0a3e
00000340: 1667 993d 7b62 32bd af10 353d aee5 723d
00000350: f114 58bc 2a97 00bd 6adc f73b c85d 783c
00000360: a2df 033e b94b 34bd c764 0cbe 9521 dbbd
00000370: f55b 683d bbb1 2dbe 1a4f 813d fe7c 99bd
00000380: f2fe 753c 61df d53d 5f5a 1b3b c7a1 18be
00000390: 9b99 d23c 95b7 e53c aa87 14be 23f0 cabc
000003a0: 3544 173d 9892 adbd 20dd 37bc 46ca ebbc
000003b0: a613 fdbd 25be 3cbe 14de 893d 7e8f 083e
000003c0: be14 5bbd 82c3 17bd 9637 453d 2642 023e
000003d0: 4b63 b43d c01c 983d 47c6 933b 08f3 87bd
000003e0: 442f 4e3c 0703 7abc 6fbb aebd 043a bbbd
000003f0: 2c26 12bd a7f2 8ebd ee67 bbbd c3a9 193d

lstm.weight_hh_l0 f4 [512, 128]
0.023576701 -0.03673996 0.05234702 -0.031064564 0.017080303 -0.009851866 -0.16475835 0.14589272
-0.0062168986 0.090314895 -0.042091362 0.015721284 -0.12175931 0.08644412 -0.053147715 -0.016922895
0.038091976 0.047363054 -0.038389254 0.043491535 -0.0035490766 -0.030826261 0.0007899951 -0.033420697
-0.11233213 0.06598146 0.038549736 -0.017826803 -0.106638156 0.020202274 0.120208226 0.01487983
0.011862288 -0.03725785 -0.04741111 0.11207356 -0.044835832 -0.042739186 -0.16725285 -0.0761784
-0.030968148 0.032508858 -0.12742274 -0.033255585 0.077681124 0.08838174 -0.051434483 0.12500279
-0.014783567 0.01656459 0.042508736 0.023615016 0.06686085 0.086035125 0.002037051 -0.11628474
0.014045083 -0.06445668 0.14836559 0.07222997 0.015593876 -0.060211163 0.04848765 0.14929734
0.13454336 -0.038175173 0.008118146 -0.12597539 0.13061157 -0.023520982 -0.034920085 -0.08130867
-0.12911756 -0.12897754 -0.0900132 -0.06539173 -0.05513876 0.06854232 -0.05796724 0.08211513
-0.20028983 -0.22845629 -0.03383484 0.0044476283 -0.01948554 -0.051774953 -0.0010885985 -0.17187671
0.104676776 0.10966228 0.055037815 -0.00548697 0.06793952 0.1265275 0.0688379 -0.2062319
0.069163986 -0.023452286 0.085195035 -0.039179627 -0.22819322 0.013235679 0.16939385 -0.058961935
-0.129319 0.030491563 0.096172884 0.055985026 -0.030152839 0.0172008 0.106627636 -0.115219176
-0.09644696 0.12658642 -0.038435794 0.118968 0.016013904 -0.26399848 0.091713734 -0.17282069
-0.10290996 -0.0794509 0.16930832 -0.12122328 -0.108977325 -0.017244086 0.04845565 0.055439882
0.08944614 0.011338743 0.2244488 0.006584233 0.14324972 0.0699236 -0.0012798351 -0.09336211
0.0062577715 -0.021696627 -0.059174027 -0.31485486 -0.0866895 -0.0070225843 -0.18844424 -0.04353842
-0.10905718 0.022049671 -0.039744638 0.032640636 0.1321371 0.020806175 -0.35606962 0.07694205
-0.049615093 0.0045255134 0.048212763 -0.012899547 -0.12219255 -0.061677396 0.15936568 0.1161696
0.015430653 0.09239897 -0.17789629 0.068397604 -0.0579213 0.14505112 -0.15733254 0.08430752
0.14694 -0.039931253 -0.12699856 0.22459485 0.1709207 0.0741951 0.27712634 -0.41692877
0.024775086 0.028121693 0.14514971 0.04425671 0.15783568 0.03107728 0.1761637 -0.089367285
0.030704502 0.043439247 0.2860249 0.09062261 -0.004745306 0.027792595 0.044220172 -0.021772522
0.21804962 -0.117197 0.20294216 0.12498735 0.03374673 -0.10452003 -0.117166765 0.0050698793
0.21575533 -0.014856796 0.10917389 0.16040869 -0.0560804 0.19645575 0.14485641 -0.021397129
-0.0055477577 0.22618309 0.23194224 0.09414048 -0.11665709 0.061134536 -0.0012624066 -0.21081394
-0.038458645 -0.051421374 -0.042587236 0.17564707 -0.034884438 0.07216004 -0.053452484 -0.005854937
-0.08621685 -0.09196314 -0.072274454 0.0007913922 0.053202555 0.052653693 -0.06516636 0.01114436
-0.00028361147 -0.04973613 0.11212038 -0.014325459 0.17738585 -0.009979504 -0.09205293 -0.087383725
0.03483215 0.03743244 0.06821632 -0.14143042 -0.18219472 0.029747788 -0.10563941 -0.09348052
-0.051683757 -0.051093295 0.09443064 -0.04912998 -0.07333925 -0.030430237 -0.006611921 -0.06693077
00000000: ed23 c13c a47c 16bd d469 563d 1d7b febc
00000010: feeb 8b3c b969 21bc 6ab6 28be e764 153e
00000020: 20b7 cbbb 04f7 b83d fe67 2cbd ecc9 803c
00000030: f25c f9bd 9d09 b13d 6bb1 59bd e2a1 8abc
00000040: 5506 1c3d c3ff 413d 0d3e 1dbd 2e24 323d
00000050: a097 68bb 5b87 fcbc ac17 4f3a 24e4 08bd
00000060: 630e e6bd 4a21 873d 54e6 1d3d 8409 92bc
00000070: 1b65 dabd 3d7f a53c bb2f f63d 88ca 733c
00000080: 0b5a 423c b09b 18bd 2732 42bd d386 e53d
00000090: c7a5 37bd 490f 2fbd 5544 2bbe 6c03 9cbd
000000a0: eab0 fdbc 0228 053d 1b7b 02be 0237 08bd
000000b0: 4817 9f3d 7c01 b53d f7ac 52bd bb00 003e
000000c0: c636 72bc 77b2 873c a41d 2e3d 4774 c13c
000000d0: 57ee 883d 2f33 b03d 0b80 053b b226 eebd
000000e0: 591d 663c dd01 84bd 26ed 173e 4eed 933d
000000f0: 757d 7f3c fb9f 76bd fc9a 463d 67e1 183e
00000100: bcc5 093e 925d 1cbd f901 053c b1ff 00be
00000110: 0abf 053e 13af c0bc 5d08 0fbd 2985 a6bd
00000120: 6537 04be b012 04be d758 b8bd 19ec 85bd
00000130: 2ed9 61bd ea5f 8c3d 0f6f 6dbd fa2b a83d
00000140: c718 4dbe 72f0 69be 6796 0abd 69bd 913b
00000150: 24a0 9fbc f911 54bd 4eaf 8eba 7300 30be
00000160: c760 d63d 9e96 e03d 556f 613d 0acc b3bb
00000170: e023 8b3d 6d90 013e e3fa 8c3d 752e 53be
00000180: d9a5 8d3d 021f c0bc bc7a ae3d d17a 20bd
00000190: 7cab 69be 76da 583c 9575 2d3e 1282 71bd
000001a0: 336c 04be 71c9 f93c 4af6 c43d 8e50 653d
000001b0: 1603 f7bc b1e8 8c3c 975f da3d 08f8 ebbd
000001c0: fc85 c5bd df9f 013e da6e 1dbd 7fa5 f33d
000001d0: 972f 833c cf2a 87be 69d4 bb3d e8f7 30be
000001e0: 75c2 d2bd 27b7 a2bd 295f 2d3e e943 f8bd
000001f0: 812f dfbd 7843 8dbc 6f79 463d ee14 633d
00000200: 8a2f b73d 23c6 393c e8d5 653e 8dc0 d73b
00000210: 0eb0 123e 1b34 8f3d 24c0 a7ba a234 bfbd
00000220: fe0d cd3b 20bd b1bc 7760 72bd a834 a1be
00000230: 448a b1bd b51d e6bb 87f7 40be 5855 32bd
00000240: 5f59 dfbd 83a1 b43c 46cb 22bd 30b2 053d
00000250: f34e 073e b671 aa3c c24e b6be cb93 9d3d
00000260: 3239 4bbd c24a 943b bf7a 453d 9f58 53bc
00000270: 1640 fabd 70a1 7cbd c230 233e 54ea ed3d
00000280: d9d0 7c3c ac3b bd3d 722a 36be 0b14 8c3d
00000290: e33e 6dbd 4888 143e c81b 21be 6ca9 ac3d
000002a0: 7077 163e f48e 23bd e90b 02be 31fc 653e
000002b0: d605 2f3e 9af3 973d 81e3 8d3e b077 d5be
000002c0: 1ff5 ca3c 775f e63c 20a2 143e 8646 353d
000002d0: ad9f 213e c895 fe3c 4264 343e 3206 b7bd
000002e0: 0288 fb3c 5aed 313d db71 923e 5998 b93d
000002f0: 837e 9bbb 4cad e33c 3620 353d 4a5c b2bc
00000300: 6648 5f3e fb04 f0bd 12d0 4f3e 5ef9 ff3d
00000310: 033a 0a3d 990e d6bd 21f5 efbd 3b21 a63b
00000320: f7ee 5c3e eb69 73bc 8f96 df3d 2d42 243e
00000330: 90b4 65bd b22b 493e 3d55 143e 0849 afbc
00000340: f7c9 b5bb 8a9c 673e 4482 6d3e b9cc c03d
00000350: eae9 eebd 3568 7a3d 5677 a5ba 9cdf 57be
00000360: d086 1dbd 389f 52bd f46f 2ebd d3dc 333e
00000370: fce2 0ebd a5c8 933d fef0 5abd c5da bfbb
00000380: 7692 b0bd 2c57 bcbd a104 94bd 6e75 4f3a
00000390: ecea 593d 66ab 573d f175 85bd d596 363c
000003a0: b0b1 94b9 1db8 4bbd 5f9f e53d 54b5 6abc
000003b0: a3a4 353e 1381 23bc 3f86 bcbd 3df6 b2bd
000003c0: 28ac 0e3d c252 193d ffb4 8b3d 23d3 10be
000003d0: 4191 3abe a2b1 f33c 7a59 d8bd b772 bfbd
000003e0: 59b2 53bd 3447 51bd da64 c13d 853c 49bd
000003f0: e432 96bd d548 f9bc d0a8 d8bb 0013 89bd

lstm.bias_ih_l0 f4 [512]
0.026922083 -0.06228153 -0.07399268 -0.11730749 -0.05057844 -0.068760276 -0.055829905 -0.09916431
-0.011211423 -0.14981176 -0.057124466 -0.081318244 0.03420695 0.028530305 -0.020711157 -0.1708949
-0.010729283 -0.028280482 0.001545285 -0.11488727 -0.11161752 -0.0853246 -0.046076566 -0.014843039
-0.06253483 -0.036743343 -0.076999396 -0.001959427 -0.044729006 0.0017225178 -0.008940403 -0.14918749
-0.051631257 -0.04921684 -0.05579487 -0.012851567 -0.0064465823 -0.050100166 -0.06838153 -0.028137492
-0.06637933 -0.07112402 0.018238869 -0.06461298 -0.032859147 -0.055007853 -0.111748375 -0.045073986
-0.1711384 -0.01568814 -0.07627268 -0.07126978 -0.09559943 0.025482796 -0.13688065 -0.08794379
-0.00081878214 -0.031081932 -0.14626423 0.011562225 -0.03892215 -0.0045613497 0.024637602 0.02195618
0.03581953 -0.005867586 -0.061864242 -0.018666498 -0.059805498 0.023498667 0.022788059 -0.015937284
-0.09465933 -0.035325184 -0.12058952 -0.07654878 -0.027511744 -0.04826205 -0.086608686 -0.013044468
-0.037855573 -0.009755618 -0.025616594 -0.009730605 0.016554307 -0.11728177 -0.08033584 -0.039618276
-0.1126628 -0.10821832 -0.03475512 -0.08972967 -0.010893397 -0.033197027 -0.024783337 -0.08898708
-0.05494311 -0.1349123 -0.13664642 -0.042316247 -0.12832105 -0.18963604 -0.12140556 -0.141662
-0.13411598 0.0057140864 -0.0675618 -0.010156732 -0.009856415 -0.09072456 -0.060708474 -0.060622446
0.03466068 -0.043030903 0.010545596 -0.015568059 -0.04138889 -0.0029291022 0.023530059 -0.08045356
-0.09321468 -0.07368439 0.024377836 -0.046506573 -0.10092153 -0.051266894 0.029064737 0.073667206
0.050517485 -0.054213885 -0.04549779 -0.10258178 0.042730343 -0.044091668 -0.040731464 -0.117312126
-0.00743273 -0.13930467 -0.16347602 -0.06488271 0.04148994 0.026515726 0.00016418149 -0.12952843
0.027373148 -0.029815761 0.027530722 -0.0729744 -0.024261536 -0.13337536 -0.018350085 -0.00034927955
-0.032620803 -0.02502351 -0.03152309 -0.051457074 -0.0152358785 -0.043204166 0.064594865 -0.074043356
-0.06682485 -0.036325023 -0.04233368 0.019765543 -0.008567081 -0.033208463 0.009492802 -0.067457736
-0.022931676 -0.046205394 -0.038068358 -0.02038512 0.03921715 0.050667584 -0.0639009 0.0373308
-0.042932745 -0.017848885 -0.04923727 -0.080653116 -0.0057908027 -0.028055592 -0.14865674 -0.06736534
0.030759888 -0.051146917 -0.1255265 0.023201622 -0.045185212 0.0383264 0.017175386 0.06245091
-0.035196293 -0.020141661 -0.08396101 -0.051593073 -0.1694609 0.053848337 0.055265076 -0.020538656
-0.018209998 -0.09509562 -0.041264486 -0.015542851 -0.034432843 0.0143441865 -0.034773797 -0.05506466
-0.08951119 -0.016973868 0.012415137 0.009883947 0.036311835 -0.03202004 -0.00580643 -0.04528997
-0.03707978 -0.06525045 -0.046155762 0.020554114 -0.0140743265 0.089020476 0.02309836 -0.06110317
-0.047533225 -0.030476304 -0.09730384 0.01226245 -0.12517859 -0.0859296 -0.08313296 -0.054245934
-0.119267784 0.019995827 -0.06442018 -0.04534188 0.0009292002 -0.041900534 0.11257812 -0.036466792
0.088922106 -0.13961862 -0.03533322 0.020601269 -0.024506534 -0.02003248 0.046909917 -0.09206101
-0.13779669 -0.10373245 -0.025972424 -0.06840588 -0.050944943 -0.06529109 0.0026799492 0.16365899
00000000: b38b dc3c eb1a 7fbd 7989 97bd e93e f0bd
00000010: 572b 4fbd 30d2 8cbd e6ad 64bd a816 cbbd
00000020: 1eb0 37bc 4168 19be 58fb 69bd 2e8a a6bd
00000030: 961c 0c3d 63b8 e93c 72aa a9bc 13ff 2ebe
00000040: e0c9 2fbc 78ac e7bc 298b ca3a 044a ebbd
00000050: ba97 e4bd aabe aebd c8ba 3cbd 3830 73bc
00000060: 4312 80bd 3080 16bd dcb1 9dbd bb69 00bb
00000070: c335 37bd 1bc6 e13a c57a 12bc 9bc4 18be
00000080: 4c7b 53bd 9997 49bd 2989 64bd 618f 52bc
00000090: da3d d3bb d535 4dbd 9e0b 8cbd 9980 e6bc
000000a0: e3f1 87bd 78a9 91bd ae69 953c cf53 84bd
000000b0: 5097 06bd ea4f 61bd 55dc e4bd 809f 38bd
000000c0: e83e 2fbe 6a84 80bc da34 9cbd e4f5 91bd
000000d0: a2c9 c3bd 4cc1 d03c 712a 0cbe e01b b4bd
000000e0: 8aa3 56ba 899f febc 4ac6 15be 7d6f 3d3c
000000f0: d56c 1fbd 6077 95bb ccd4 c93c 72dd b33c
00000100: 80b7 123d e144 c0bb 5c65 7dbd 7cea 98bc
00000110: 9cf6 74bd 4780 c03c 06ae ba3c e88e 82bc
00000120: c0dc c1bd 24b1 10bd a3f7 f6bd 9bc5 9cbd
00000130: 4f60 e1bc 6dae 45bd e55f b1bd 77b8 55bc
00000140: 720e 1bbd 07d6 1fbc e4d9 d1bc 1e6d 1fbc
00000150: e69c 873c 6d31 f0bd 1e87 a4bd c646 22bd
00000160: c1bb e6bd 91a1 ddbd 625b 0ebd 30c4 b7bd
00000170: 387a 32bc 9bf9 07bd 6d06 cbbc dc3e b6bd
00000180: 070c 61bd 7326 0abe 0aed 0bbe cd53 2dbd
00000190: 9866 03be f32f 42be 7aa3 f8bd d80f 11be
000001a0: b355 09be 3b3d bb3b d75d 8abd 6c68 26bc
000001b0: cd7c 21bc cccd b9bd 73a9 78bd 3e4f 78bd
000001c0: 5bf8 0d3d 2c41 30bd 6fc7 2c3c 2c11 7fbc
000001d0: 6687 29bd 2ef6 3fbb 1cc2 c03c d6c4 a4bd
000001e0: 57e7 bebd d7e7 96bd 07b4 c73c ad7d 3ebd
000001f0: f2af cebd 3cfd 51bd 2c19 ee3c d5de 963d
00000200: 6ceb 4e3d 610f 5ebd e45b 3abd 6516 d2bd
00000210: 0306 2f3d 7799 34bd 09d6 26bd 5741 f0bd
00000220: 428e f3bb e2a5 0ebe 4266 27be 3ae1 84bd
00000230: 5bf1 293d 8237 d93c 2228 2c39 1aa3 04be
00000240: a73d e03c 2f40 f4bc 1c88 e13c 9a73 95bd
00000250: 21c0 c6bc 8d93 08be eb52 96bc 821f b7b9
00000260: 649d 05bd 1bfe ccbc 5b1e 01bd a7c4 52bd
00000270: e89f 79bc daf6 30bd 504a 843d 0ba4 97bd
00000280: 78db 88bd 8cc9 14bd 1566 2dbd 59eb a13c
00000290: f15c 0cbc 9905 08bd b387 1b3c 4827 8abd
000002a0: 36db bbbc de41 3dbd 91ed 1bbd b2fe a6bc
000002b0: 2aa2 203d d088 4f3d 7ade 82bd 2ee8 183d
000002c0: 3fda 2fbd d337 92bc 05ad 49bd 762d a5bd
000002d0: c6c0 bdbb d7d4 e5bc 7939 18be d7f6 89bd
000002e0: 29fc fb3c 6e7f 51bd 058a 00be 5411 be3c
000002f0: 2114 39bd 25fc 1c3d 65b3 8c3c 87cc 7f3d
00000300: fd29 10bd 2000 a5bc c0f3 abbd 4253 53bd
00000310: 2887 2dbe 1390 5c3d a25d 623d af40 a8bc
00000320: 222d 95bc 7ec1 c2bd f304 29bd 71a7 7ebc
00000330: 7409 0dbd e103 6b3c f86e 0ebd 7b8b 61bd
00000340: a551 b7bd c80c 8bbc dc68 4b3c 47f0 213c
00000350: b8bb 143d 7227 03bd dd43 bebb fa81 39bd
00000360: f8e0 17bd 07a2 85bd d30d 3dbd 1a61 a83c
00000370: 0198 66bc 5e50 b63d c638 bd3c 5147 7abd
00000380: 33b2 42bd 71a9 f9bc 3c47 c7bd 71e8 483c
00000390: d12e 00be dcfb afbd 9d41 aabd fc30 5ebd
000003a0: ab42 f4bd 4ace a33c baee 83bd 68b8 39bd
000003b0: 9295 733a e59f 2bbd 5b8f e63d 345e 15bd
000003c0: cb1c b63d 2ff8 0ebe 91b9 10bd fec3 a83c
000003d0: edc1 c8bc 281b a4bc 9d24 403d 7c8a bcbd
000003e0: 931a 0dbe ae71 d4bd 1fc4 d4bc 6218 8cbd
000003f0: a5ab 50bd 56b7 85bd 16a2 2f3b 3996 273e

lstm.bias_hh_l0 f4 [512]
0.026922083 -0.06228153 -0.07399268 -0.11730749 -0.05057844 -0.068760276 -0.055829905 -0.09916431
-0.011211423 -0.14981176 -0.057124466 -0.081318244 0.03420695 0.028530305 -0.020711157 -0.1708949
-0.010729283 -0.028280482 0.001545285 -0.11488727 -0.11161752 -0.0853246 -0.046076566 -0.014843039
-0.06253483 -0.036743343 -0.076999396 -0.001959427 -0.044729006 0.0017225178 -0.008940403 -0.14918749
-0.051631257 -0.04921684 -0.05579487 -0.012851567 -0.0064465823 -0.050100166 -0.06838153 -0.028137492
-0.06637933 -0.07112402 0.018238869 -0.06461298 -0.032859147 -0.055007853 -0.111748375 -0.045073986
-0.1711384 -0.01568814 -0.07627268 -0.07126978 -0.09559943 0.025482796 -0.13688065 -0.08794379
-0.00081878214 -0.031081932 -0.14626423 0.011562225 -0.03892215 -0.0045613497 0.024637602 0.02195618
0.03581953 -0.005867586 -0.061864242 -0.018666498 -0.059805498 0.023498667 0.022788059 -0.015937284
-0.09465933 -0.035325184 -0.12058952 -0.07654878 -0.027511744 -0.04826205 -0.086608686 -0.013044468
-0.037855573 -0.009755618 -0.025616594 -0.009730605 0.016554307 -0.11728177 -0.08033584 -0.039618276
-0.1126628 -0.10821832 -0.03475512 -0.08972967 -0.010893397 -0.033197027 -0.024783337 -0.08898708
-0.05494311 -0.1349123 -0.13664642 -0.042316247 -0.12832105 -0.18963604 -0.12140556 -0.141662
-0.13411598 0.0057140864 -0.0675618 -0.010156732 -0.009856415 -0.09072456 -0.060708474 -0.060622446
0.03466068 -0.043030903 0.010545596 -0.015568059 -0.04138889 -0.0029291022 0.023530059 -0.08045356
-0.09321468 -0.07368439 0.024377836 -0.046506573 -0.10092153 -0.051266894 0.029064737 0.073667206
0.050517485 -0.054213885 -0.04549779 -0.10258178 0.042730343 -0.044091668 -0.040731464 -0.117312126
-0.00743273 -0.13930467 -0.16347602 -0.06488271 0.04148994 0.026515726 0.00016418149 -0.12952843
0.027373148 -0.029815761 0.027530722 -0.0729744 -0.024261536 -0.13337536 -0.018350085 -0.00034927955
-0.032620803 -0.02502351 -0.03152309 -0.051457074 -0.0152358785 -0.043204166 0.064594865 -0.074043356
-0.06682485 -0.036325023 -0.04233368 0.019765543 -0.008567081 -0.033208463 0.009492802 -0.067457736
-0.022931676 -0.046205394 -0.038068358 -0.02038512 0.03921715 0.050667584 -0.0639009 0.0373308
-0.042932745 -0.017848885 -0.04923727 -0.080653116 -0.0057908027 -0.028055592 -0.14865674 -0.06736534
0.030759888 -0.051146917 -0.1255265 0.023201622 -0.045185212 0.0383264 0.017175386 0.06245091
-0.035196293 -0.020141661 -0.08396101 -0.051593073 -0.1694609 0.053848337 0.055265076 -0.020538656
-0.018209998 -0.09509562 -0.041264486 -0.015542851 -0.034432843 0.0143441865 -0.034773797 -0.05506466
-0.08951119 -0.016973868 0.012415137 0.009883947 0.036311835 -0.03202004 -0.00580643 -0.04528997
-0.03707978 -0.06525045 -0.046155762 0.020554114 -0.0140743265 0.089020476 0.02309836 -0.06110317
-0.047533225 -0.030476304 -0.09730384 0.01226245 -0.12517859 -0.0859296 -0.08313296 -0.054245934
-0.119267784 0.019995827 -0.06442018 -0.04534188 0.0009292002 -0.041900534 0.11257812 -0.036466792
0.088922106 -0.13961862 -0.03533322 0.020601269 -0.024506534 -0.02003248 0.046909917 -0.09206101
-0.13779669 -0.10373245 -0.025972424 -0.06840588 -0.050944943 -0.06529109 0.0026799492 0.16365899
00000000: b38b dc3c eb1a 7fbd 7989 97bd e93e f0bd
00000010: 572b 4fbd 30d2 8cbd e6ad 64bd a816 cbbd
00000020: 1eb0 37bc 4168 19be 58fb 69bd 2e8a a6bd
00000030: 961c 0c3d 63b8 e93c 72aa a9bc 13ff 2ebe
00000040: e0c9 2fbc 78ac e7bc 298b ca3a 044a ebbd
00000050: ba97 e4bd aabe aebd c8ba 3cbd 3830 73bc
00000060: 4312 80bd 3080 16bd dcb1 9dbd bb69 00bb
00000070: c335 37bd 1bc6 e13a c57a 12bc 9bc4 18be
00000080: 4c7b 53bd 9997 49bd 2989 64bd 618f 52bc
00000090: da3d d3bb d535 4dbd 9e0b 8cbd 9980 e6bc
000000a0: e3f1 87bd 78a9 91bd ae69 953c cf53 84bd
000000b0: 5097 06bd ea4f 61bd 55dc e4bd 809f 38bd
000000c0: e83e 2fbe 6a84 80bc da34 9cbd e4f5 91bd
000000d0: a2c9 c3bd 4cc1 d03c 712a 0cbe e01b b4bd
000000e0: 8aa3 56ba 899f febc 4ac6 15be 7d6f 3d3c
000000f0: d56c 1fbd 6077 95bb ccd4 c93c 72dd b33c
00000100: 80b7 123d e144 c0bb 5c65 7dbd 7cea 98bc
00000110: 9cf6 74bd 4780 c03c 06ae ba3c e88e 82bc
00000120: c0dc c1bd 24b1 10bd a3f7 f6bd 9bc5 9cbd
00000130: 4f60 e1bc 6dae 45bd e55f b1bd 77b8 55bc
00000140: 720e 1bbd 07d6 1fbc e4d9 d1bc 1e6d 1fbc
00000150: e69c 873c 6d31 f0bd 1e87 a4bd c646 22bd
00000160: c1bb e6bd 91a1 ddbd 625b 0ebd 30c4 b7bd
00000170: 387a 32bc 9bf9 07bd 6d06 cbbc dc3e b6bd
00000180: 070c 61bd 7326 0abe 0aed 0bbe cd53 2dbd
00000190: 9866 03be f32f 42be 7aa3 f8bd d80f 11be
000001a0: b355 09be 3b3d bb3b d75d 8abd 6c68 26bc
000001b0: cd7c 21bc cccd b9bd 73a9 78bd 3e4f 78bd
000001c0: 5bf8 0d3d 2c41 30bd 6fc7 2c3c 2c11 7fbc
000001d0: 6687 29bd 2ef6 3fbb 1cc2 c03c d6c4 a4bd
000001e0: 57e7 bebd d7e7 96bd 07b4 c73c ad7d 3ebd
000001f0: f2af cebd 3cfd 51bd 2c19 ee3c d5de 963d
00000200: 6ceb 4e3d 610f 5ebd e45b 3abd 6516 d2bd
00000210: 0306 2f3d 7799 34bd 09d6 26bd 5741 f0bd
00000220: 428e f3bb e2a5 0ebe 4266 27be 3ae1 84bd
00000230: 5bf1 293d 8237 d93c 2228 2c39 1aa3 04be
00000240: a73d e03c 2f40 f4bc 1c88 e13c 9a73 95bd
00000250: 21c0 c6bc 8d93 08be eb52 96bc 821f b7b9
00000260: 649d 05bd 1bfe ccbc 5b1e 01bd a7c4 52bd
00000270: e89f 79bc daf6 30bd 504a 843d 0ba4 97bd
00000280: 78db 88bd 8cc9 14bd 1566 2dbd 59eb a13c
00000290: f15c 0cbc 9905 08bd b387 1b3c 4827 8abd
000002a0: 36db bbbc de41 3dbd 91ed 1bbd b2fe a6bc
000002b0: 2aa2 203d d088 4f3d 7ade 82bd 2ee8 183d
000002c0: 3fda 2fbd d337 92bc 05ad 49bd 762d a5bd
000002d0: c6c0 bdbb d7d4 e5bc 7939 18be d7f6 89bd
000002e0: 29fc fb3c 6e7f 51bd 058a 00be 5411 be3c
000002f0: 2114 39bd 25fc 1c3d 65b3 8c3c 87cc 7f3d
00000300: fd29 10bd 2000 a5bc c0f3 abbd 4253 53bd
00000310: 2887 2dbe 1390 5c3d a25d 623d af40 a8bc
00000320: 222d 95bc 7ec1 c2bd f304 29bd 71a7 7ebc
00000330: 7409 0dbd e103 6b3c f86e 0ebd 7b8b 61bd
00000340: a551 b7bd c80c 8bbc dc68 4b3c 47f0 213c
00000350: b8bb 143d 7227 03bd dd43 bebb fa81 39bd
00000360: f8e0 17bd 07a2 85bd d30d 3dbd 1a61 a83c
00000370: 0198 66bc 5e50 b63d c638 bd3c 5147 7abd
00000380: 33b2 42bd 71a9 f9bc 3c47 c7bd 71e8 483c
00000390: d12e 00be dcfb afbd 9d41 aabd fc30 5ebd
000003a0: ab42 f4bd 4ace a33c baee 83bd 68b8 39bd
000003b0: 9295 733a e59f 2bbd 5b8f e63d 345e 15bd
000003c0: cb1c b63d 2ff8 0ebe 91b9 10bd fec3 a83c
000003d0: edc1 c8bc 281b a4bc 9d24 403d 7c8a bcbd
000003e0: 931a 0dbe ae71 d4bd 1fc4 d4bc 6218 8cbd
000003f0: a5ab 50bd 56b7 85bd 16a2 2f3b 3996 273e

lstm.weight_ih_l0_reverse f4 [512, 64]
-0.09834864 -0.06325942 -0.09204214 -0.07811369 0.024477882 -0.011196608 -0.045677118 0.059068207
-0.03332315 -0.20660317 0.023016801 0.103684805 -0.06027384 0.20432816 0.094642706 -0.08640436
0.22553445 0.011794545 -0.087335795 0.14907809 0.09730525 -0.05044963 0.15308328 0.10704417
-0.05228322 0.016963791 -0.018612359 0.16084504 -0.19628714 -0.119390056 -0.113504805 -0.19131827
-0.010801326 -0.0891413 0.044361413 0.009067868 0.1964936 -0.05041403 0.08309519 0.28148463
0.19411403 0.0925499 0.08341899 0.14394537 -0.085714824 -0.22644934 0.073356375 0.102174476
-0.112740956 0.14819436 -0.03442131 0.06410925 0.107464336 -0.110897526 -0.061221365 0.061653443
-0.012281631 -0.050802976 0.1566444 -0.069254875 -0.14947253 -0.14552994 -0.22249706 0.11646611
-0.20604564 -0.08438219 0.014515243 0.002742863 -0.081886165 0.05999929 0.06512803 0.21859795
-0.062809095 -0.075481385 -0.0032288535 0.27866003 -0.11014951 0.11401552 -0.00028150922 0.025015844
0.32726628 0.0092929425 -0.04609717 -0.041686423 0.07835661 -0.1251703 -0.0063239946 0.020663496
0.11379468 -0.075315915 -0.02991305 0.049029842 -0.03859357 0.037367582 -0.034409873 -0.29773447
0.07176762 0.050406735 0.013308852 0.09807153 0.32160336 -0.27364242 0.08100489 0.13232793
0.076418675 -0.26882645 0.049637116 -0.03526205 -0.06002715 -0.2033762 -0.0055523515 0.22413781
-0.217394 0.01649418 0.012201755 -0.066236846 0.15044974 -0.20439014 0.17556858 0.11817498
0.089601405 0.031213664 0.079135105 -0.22106202 -0.2513088 -0.12077327 -0.0181037 -0.018858355
-0.4857297 0.12870307 -0.2111932 0.10713549 -0.35211524 -0.20274277 0.034862224 0.23845221
-0.17433608 -0.28004476 -0.21335852 0.33221653 -0.29129663 -0.10814923 -0.36545822 0.050459653
0.25533584 -0.42166004 0.08712918 -0.046963673 0.00285454 -0.20008951 0.03273554 0.23338701
0.29543027 -0.0898087 0.081057616 -0.3321235 -0.18546428 0.042523716 -0.34311268 -0.23366764
0.0044880034 0.38076952 -0.14937045 0.10077678 0.20183851 -0.27890363 -0.066126935 0.18967128
0.3137525 -0.18960506 0.37481847 0.48365182 -0.3620227 -0.5639582 -0.18372534 0.3150038
0.20925465 0.13444224 0.038408134 -0.17949395 0.2462413 -0.020611545 0.43932155 0.017316073
-0.18171565 -0.09196005 -0.09841561 -0.26556236 -0.6479491 -0.123924606 -0.16341119 0.0077252877
0.21026865 -0.16162235 -0.07729584 -0.03684384 0.06754799 0.18303339 0.33258337 0.08788124
0.16509962 -0.24488541 0.030098518 0.044649877 0.106421374 0.08409467 -0.01000148 -0.4565155
-0.03481184 -0.13396735 -0.3417246 0.032884806 0.08118443 0.35192275 -0.3020214 -0.12066721
-0.3398138 0.46512398 0.22430491 0.12797365 -0.050552253 0.041696474 -0.17745636 -0.099969365
0.25362563 0.25195548 0.17221177 -0.15979232 0.28999957 0.4062307 -0.3429171 0.012712405
-0.16074939 0.23159777 0.32654646 0.026143752 0.37115592 0.022419766 0.16676196 -0.2818568
-0.09730091 0.57651335 0.42803398 0.36055857 -0.07646134 0.06530067 -0.28097185 0.053210985
0.13383444 -0.07734049 0.27545485 0.27739277 -0.019327631 -0.008540344 0.38035786 0.25998995
00000000: 036b c9bd 288e 81bd 9780 bcbd 12fa 9fbd
00000010: d785 c83c fa71 37bc ee17 3bbd 81f1 713d
00000020: db7d 08bd c88f 53be bb8d bc3c b358 d43d
00000030: b4e1 76bd 673b 513e 09d4 c13d c5f4 b0bd
00000040: 81f2 663e e83d 413c 1cdd b2bd eda7 183e
00000050: fa47 c73d 45a4 4ebd ddc1 1c3e f939 db3d
00000060: ee26 56bd a6f7 8a3c f278 98bc 90b4 243e
00000070: 7fff 48be c682 f4bd 3575 e8bd f0e8 43be
00000080: 0bf8 30bc b78f b6bd 50b4 353d 6591 143c
00000090: 9e35 493e f17e 4ebd d02d aa3d c11e 903e
000000a0: d4c5 463e cd8a bd3d 93d7 aa3d 6a66 133e
000000b0: 418b afbd 56e2 67be de3b 963d da40 d13d
000000c0: bbe4 e6bd 43c0 173e 5cfd 0cbd b64b 833d
000000d0: 4316 dc3d 3e1e e3bd 41c3 7abd 5288 7c3d
000000e0: e538 49bc c816 50bd 6467 203e 80d5 8dbd
000000f0: 540f 19be cd05 15be 45d6 63be c985 ee3d
00000100: a1fd 52be 92d0 acbd 57d1 6d3c 9bc1 333b
00000110: efb3 a7bd d1c1 753d d861 853d 24d8 5f3e
00000120: 0ea2 80bd fc95 9abd 2c9b 53bb 87ac 8e3e
00000130: 1196 e1bd f880 e93d 8797 93b9 07ee cc3c
00000140: 728f a73e 6d41 183c 63d0 3cbd 62bf 2abd
00000150: 6e79 a03d a52c 00be 8339 cfbb 7e46 a93c
00000160: 2f0d e93d 3b3f 9abd 360c f5bc 84d3 483d
00000170: 4b14 1ebd c00e 193d 5ef1 0cbd a770 98be
00000180: e7fa 923d 4b77 4e3d 5f0d 5a3c bad9 c83d
00000190: 32a9 a43e dc1a 8cbe e4e5 a53d f980 073e
000001a0: 6581 9c3d 9fa3 89be 4a50 4b3d f06e 10bd
000001b0: 07df 75bd da41 50be 80f0 b5bb 6284 653e
000001c0: 889c 5ebe cd1e 873c dfe9 473c 2fa7 87bd
000001d0: 7f0f 1a3e a64b 51be 40c8 333e b905 f23d
000001e0: f180 b73d ccb3 ff3c 9611 a23d 155e 62be
000001f0: 8cab 80be fa57 f7bd 364e 94bc d67c 9abc
00000200: 90b1 f8be bdca 033e 0843 58be da69 db3d
00000210: 7348 b4be cd9b 4fbe b1cb 0e3d d12c 743e
00000220: 2885 32be 0762 8fbe a87a 5abe 4918 aa3e
00000230: d524 95be 587d ddbd 571d bbbe c8ae 4e3d
00000240: 61bb 823e d3e3 d7be c970 b23d fb5c 40bd
00000250: 3c13 3b3b 44e4 4cbe b415 063d 01fd 6e3e
00000260: a342 973e a0ed b7bd 8901 a63d 170c aabe
00000270: 59ea 3dbe 592d 2e3d 77ac afbe 9246 6fbe
00000280: 1a10 933b 39f4 c23e 91f4 18be 0e64 ce3d
00000290: c1ae 4e3e 75cc 8ebe 8f6d 87bd 3039 423e
000002a0: 2ba4 a03e d427 42be 35e8 bf3e 36a1 f73e
000002b0: 0a5b b9be 915f 10bf 7f22 3cbe 2e48 a13e
000002c0: da46 563e 3aab 093e d951 1d3d 43cd 37be
000002d0: ae26 7c3e 8bd9 a8bc c1ee e03e 70da 8d3c
000002e0: ab13 3abe 8d55 bcbd 208e c9bd caf7 87be
000002f0: fedf 25bf 2fcc fdbd 4355 27be 6924 fd3b
00000300: aa50 573e 5480 25be 484d 9ebd 91e9 16bd
00000310: 9a56 8a3d 1b6d 3b3e 5e48 aa3e 14fb b33d
00000320: e00f 293e 3ec3 7abe 2b91 f63c cae2 363d
00000330: 73f3 d93d d439 ac3d 3fdd 23bc 66bc e9be
00000340: dc96 0ebd bd2e 09be 87f6 aebe 38b2 063d
00000350: 0644 a63d 382f b43e 8da2 9abe 5f20 f7bd
00000360: 13fc adbe bb24 ee3e 30b0 653e 860b 033e
00000370: e10f 4fbd ecc9 2a3d 1fb7 35be bdbc ccbd
00000380: 38db 813e 4f00 813e 4858 303e 99a0 23be
00000390: d37a 943e 78fd cf3e d592 afbe b147 503c
000003a0: 7d9b 24be f727 6d3e 1931 a73e 6c2b d63c
000003b0: 2608 be3e a8a9 b73c a6c3 2a3e 894f 90be
000003c0: b345 c7bd 6196 133f 4527 db3e 229b b83e
000003d0: c397 9cbd 5cbc 853d 8bdb 8fbe c3f3 593d
000003e0: e50b 093e b164 9ebd 6b08 8d3e 6d06 8e3e
000003f0: fb54 9ebc cdec 0bbc 44be c23e 671d 853e

lstm.weight_hh_l0_reverse f4 [512, 128]
-0.04779622 0.047889058 -0.10251816 -0.10145952 -0.16457455 -0.042405263 -0.09751653 0.07814167
-0.22127336 0.028732779 0.020312797 -0.0060171555 -0.006319429 0.11105492 -0.0021774457 0.023176149
-0.08212455 -0.069625616 0.0074759293 -0.0419328 -0.18000986 -0.022063432 -0.046324827 0.009347553
-0.117147386 -0.00035414498 -0.31244576 -0.013601959 -0.022865966 0.09192445 -0.14131217 0.05517178
-0.026145758 -0.13530858 -0.045193102 0.032725602 -0.034127418 -0.044998977 -0.1490589 0.018753659
0.045906764 -0.06851447 0.08909483 -0.040487655 0.06457682 -0.0064410698 -0.010700302 0.03451864
0.019752586 0.07574734 0.02742463 -0.0059194393 -0.12525725 -0.11276706 -0.20597579 -0.1925724
0.04315496 0.096361 0.06966354 0.09776858 -0.027146183 0.020352053 0.103194915 0.076771274
0.44987857 -0.0483227 -0.3568134 -0.34547874 -0.0029740827 -0.10990192 -0.041302152 -0.06450498
-0.07058686 0.08321394 -0.06507455 -0.06776112 0.08446792 0.0001629917 0.08120485 0.05708846
-0.1507575 0.2866169 0.17767024 -0.038553677 -0.09719025 0.058440458 0.016737599 0.023199437
0.20330441 -0.052789044 -0.083744794 0.0091298 0.20402902 0.22032714 0.3402683 0.33814517
0.005648763 -0.20807336 -0.097410984 -0.04292034 -0.028987033 -0.059927974 0.19482823 -0.079597585
-0.22885762 0.071264155 -0.059128985 0.09931769 0.039638758 0.016292011 0.12458449 -0.006451944
-0.089667484 -0.25536752 -0.050617352 0.26254126 0.02922786 0.14468952 -0.3129612 0.17586152
0.15690854 0.035508815 0.02343857 0.039745633 0.04833309 0.03665424 -0.07485225 -0.1705149
0.008551425 0.0931441 0.40453422 0.090021245 0.07378668 0.06833108 -0.082042485 0.1213432
0.28314668 -0.1654072 -0.26550186 0.19998279 0.010777607 -0.25656018 -0.27223122 -0.08265443
-0.13061912 -0.04700809 -0.36146855 -0.12427759 -0.12411654 0.13309704 -0.008781488 -0.14864583
0.048498433 -0.033666115 -0.014121977 0.23322658 0.07303002 -0.050201405 -0.22009943 0.067406535
0.13657857 -0.12057625 -0.21180919 -0.19484286 0.027476624 0.064999476 -0.37126732 0.09322779
-0.2802612 -0.104535 -0.08955217 -0.05116695 -0.009293944 -0.061338965 0.037059866 0.02370676
-0.22547057 0.109876014 -0.014777429 0.0059258365 -0.030304942 0.026131446 -0.14023383 0.024500482
0.02314198 0.005048071 -0.1808512 0.057491526 -0.23348685 0.13588734 -0.015472581 0.22081006
0.059824843 0.00825805 -0.07540711 -0.03341987 0.058510527 0.09020563 0.27630678 0.07729183
0.07430826 -0.1810614 -0.24052913 -0.16288671 0.31578252 0.029865826 0.036022406 -0.18602742
-0.12343828 -0.09892719 0.33933344 0.015053984 0.05242534 -0.0018151659 -0.21356396 -0.01452891
0.061967913 0.24877176 0.08028101 0.09942865 0.007587406 -0.13203798 -0.16411234 -0.079452716
0.214979 0.13773224 0.13468206 -0.23503137 -0.06631396 -0.14758897 -0.062131662 -0.22368437
-0.0042688292 0.03734643 0.2252498 0.024357403 -0.013230816 -0.021387056 -0.039964285 -0.037287854
-0.0060174596 -0.14196977 0.12382387 -0.27553484 0.021040479 0.51791877 -0.00803634 -0.02013006
0.14391185 -0.099831976 0.09071872 0.12192578 -0.06364782 0.032837994 0.129572 0.16827163
00000000: f8c5 43bd 5127 443d 0bf5 d1bd 02ca cfbd
00000010: 3b86 28be 24b1 2dbd bfb6 c7bd bd08 a03d
00000020: 7c95 62be 0161 eb3c 0667 a63c 8f2b c5bb
00000030: 3613 cfbb c370 e33d 7ab3 0ebb e8db bd3c
00000040: eb30 a8bd e097 8ebd a4f8 f43b bac1 2bbd
00000050: 8154 38be 5fbe b4bc 1abf 3dbd 7b26 193c
00000060: f8ea efbd 89ac b9b9 e4f8 9fbe c0da 5ebc
00000070: 6851 bbbc e342 bc3d 23b4 10be cefb 613d
00000080: a12f d6bc 558e 0abe 671c 39bd 480b 063d
00000090: 31c9 0bbd d950 38bd e5a2 18be 46a1 993c
000000a0: bb08 3c3d 5051 8cbd 5a77 b63d 62d6 25bd
000000b0: da40 843d 9c0f d3bb 5250 2fbc 6b63 0d3d
000000c0: 2dd0 a13c 6c21 9b3d 9ea9 e03c dbf7 c1bb
000000d0: 7043 00be 6bf2 e6bd 51eb 52be b331 45be
000000e0: 41c3 303d ea58 c53d c2ab 8e3d e53a c83d
000000f0: ac61 debc 59b9 a63c db57 d33d 423a 9d3d
00000100: 7c56 e63e 06ee 45bd 3fb0 b6be 97e2 b0be
00000110: d4e8 42bb 4214 e1bd 722c 29bd 301b 84bd
00000120: d88f 90bd 126c aa3d ce45 85bd 58c6 8abd
00000130: 84fd ac3d c0e8 2a39 ba4e a63d 97d5 693d
00000140: 2d60 1abe 73bf 923e 30ef 353e 76ea 1dbd
00000150: af0b c7bd 435f 6f3d 4a1d 893c bf0c be3c
00000160: 082f 503e 5339 58bd 6482 abbd 2895 153c
00000170: fcec 503e 709d 613e a637 ae3e 5d21 ad3e
00000180: 4219 b93b 2f11 55be 697f c7bd 3dcd 2fbd
00000190: 3776 edbc 0977 75bd 0d81 473e 0f04 a3bd
000001a0: a759 6abe f1f2 913d 3c31 72bd 1367 cb3d
000001b0: 405c 223d d376 853c 2726 ff3d d46a d3bb
000001c0: 96a3 b7bd 88bf 82be 2454 4fbd cf6b 863e
000001d0: 446f ef3c 7d29 143e 733c a0be 0b15 343e
000001e0: a2ac 203e b171 113d 3e02 c03c 51cc 223d
000001f0: ebf8 453d c222 163d 234c 99bd 759b 2ebe
00000200: 471b 0c3c 55c2 be3d 1c1f cf3e 0f5d b83d
00000210: 791d 973d 2af1 8b3d e405 a8bd c982 f83d
00000220: 9af8 903e 8160 29be dcef 87be 4ac8 4c3e
00000230: 8f94 303c db5b 83be e461 8bbe ba46 a9bd
00000240: 05c1 05be 8e8b 40bd 6812 b9be 4085 febd
00000250: d030 febd 974a 083e 3be0 0fbc 9d36 18be
00000260: 4ba6 463d 7be5 09bd dd5f 67bc f3d2 6e3e
00000270: c390 953d fd9f 4dbd bf61 61be 700c 8a3d
00000280: 41db 0b3e aef0 f6bd 82e4 58be e384 47be
00000290: a816 e13c 721e 853d c016 bebe 36ee be3d
000002a0: 657e 8fbe 7216 d6bd 2167 b7bd 7094 51bd
000002b0: a045 18bc 913e 7bbd 16cc 173d ae34 c23c
000002c0: c2e1 66be ad06 e13d 081d 72bc 852d c23b
000002d0: 1242 f8bc 9d11 d63c 7599 0fbe 3cb5 c83c
000002e0: 4094 bd3c 4a6a a53b 0f31 39be 3c7c 6b3d
000002f0: 2d17 6fbe 0d26 0b3e b580 7dbc 081c 623e
00000300: e50a 753d c64c 073c 0b6f 9abd 46e3 08bd
00000310: bca8 6f3d bbbd b83d 1578 8d3e 2e4b 9e3d
00000320: ee2e 983d 2968 39be 454d 76be c6cb 26be
00000330: 3fae a13e 2da9 f43c 3b8c 133d f97d 3ebe
00000340: 35cd fcbd 579a cabd 1dbd ad3e fca4 763c
00000350: f4bb 563d dcea edba 83b0 5abe aa0a 6ebc
00000360: 11d2 7d3d 06be 7e3e 5f6a a43d 40a1 cb3d
00000370: c69f f83b f734 07be 110d 28be 1bb8 a2bd
00000380: 7423 5c3e ae09 0d3e 18ea 093e 10ac 70be
00000390: 9dcf 87bd 9021 17be c57d 7ebd 840d 65be
000003a0: 89e1 8bbb 92f8 183d e2a7 663e 2d89 c73c
000003b0: 11c6 58bc e833 afbc 97b1 23bd 26bb 18bd
000003c0: 1c2e c5bb 8660 11be 5f97 fd3d e712 8dbe
000003d0: 155d ac3c 5396 043f daaa 03bc cce7 a4bc
000003e0: a15d 133e b574 ccbd bcca b93d 39b4 f93d
000003f0: ca59 82bd 2281 063d 86ae 043e 664f 2c3e
